…
\n\"import tensorflow as tf; print(tf.version.GIT_VERSION, tf.version.VERSION)\"`\r\nhave done locally (pip install) and recently trying anaconda \r\n` conda create -n tf-n python  \r\n conda activate tf-n  \r\n pip install tf-nightly`\r\n\r\n**Describe the current behavior**\r\nHere is error --says save method is not available.  \r\n`Model: \"sequential_2\"\r\n_________________________________________________________________\r\nLayer (type)                 Output Shape              Param #   \r\n=================================================================\r\nconv2d_4 (Conv2D)            (None, 148, 148, 32)      896       \r\n_________________________________________________________________\r\nmax_pooling2d_4 (MaxPooling2 (None, 74, 74, 32)        0         \r\n_________________________________________________________________\r\nconv2d_5 (Conv2D)            (None, 72, 72, 64)        18496     \r\n_________________________________________________________________\r\nmax_pooling2d_5 (MaxPooling2 (None, 36, 36, 64)        0         \r\n_________________________________________________________________\r\nconv2d_6 (Conv2D)            (None, 34, 34, 128)       73856     \r\n_________________________________________________________________\r\nmax_pooling2d_6 (MaxPooling2 (None, 17, 17, 128)       0         \r\n_________________________________________________________________\r\nconv2d_7 (Conv2D)            (None, 15, 15, 128)       147584    \r\n_________________________________________________________________\r\nmax_pooling2d_7 (MaxPooling2 (None, 7, 7, 128)         0         \r\n_________________________________________________________________\r\ndropout_1 (Dropout)          (None, 7, 7, 128)         0         \r\n_________________________________________________________________\r\nflatten_1 (Flatten)          (None, 6272)              0         \r\n_________________________________________________________________\r\ndense_2 (Dense)              (None, 512)               3211776   \r\n_________________________________________________________________\r\ndense_3 (Dense)              (None, 2)                 1026      \r\n=================================================================\r\nTotal params: 3,453,634\r\nTrainable params: 3,453,634\r\nNon-trainable params: 0\r\n_________________________________________________________________\r\n want to save tflite_fileC:\\Grewe\\Classes\\CS663\\Mat\\TensorFlow\\cats_and_dogs_filtered\\my_tflite_model.h5\r\nconverter = <tensorflow.lite.python.lite.TFLiteConve
…
