…
vice (0): GeForce RTX 2080 SUPER, Compute Capability 7.5\r\nTrain volume shape:\r\n   (99, 2, 432, 768, 3)\r\nTest volume shape: \r\n   (66, 2, 432, 768, 3)\r\n\r\n\r\n===== You're trying ...\r\nmname:      vid3-AGN-500epc-1btc\r\n=====\r\n\r\nProceed? */n: \r\nVirtual devices cannot be modified after being initialized\r\nYour model:\r\nModel: \"sequential\"\r\n_________________________________________________________________\r\nLayer (type)                 Output Shape              Param #   \r\n=================================================================\r\nconv2d (Conv2D)              (None, 432, 768, 36)      1008      \r\n_________________________________________________________________\r\nbatch_normalization (BatchNo (None, 432, 768, 36)      144       \r\n_________________________________________________________________\r\nup_sampling2d (UpSampling2D) (None, 864, 1536, 36)     0         \r\n_________________________________________________________________\r\nbatch_normalization_1 (Batch (None, 864, 1536, 36)     144       \r\n_________________________________________________________________\r\nconv2d_1 (Conv2D)            (None, 864, 1536, 36)     11700     \r\n_________________________________________________________________\r\nbatch_normalization_2 (Batch (None, 864, 1536, 36)     144       \r\n_________________________________________________________________\r\nmax_pooling2d (MaxPooling2D) (None, 432, 768, 36)      0         \r\n_________________________________________________________________\r\nbatch_normalization_3 (Batch (None, 432, 768, 36)      144       \r\n_________________________________________________________________\r\nconv2d_2 (Conv2D)            (None, 432, 768, 3)       975       \r\n=================================================================\r\nTotal params: 14,259\r\nTrainable params: 13,971\r\nNon-trainable params: 288\r\n_________________________________________________________________\r\nNone\r\nFit? */n: \r\nEpoch 1/500\r\n2020-12-05 14:22:51.499832: I tensorflow/stream_executor/platform/default/dso_loader.cc:48] Successfully opened dynamic library cudnn
…
020-12-07 12:48:16.597859: I tensorflow/compiler/xla/service/service.cc:176]   StreamExecutor device (0): GeForce RTX 2080 SUPER, Compute Capability 7.5\r\nTrain volume shape:\r\n   (600, 2, 128, 128, 3)\r\nTest volume shape: \r\n   (400, 2, 128, 128, 3)\r\n\r\nVirtual devices cannot be modified after being initialized\r\nYour model:\r\nModel: \"sequential\"\r\n_________________________________________________________________\r\nLayer (type)                 Output Shape              Param #   \r\n=================================================================\r\nconv2d (Conv2D)              (None, 128, 128, 64)      1792      \r\n_________________________________________________________________\r\nbatch_normalization (BatchNo (None, 128, 128, 64)      256       \r\n_________________________________________________________________\r\nconv2d_1 (Conv2D)            (None, 128, 128, 64)      36928     \r\n_________________________________________________________________\r\nbatch_normalization_1 (Batch (None, 128, 128, 64)      256       \r\n_________________________________________________________________\r\nconv2d_2 (Conv2D)            (None, 128, 128, 64)      36928     \r\n_________________________________________________________________\r\nbatch_normalization_2 (Batch (None, 128, 128, 64)      256       \r\n_________________________________________________________________\r\nup_sampling2d (UpSampling2D) (None, 256, 256, 64)      0         \r\n_________________________________________________________________\r\nbatch_normalization_3 (Batch (None, 256, 256, 64)      256       \r\n_________________________________________________________________\r\nconv2d_3 (Conv2D)            (None, 256, 256, 64)      36928     \r\n_________________________________________________________________\r\nbatch_normalization_4 (Batch (None, 256, 256, 64)      256       \r\n_________________________________________________________________\r\nconv2d_4 (Conv2D)            (None, 256, 256, 64)      36928     \r\n_________________________________________________________________\r\nbatch_normalization_5 (Batch (None, 256, 256, 64)      256       \r\n_________________________________________________________________\r\nconv2d_5 (Conv2D)            (None, 256, 256, 64)      36928     \r\n_________________________________________________________________\r\nbatch_normalization_6 (Batch (None, 256, 256, 64)      256       \r\n_________________________________________________________________\r\nmax_pooling2d (MaxPooling2D) (None, 128, 128, 64)      0         \r\n_________________________________________________________________\r\nbatch_normalization_7 (Batch (None, 128, 128, 64)      256       \r\n_________________________________________________________________\r\nconv2d_6 (Conv2D)            (None, 128, 128, 64)      36928     \r\n_________________________________________________________________\r\nbatch_normalization_8 (Batch (None, 128, 128, 64)      256       \r\n_________________________________________________________________\r\nconv2d_7 (Conv2D)            (None, 128, 128, 64)      36928     \r\n_________________________________________________________________\r\nbatch_normalization_9 (Batch (None, 128, 128, 64)      256       \r\n_________________________________________________________________\r\nconv2d_8 (Conv2D)            (None, 128, 128, 64)      36928     \r\n_________________________________________________________________\r\nbatch_normalization_10 (Batc (None, 128, 128, 64)      256       \r\n_________________________________________________________________\r\ndense (Dense)                (None, 128, 128, 3)       195       \r\n=================================================================\r\nTotal params: 300,227\r\nTrainable params: 298,819\r\nNon-trainable params: 1,408\r\n_________________________________________________________________\r\nNone\r\nProceed? */n: \r\nEpoch 1/20000\r\n2020-12-07 12:48:21.149807: I tensorflow/stream_executor/platform/default/dso_loader.cc:48] Successfully opened dynamic lib
…
