…
/job:worker/replica:0/task:0/device:TPU_SYSTEM:0, TPU_SYSTEM, 0, 0)\r\nINFO:tensorflow:*** Available Device: _DeviceAttributes(/job:worker/replica:0/task:0/device:XLA_CPU:0, XLA_CPU, 0, 0)\r\nINFO:tensorflow:*** Available Device: _DeviceAttributes(/job:worker/replica:0/task:0/device:XLA_CPU:0, XLA_CPU, 0, 0)\r\n```\r\n```\r\n['loss']\r\nModel: \"sequential\"\r\n_________________________________________________________________\r\nLayer (type)                 Output Shape              Param #   \r\n=================================================================\r\nconv1d (Conv1D)              (None, 1279, 16)          48        \r\n_________________________________________________________________\r\nconv1d_1 (Conv1D)            (None, 1278, 32)          1056      \r\n_________________________________________________________________\r\nconv1d_2 (Conv1D)            (None, 1277, 64)          4160      \r\n_________________________________________________________________\r\nconv1d_3 (Conv1D)            (None, 1276, 128)         16512     \r\n_________________________________________________________________\r\nmax_pooling1d (MaxPooling1D) (None, 638, 128)          0         \r\n_________________________________________________________________\r\nflatten (Flatten)            (None, 81664)             0         \r\n_________________________________________________________________\r\ndense (Dense)                (None, 4)                 326660    \r\n=================================================================\r\nTotal params: 348,436\r\nTrainable params: 348,436\r\nNon-trainable params: 0\r\n_________________________________________________________________\r\nNone\r\n--\r\n--\r\n```\r\nI can see this error in the console though - I am not sure where the proto-buf is coming and why did it work in TF 1.3 - hence I consider this a b
…
