…
 running without any issues on CPU as well on GCP. With this same code I have already completed more than 70 epochs but due to slowness of CPU I decided to move to TPU.** \r\n\r\n\r\n\r\n\r\n\r\n\r\n\r\nHere is stack trace of error.\r\n\r\n```python\r\n\r\noptimizer >>> {'name': 'Adam', 'learning_rate': 0.001, 'decay': 0.0, 'rho': 0.95, 'epsilon': 1e-07}\r\n\r\n_________________________________________________________________\r\nLayer (type)                 Output Shape              Param #   \r\n=================================================================\r\nconv2d (Conv2D)              (None, 1280, 1280, 256)   7168      \r\n_________________________________________________________________\r\nmax_pooling2d (MaxPooling2D) (None, 640, 640, 256)     0         \r\n_________________________________________________________________\r\nconv2d_1 (Conv2D)            (None, 640, 640, 256)     590080    \r\n_________________________________________________________________\r\nmax_pooling2d_1 (MaxPooling2 (None, 320, 320, 256)     0         \r\n_________________________________________________________________\r\nconv2d_2 (Conv2D)            (None, 320, 320, 64)      147520    \r\n_________________________________________________________________\r\nmax_pooling2d_2 (MaxPooling2 (None, 160, 160, 64)      0         \r\n_________________________________________________________________\r\nconv2d_3 (Conv2D)            (None, 160, 160, 32)      18464     \r\n_________________________________________________________________\r\nmax_pooling2d_3 (MaxPooling2 (None, 80, 80, 32)        0         \r\n_________________________________________________________________\r\nconv2d_4 (Conv2D)            (None, 80, 80, 16)        4624      \r\n_________________________________________________________________\r\nmax_pooling2d_4 (MaxPooling2 (None, 40, 40, 16)        0         \r\n_________________________________________________________________\r\nconv2d_5 (Conv2D)            (None, 40, 40, 16)        2320      \r\n_________________________________________________________________\r\nup_sampling2d (UpSampling2D) (None, 80, 80, 16)        0         \r\n_________________________________________________________________\r\nconv2d_6 (Conv2D)            (None, 80, 80, 32)        4640      \r\n_________________________________________________________________\r\nup_sampling2d_1 (UpSampling2 (None, 160, 160, 32)      0         \r\n_________________________________________________________________\r\nconv2d_7 (Conv2D)            (None, 160, 160, 64)      18496     \r\n_________________________________________________________________\r\nup_sampling2d_2 (UpSampling2 (None, 320, 320, 64)      0         \r\n_________________________________________________________________\r\nconv2d_8 (Conv2D)            (None, 320, 320, 256)     147712    \r\n_________________________________________________________________\r\nup_sampling2d_3 (UpSampling2 (None, 640, 640, 256)     0         \r\n_________________________________________________________________\r\nconv2d_9 (Conv2D)            (None, 640, 640, 256)     590080    \r\n_________________________________________________________________\r\nup_sampling2d_4 (UpSampling2 (None, 1280, 1280, 256)   0         \r\n_________________________________________________________________\r\nconv2d_10 (Conv2D)           (None, 1280, 1280, 3)     6915      \r\n=================================================================\r\nTotal params: 1,538,019\r\nTrainable params: 1,538,019\r\nNon-trainable params: 0\r\n_________________________________________________________________\r\nEpoch 1/50\r\n---------------------------------------------------------------------------\r\nValueError                                Traceback (most recent call last
…
at the inference time cost is a bit high. So I want to enable GPU delegate to see if it improves the time cost. However, GPU delegate doesn't allow dynamic-sized tensors, thus, when converting, I need to set the size of my input layer, which I did in the above code, but I couldn't get the model to convert after that.\r\nSummary of my model is as follows:\r\n```\r\n_________________________________________________________________\r\nLayer (type)                 Output Shape              Param #\r\n=================================================================\r\nembedding (Embedding)        (None, 1900, 128)         377600\r\n_________________________________________________________________\r\nbidirectional (Bidirectional (None, 1900, 256)         263168\r\n_________________________________________________________________\r\nbatch_normalization (BatchNo (None, 1900, 256)         1024\r\n_________________________________________________________________\r\nglobal_max_pooling1d (Global (None, 256)               0\r\n_________________________________________________________________\r\ndense (Dense)                (None, 64)                16448\r\n_________________________________________________________________\r\ndense_1 (Dense)              (None, 32)                2080\r\n_________________________________________________________________\r\ndense_2 (Dense)              (None, 2)                 66\r\n=================================================================\r\nTotal params: 660,386\r\nTrainable params: 659,874\r\nNon-trainable params: 512\r\n```\r\n\r\n", "comments": ["@limjq45 \r\n\r\nCan you try with this code. Will it be possible to share model.h5 file to reproduce the issue in our environment.\r\n\r\n```\r\nconverter = tf.lite.TFLiteConverter.from_keras_model_file(\r\n    'mode
…
