…
evice (0): Host, Default Version\r\nModel: \"model_4\"\r\n__________________________________________________________________________________________________\r\nLayer (type)                    Output Shape         Param #     Connected to                     \r\n==================================================================================================\r\ninput_5 (InputLayer)            [(None, 2)]          0                                            \r\n__________________________________________________________________________________________________\r\nreshape_2 (Reshape)             (None, 1, 2)         0           input_5[0][0]                    \r\n__________________________________________________________________________________________________\r\nreshape_1 (Reshape)             (None, 1, 2)         0           input_5[0][0]                    \r\n__________________________________________________________________________________________________\r\nreshape (Reshape)               (None, 2, 1)         0           input_5[0][0]                    \r\n__________________________________________________________________________________________________\r\nup_sampling1d_2 (UpSampling1D)  (None, 3, 2)         0           reshape_2[0][0]                  \r\n__________________________________________________________________________________________________\r\nup_sampling1d_1 (UpSampling1D)  (None, 3, 2)         0           reshape_1[0][0]                  \r\n__________________________________________________________________________________________________\r\nup_sampling1d (UpSampling1D)    (None, 4, 1)         0           reshape[0][0]                    \r\n__________________________________________________________________________________________________\r\nreshape_5 (Reshape)             (None, 2, 1)         0           input_5[0][0]                    \r\n__________________________________________________________________________________________________\r\nzero_padding1d_1 (ZeroPadding1D (None, 4, 2)         0           up_sampling1d_2[0][0]            \r\n__________________________________________________________________________________________________\r\nzero_padding1d (ZeroPadding1D)  (None, 4, 2)         0           up_sampling1d_1[0][0]            \r\n__________________________________________________________________________________________________\r\nconv1d (Conv1D)                 (None, 4, 2)         4           up_sampling1d[0][0]              \r\n__________________________________________________________________________________________________\r\nmax_pooling1d (MaxPooling1D)    (None, 1, 1)         0           reshape_5[0][0]                  \r\n__________________________________________________________________________________________________\r\nreshape_3 (Reshape)             (None, 2, 1)         0           input_5[0][0]                    \r\n__________________________________________________________________________________________________\r\nconv1d_1 (Conv1D)               (None, 4, 4)         12          zero_padding1d_1[0][0]           \r\n__________________________________________________________________________________________________\r\ndot (Dot)                       (None, 4, 4)         0           zero_padding1d[0][0]             \r\n                                                                 conv1d[0][0]                     \r\n__________________________________________________________________________________________________\r\nspatial_dropout1d (SpatialDropo (None, 1, 1)         0           max_pooling1d[0][0]              \r\n__________________________________________________________________________________________________\r\nglobal_average_pooling1d (Globa (None, 1)            0           reshape_3[0][0]                  \r\n__________________________________________________________________________________________________\r\ndot_1 (Dot)                     (None, 4, 4)         0           conv1d_1[0][0]                   \r\n                                                                 dot[0][0]                        \r\n__________________________________________________________________________________________________\r\nalpha_dropout (AlphaDropout)    (None, 1, 1)         0           spatial_dropout1d[0][0]          \r\n__________________________________________________________________________________________________\r\nreshape_4 (Reshape)             (None, 1, 1)         0           global_average_pooling1d[0][0]   \r\n__________________________________________________________________________________________________\r\ndropout (Dropout)               (None, 4, 4)         0           dot_1[0][0]                      \r\n__________________________________________________________________________________________________\r\nflatten (Flatten)               (None, 1)            0           alpha_dropout[0][0]              \r\n__________________________________________________________________________________________________\r\nglobal_average_pooling1d_1 (Glo (None, 1)            0           reshape_4[0][0]                  \r\n__________________________________________________________________________________________________\r\nflatten_1 (Flatten)             (None, 16)           0           dropout[0][0]                    \r\n__________________________________________________________________________________________________\r\nconcatenate (Concatenate)       (None, 20)           0           input_5[0][0]                    \r\n                                                                 flatten[0][0]                    \r\n                                                                 global_average_pooling1d_1[0][0] \r\n                                                                 flatten_1[0][0]                  \r\n__________________________________________________________________________________________________\r\ndense_4 (Dense)                 (None, 2)            42          concatenate[0][0]                \r\n==================================================================================================\r\nTotal params: 58\r\nTrainable params: 58\r\nNon-trainable params: 0\r\n__________________________________________________________________________________________________\r\nTrain on 8000 samples, validate on 2000 samples\r\nEpoch 1/3\r\n2020-04-04 11:
…
k reply; I've tested it on the nightly and get an error you can also find on [Stackoverflow](https://stackoverflow.com/questions/61362953/keras-convlstm2d-valueerror-when-saving-model): \r\n\r\n```\r\nModel: \"learn2sofi\"\r\n_________________________________________________________________\r\nLayer (type)                 Output Shape              Param #   \r\n=================================================================\r\nx_input (InputLayer)         [(None, 491520)]          0         \r\n_________________________________________________________________\r\nreshape_6 (Reshape)          (None, 30, 128, 128, 1)   0         \r\n_________________________________________________________________\r\nconv_lst_m2d_4 (ConvLSTM2D)  (None, 128, 128, 4)       736       \r\n_________________________________________________________________\r\nbatch_normalization_4 (Batch (None, 128, 128, 4)       16        \r\n_________________________________________________________________\r\nconv2d_2 (Conv2D)            (None, 128, 128, 1)       37        \r\n_________________________________________________________________\r\nup_sampling2d_4 (UpSampling2 (None, 256, 256, 1)       0         \r\n_________________________________________________________________\r\nreshape_7 (Reshape)          (None, 65536)             0         \r\n=================================================================\r\nTotal params: 789\r\nTrainable params: 781\r\nNon-trainable params: 8\r\n_________________________________________________________________\r\n---------------------------------------------------------------------------\r\nValueError                                Traceback (most recent call last)\r\n<ipython-input-3-e
…
