…
 find the attached gist. Thanks!", "@nitinmnsn,\r\nAs per [this comment](https://github.com/tensorflow/tensorflow/issues/26302#issue-416580025), empty arrays cause this error. Could you please take a look at this and let us know if it helps. Thanks!"]}, {"number": 39090, "title": "Problem with tfjs.converters.save_keras_model", "body": "Model: \"sequential\"\r\n_________________________________________________________________\r\nLayer (type)                 Output Shape              Param #   \r\n=================================================================\r\nconv2d (Conv2D)              (None, 224, 224, 32)      896       \r\n_________________________________________________________________\r\nmax_pooling2d (MaxPooling2D) (None, 112, 112, 32)      0         \r\n_________________________________________________________________\r\nconv2d_1 (Conv2D)            (None, 112, 112, 64)      18496     \r\n_________________________________________________________________\r\nmax_pooling2d_1 (MaxPooling2 (None, 56, 56, 64)        0         \r\n_________________________________________________________________\r\nconv2d_2 (Conv2D)            (None, 56, 56, 64)        36928     \r\n_________________________________________________________________\r\nmax_pooling2d_2 (MaxPooling2 (None, 28, 28, 64)        0         \r\n_________________________________________________________________\r\nflatten (Flatten)            (None, 50176)             0         \r\n_________________________________________________________________\r\ndense (Dense)                (None, 512)               25690624  \r\n_________________________________________________________________\r\ndense_1 (Dense)              (None, 7)                 3591      \r\n=================================================================\r\nTotal params: 25,750,535\r\nTrainable params: 25,750,535\r\nNon-trainable params: 0\r\n_________________________________________________________________\r\n\r\nThis is a summary of the model that I made and trained, it's fairly simple, but when I use tensorflowjs to save it to a folder to be used as a javascript model i
…
