…
.py:running bert_bilstm_softmax.py INFO:root:loading data... INFO:absl:Using /tmp/tfhub_modules to cache modules. INFO:tensorflow:Saver not created because there are no variables in the graph to restore INFO:tensorflow:Saver not created because there are no variables in the graph to restore INFO:tensorflow:Saver not created because there are no variables in the graph to restore INFO:tensorflow:Saver not created because there are no variables in the graph to restore 38 7 (2742, 38, 1024) (392, 38, 1024) (2742, 38, 2) (392, 38, 2)\r\n\r\nLayer (type) Output Shape Param #\r\ninput_1 (InputLayer) (None, 38, 1024) 0\r\n\r\nbatch_normalization_1 (Batch (None, 38, 1024) 4096\r\n\r\nmasking_1 (Masking) (None, 38, 1024) 0\r\n\r\nbidirectional_1 (Bidirection (None, 38, 256) 1180672\r\n\r\nbidirectional_2 (Bidirection (None, 38, 256) 394240\r\n\r\ndropout_1 (Dropout) (None, 38, 256) 0\r\n\r\ndense_1 (Dense) (None, 38, 2) 514\r\nTotal params: 1,579,522 Trainable params: 1,577,474 Non-trainable params: 2,048\r\n\r\nTrain on 2742 samples, validate on 392 samples Epoch 1/30 2020-02-28 19:42:36.337714: I tensorflow/core/platform/cpu_feature_guard.cc:141] Your CPU supports instructions that this TensorFlow binary was not compiled to use: SSE4.1 SSE4.2 AVX AVX2 AVX512F FMA 2020-02-28 19:42:36.787351: I tensorflow/core/commo
…
