…
 data. That dataset includes about 20k training and about 4k validation images. All of them are very similar, all [show the very same object](https://imgur.com/a/ClbMJ0H). My model looks like this:\r\n\r\n```\r\nModel: \"autoencoder\"\r\n_________________________________________________________________\r\nLayer (type)                 Output Shape              Param #\r\n=================================================================\r\ninput_1 (InputLayer)         [(None, 300, 300, 1)]     0\r\n_________________________________________________________________\r\nencoder (Functional)         (None, 16)                5779216\r\n_________________________________________________________________\r\ndecoder (Functional)         (None, 300, 300, 1)       6176065\r\n=================================================================\r\nTotal params: 11,955,281\r\nTrainable params: 11,954,897\r\nNon-trainable params: 384\r\n_________________________________________________________________\r\nModel: \"encoder\"\r\n_________________________________________________________________\r\nLayer (type)                 Output Shape              Param #\r\n=================================================================\r\ninput_1 (InputLayer)         [(None, 300, 300, 1)]     0\r\n_________________________________________________________________\r\nconv2d (Conv2D)              (None, 150, 150, 32)      320\r\n_________________________________________________________________\r\nleaky_re_lu (LeakyReLU)      (None, 150, 150, 32)      0\r\n_________________________________________________________________\r\nbatch_normalization (BatchNo (None, 150, 150, 32)      128\r\n_________________________________________________________________\r\nconv2d_1 (Conv2D)            (None, 75, 75, 64)        18496\r\n_________________________________________________________________\r\nleaky_re_lu_1 (LeakyReLU)    (None, 75, 75, 64)        0\r\n_________________________________________________________________\r\nbatch_normalization_1 (Batch (None, 75, 75, 64)        256\r\n_________________________________________________________________\r\nflatten (Flatten)            (None, 360000)            0\r\n_________________________________________________________________\r\ndense (Dense)                (None, 16)                5760016\r\n=================================================================\r\nTotal params: 5,779,216\r\nTrainable params: 5,779,024\r\nNon-trainable params: 192\r\n_________________________________________________________________\r\nModel: \"decoder\"\r\n_________________________________________________________________\r\nLayer (type)                 Output Shape              Param #\r\n=================================================================\r\ninput_2 (InputLayer)         [(None, 16)]              0\r\n_________________________________________________________________\r\ndense_1 (Dense)              (None, 360000)            6120000\r\n_________________________________________________________________\r\nreshape (Reshape)            (None, 75, 75, 64)        0\r\n_________________________________________________________________\r\nconv2d_transpose (Conv2DTran (None, 150, 150, 64)      36928\r\n_________________________________________________________________\r\nleaky_re_lu_2 (LeakyReLU)    (None, 150, 150, 64)      0\r\n_________________________________________________________________\r\nbatch_normalization_2 (Batch (None, 150, 150, 64)      256\r\n_________________________________________________________________\r\nconv2d_transpose_1 (Conv2DTr (None, 300, 300, 32)      18464\r\n_________________________________________________________________\r\nleaky_re_lu_3 (LeakyReLU)    (None, 300, 300, 32)      0\r\n_________________________________________________________________\r\nbatch_normalization_3 (Batch (None, 300, 300, 32)      128\r\n_________________________________________________________________\r\nconv2d_transpose_2 (Conv2DTr (None, 300, 300, 1)       289\r\n_________________________________________________________________\r\nactivation (Activation)      (None, 300, 300, 1)       0\r\n=================================================================\r\nTotal params: 6,176,065\r\nTrainable params: 6,175,873\r\nNon-trainable params: 192\r\n```\r\n\r\nThen I initialize my model like this:\r\n\r\n    IMGSIZE = 300\r\n    EPOCHS = 20\r\n    LR = 0.0001\r\n\r\n    (encoder, decoder, autoencoder) = ConvAutoencoder.build(IMGSIZE, IMGSIZE, 1)\r\n    sched = ExponentialDecay(initial_
…
