…
 GPU device #0: unknown error\r\nWARNING:tensorflow:From D:\\AnacondaInstalled\\envs\\tfgpu\\lib\\site-packages\\keras\\backend\\tensorflow_backend.py:3445: calling dropout (from tensorflow.python.ops.nn_ops) with keep_prob is deprecated and will be removed in a future version.\r\nInstructions for updating:\r\nPlease use `rate` instead of `keep_prob`. Rate should be set to `rate = 1 - keep_prob`.\r\n_________________________________________________________________\r\nLayer (type) Output Shape Param #\r\n=================================================================\r\n1stInput (InputLayer) (None, 32, 32, 1) 0\r\n_________________________________________________________________\r\n1st (Conv2D) (None, 32, 32, 32) 832\r\n_________________________________________________________________\r\nbatchNorm1 (BatchNormalizati (None, 32, 32, 32) 128\r\n_________________________________________________________________\r\nRelu1 (ReLU) (None, 32, 32, 32) 0\r\n_________________________________________________________________\r\npool3 (MaxPooling2D) (None, 32, 32, 32) 0\r\n_________________________________________________________________\r\ndropout1 (Dropout) (None, 32, 32, 32) 0\r\n_________________________________________________________________\r\n2nd_conv (Conv2D) (None, 32, 32, 64) 18496\r\n_________________________________________________________________\r\nbatchNorm2 (BatchNormalizati (None, 32, 32, 64) 256\r\n_________________________________________________________________\r\nrelu2 (ReLU) (None, 32, 32, 64) 0\r\n_________________________________________________________________\r\npool4 (MaxPooling2D) (None, 32, 32, 64) 0\r\n_________________________________________________________________\r\ndropout2 (Dropout) (None, 32, 32, 64) 0\r\n_________________________________________________________________\r\n3rd_conv (Conv2D) (None, 32, 32, 86) 49622\r\n_________________________________________________________________\r\nbatchNorm3 (BatchNormalizati (None, 32, 32, 86) 344\r\n_________________________________________________________________\r\nrelu3 (ReLU) (None, 32, 32, 86) 0\r\n_________________________________________________________________\r\npool5 (MaxPooling2D) (None, 16, 16, 86) 0\r\n_________________________________________________________________\r\ndropout3 (Dropout) (None, 16, 16, 86) 0\r\n_________________________________________________________________\r\nFlattenLayer1 (Flatten) (None, 22016) 0\r\n_________________________________________________________________\r\nFUllYConnected_1 (Dense) (None, 1024) 22545408\r\n_________________________________________________________________\r\nbatchNorm4 (BatchNormalizati (None, 1024) 4096\r\n_________________________________________________________________\r\nrelu4 (ReLU) (None, 1024) 0\r\n_________________________________________________________________\r\ndropout6 (Dropout) (None, 1024) 0\r\n_________________________________________________________________\r\nFUll_2 (Dense) (None, 1024) 1049600\r\n_________________________________________________________________\r\nbatchNorm5 (BatchNormalizati (None, 1024) 4096\r\n_________________________________________________________________\r\nrelu5 (ReLU) (None, 1024) 0\r\n_________________________________________________________________\r\ndropout7 (Dropout) (None, 1024) 0\r\n_________________________________________________________________\r\nFUll_3 (Dense) (None, 36) 36900\r\n=================================================================\r\nTotal params: 23,709,778\r\nTrainable params: 23,705,318\r\nNon-trainable params: 4,460\r\n_________________________________________________________________\r\nNone\r\nModel configured..!\r\nWARNING:tensorflow:From D:\\AnacondaInstalled\\envs\\tfgpu\\lib\\site-packages\\tensorflow\\python\\ops\\math_ops.py:3066: to_int32 (fro
…
