…
l/mkl_util.h:1288] Non-OK-status: Status(error::Code::INVALID_ARGUMENT, \"Unsupported data format\") status: Invalid argument: Unsupported data format`\r\nThere is no even message about what OP caused failure. Seq2seq is batch-major if important.", "Same here, installed tf and keras from conda.\r\n\r\n```\r\n_________________________________________________________________\r\n4/6/2018 2:46:52 PMLayer (type)                 Output Shape              Param #\r\n4/6/2018 2:46:52 PM=================================================================\r\n4/6/2018 2:46:52 PMreshape_1 (Reshape)          (None, 16, 5)             0\r\n4/6/2018 2:46:52 PM_________________________________________________________________\r\n4/6/2018 2:46:52 PMconv1d_1_1 (Conv1D)          (None, 16, 512)           5632\r\n4/6/2018 2:46:52 PM_________________________________________________________________\r\n4/6/2018 2:46:52 PMactivation_1_1 (PReLU)       (None, 16, 512)           8192\r\n4/6/2018 2:46:52 PM_________________________________________________________________\r\n4/6/2018 2:46:52 PMmax_pooling_1_1 (MaxPooling1 (None, 8, 512)            0\r\n4/6/2018 2:46:52 PM_________________________________________________________________\r\n4/6/2018 2:46:52 PMdropout_1_1 (Dropout)        (None, 8, 512)            0\r\n4/6/2018 2:46:52 PM_________________________________________________________________\r\n4/6/2018 2:46:52 PMflatten_1_1 (Flatten)        (None, 4096)              0\r\n4/6/2018 2:46:52 PM_________________________________________________________________\r\n4/6/2018 2:46:52 PMdense_1_2 (Dense)            (None, 1)                 4097\r\n4/6/2018 2:46:52 PM_________________________________________________________________\r\n4/6/2018 2:46:52 PMactivationn_1_2 (Activation) (None, 1)                 0\r\n4/6/2018 2:46:52 PM=================================================================\r\n4/6/2018 2:46:52 PMTotal params: 17,921\r\n4/6/2018 2:46:52 PMTrainable params: 17,921\r\n4/6/2018 2:46:52 PMNon-trainable params: 0\r\n4/6/2018 2:46:52 PM_________________________________________________________________\r\n4/6/2018 2:46:52 PM2018-04-06 21:46:52.907397: I tensorflow/core/platform/cpu_featur
…
