…
2*GRU the output shape is (None,7,256)\r\n    x = Bidirectional(GRU(units=128,name='GRU',return_sequences=True))(x)\r\n\r\n    #apply (None,7,256) to all GRUs output (None,7,16)\r\n    x = TimeDistributed(Dense(16,name='fc2'))(x)\r\n    x = Activation('softmax')(x)\r\n    x = Flatten(name='Flatten2',inputs=x)\r\n\r\nwhen I show my summary, it print like this\r\n_________________________________________________________________\r\nLayer (type)                 Output Shape              Param #   \r\n=================================================================\r\ninput_1 (InputLayer)         (None, 90, 30, 3)         0         \r\n_________________________________________________________________\r\nconv1 (Conv2D)               (None, 88, 28, 32)        896       \r\n_________________________________________________________________\r\npool1 (MaxPooling2D)         (None, 44, 14, 32)        0         \r\n_________________________________________________________________\r\nbn1 (BatchNormalization)     (None, 44, 14, 32)        128       \r\n_________________________________________________________________\r\nactivation_1 (Activation)    (None, 44, 14, 32)        0         \r\n_________________________________________________________________\r\nconv2 (Conv2D)               (None, 42, 12, 64)        18496     \r\n_________________________________________________________________\r\npool2 (MaxPooling2D)         (None, 21, 6, 64)         0         \r\n_________________________________________________________________\r\nbn2 (BatchNormalization)     (None, 21, 6, 64)         256       \r\n_________________________________________________________________\r\nactivation_2 (Activation)    (None, 21, 6, 64)         0         \r\n_________________________________________________________________\r\nconv3 (Conv2D)               (None, 19, 4, 64)         36928     \r\n_________________________________________________________________\r\npool3 (MaxPooling2D)         (None, 9, 2, 64)          0         \r\n_________________________________________________________________\r\nbn3 (BatchNormalization)     (None, 9, 2, 64)          256       \r\n_________________________________________________________________\r\nactivation_3 (Activation)    (None, 9, 2, 64)          0         \r\n_________________________________________________________________\r\nflatte1 (Flatten)            (None, 1152)              0         \r\n_________________________________________________________________\r\nfc1 (Dense)                  (None, 256)               295168    \r\n_________________________________________________________________\r\nrepeat (RepeatVector)        (None, 7, 256)            0         \r\n_________________________________________________________________\r\nbidirectional_1 (Bidirection (None, 7, 256)            295680    \r\n_________________________________________________________________\r\ntime_distributed_1 (TimeDist (None, 7, 16)             4112      \r\n_________________________________________________________________\r\nFlatten2 (Flatten)           (None, 112)               0         \r\n=================================================================\r\n\r\nbut when I change my codes to tf.keras like this(the architecture do not change! )\r\n_________________________________________________________________\r\nrepeat (RepeatVector)        (None, 7, 256)            0         \r\n_________________________________________________________________\r\nbidirectional_1 (Bidirection (None, None, 256)         295680    \r\n_________________________________________________________________\r\ntime_distributed_1 (TimeDist (None, None, 16)          4112      \r\n_________________________________________________________________\r\nactivation_4 (Activation)    (None, None, 
…
