…
o, please include a link to a GraphDef or the model if possible.\r\nI am not exactly sure what that is, I hope thi is the output of the keras summary\r\n```\r\nLayer (type)                    Output Shape         Param #     Connected to                     \r\n==================================================================================================\r\ninputs (InputLayer)             [(None, 250, 1)]     0                                            \r\n__________________________________________________________________________________________________\r\nbidirectional (Bidirectional)   (None, 250, 100)     20800       inputs[0][0]                     \r\n__________________________________________________________________________________________________\r\nconv1d (Conv1D)                 (None, 246, 25)      150         inputs[0][0]                     \r\n__________________________________________________________________________________________________\r\nflatten (Flatten)               (None, 25000)        0           bidirectional[0][0]              \r\n__________________________________________________________________________________________________\r\nflatten_1 (Flatten)             (None, 6150)         0           conv1d[0][0]                     \r\n__________________________________________________________________________________________________\r\nconcatenate (Concatenate)       (None, 31150)        0           flatten[0][0]                    \r\n                                                                 flatten_1[0][0]                  \r\n__________________________________________________________________________________________________\r\ndense (Dense)                   (None, 2048)         63797248    concatenate[0][0]                \r\n__________________________________________________________________________________________________\r\ndense_1 (Dense)                 (None, 1024)         2098176     dense[0][0]                      \r\n__________________________________________________________________________________________________\r\ndense_2 (Dense)                 (None, 512)          524800      dense_1[0][0]                    \r\n__________________________________________________________________________________________________\r\ndense_7 (Dense)                 (None, 2048)         63797248    concatenate[0][0]                \r\n__________________________________________________________________________________________________\r\ndense_3 (Dense)                 (None, 256)          131328      dense_2[0][0]                    \r\n__________________________________________________________________________________________________\r\ndense_8 (Dense)                 (None, 1024)         2098176     dense_7[0][0]                    \r\n__________________________________________________________________________________________________\r\ndense_4 (Dense)                 (None, 128)          32896       dense_3[0][0]                    \r\n__________________________________________________________________________________________________\r\ndense_9 (Dense)                 (None, 512)          524800      dense_8[0][0]                    \r\n__________________________________________________________________________________________________\r\ndense_5 (Dense)                 (None, 50)           6450        dense_4[0][0]                    \r\n__________________________________________________________________________________________________\r\ndense_10 (Dense)                (None, 256)          131328      dense_9[0][0]                    \r\n__________________________________________________________________________________________________\r\nreshape (Reshape)               (None, 50, 1)        0           dense_5[0][0]                    \r\n__________________________________________________________________________________________________\r\ndense_11 (Dense)                (None, 128)          32896       dense_10[0][0]                   \r\n__________________________________________________________________________________________________\r\ntime_distributed (TimeDistribut (None, 50, 1)        2           reshape[0][0]                    \r\n__________________________________________________________________________________________________\r\ndense_12 (Dense)                (None, 50)           6450        dense_11[0][0]                   \r\n__________________________________________________________________________________________________\r\nom (Reshape)                    (None, 50, 1)        0           time_distributed[0][0]           \r\n__________________________________________________________________________________________________\r\nreshape_1 (Reshape)             (None, 50, 1)        0           dense_12[0][0]                   \r\n__________________________________________________________________________________________________\r\nconcatenate_1 (Concatenate)     (None, 50, 2)        0           om[0][0]                         \r\n                                                                 reshape_1[0][0]                  \r\n__________________________________________________________________________________________________\r\nflatten_2 (Flatten)             (None, 100)          0           concatenate_1[0][0]              \r\n__________________________________________________________________________________________________\r\ndense_13 (Dense)                (None, 100)          10100       flatten_2[0][0]                  \r\n__________________________________________________________________________________________________\r\ndense_14 (Dense)                (None, 100)          10100       dense_13[0][0]                   \r\n__________________________________________________________________________________________________\r\ndense_15 (Dense)                (None, 50)           5050        dense_14[0][0]                   \r\n__________________________________________________________________________________________________\r\ndense_16 (Dense)                (None, 50)           2550        dense_15[0][0]                   \r\n__________________________________________________________________________________________________\r\nreshape_2 (Reshape)             (None, 50, 1)        0           dense_16[0][0]                   \r\n__________________________________________________________________________________________________\r\ntime_distributed_1 (TimeDistrib (None, 50, 1)        2           reshape_2[0][0]                  \r\n__________________________________________________________________________________________________\r\nof (Reshape)                    (None, 50, 1)        0           time_distributed_1[0][0]         \r\n```\r\n\r\n\r\n**Any other info / logs**\r\nI also tried setting target_ops=TFLITE_BUILTINS,SELECT_TF_OPS when calling tf.lite.TFLiteConverter() \r\nby doing this:\r\n```python\r\ntf.lite.TFLiteConverter.target_ops = set([\"TFLITE_BUILTINS\",\"SELECT_TF_OPS\"])\r\nconverter = tf.lite.TFLiteConverter.from_saved_model(INPATH)\r\n```\r\nbut I could not 
…
