…
sion (if compiling from source)**: \r\n- **GCC/Compiler version (if compiling from source)**: \r\n- **CUDA/cuDNN version**: 8.0/6\r\n- **GPU model and memory**: NVIDIA Tesla k80 totalMemory: 11.17GiB freeMemory: 11.09GiB\r\n- **Exact command to reproduce**: See below:\r\n\r\n### Below is the log:\r\n\r\n> keep_dims is deprecated, use keepdims instead\r\n> _________________________________________________________________\r\n> Layer (type)                 Output Shape              Param #   \r\n> =================================================================\r\n> input_1 (InputLayer)         (None, 7, 264)            0         \r\n> _________________________________________________________________\r\n> reshape_1 (Reshape)          (None, 7, 264, 1)         0         \r\n> _________________________________________________________________\r\n> conv2d_1 (Conv2D)            (None, 7, 264, 64)        16960     \r\n> _________________________________________________________________\r\n> max_pooling2d_1 (MaxPooling2 (None, 7, 132, 64)        0         \r\n> _________________________________________________________________\r\n> flatten_1 (Flatten)          (None, 59136)             0         \r\n> _________________________________________________________________\r\n> dense_1 (Dense)              (None, 1024)              60556288  \r\n> _________________________________________________________________\r\n> dropout_1 (Dropout)          (None, 1024)              0         \r\n> _________________________________________________________________\r\n> dense_2 (Dense)              (None, 512)               524800    \r\n> _________________________________________________________________\r\n> dropout_2 (Dropout)          (None, 512)               0         \r\n> _________________________________________________________________\r\n> dense_3 (Dense)              (None, 88)                45144     \r\n> =================================================================\r\n> Total params: 61,143,192\r\n> Trainable params: 61,143,192\r\n> Non-trainable params: 0\r\n> _________________________________________________________________\r\n> /home/hpnhxxwn/miniconda3/envs/carnd-term1/lib/python3.5/site-packages/keras/engine/training.py:2057: UserWarning: Using a generator with `use_multiproces
…
