…
ivation = 'relu'))\r\nmodel.add(BatchNormalization())\r\nmodel.add(Dropout(0.5))\r\n\r\nmodel.add(Dense(4, activation = 'softmax'))\r\n\r\nmodel.summary() \r\n\r\nmodel.compile(optimizer = 'adam', loss = 'binary_crossentropy', metrics = ['accuracy'])\r\nhistory = model.fit(X_train, y_train, epochs = 5, batch_size = 5, validation_data = (X_test, y_test), verbose = 1)\r\n```\r\n\r\nBelow is the result of model.summary():\r\n```\r\nLayer (type)                 Output Shape              Param #   \r\n=================================================================\r\nconv1d (Conv1D)              (None, 2, 2)              2         \r\n_________________________________________________________________\r\nbatch_normalization (BatchNo (None, 2, 2)              8         \r\n_________________________________________________________________\r\nmax_pooling1d (MaxPooling1D) (None, 1, 2)              0         \r\n_________________________________________________________________\r\ndropout (Dropout)            (None, 1, 2)              0         \r\n_________________________________________________________________\r\nconv1d_1 (Conv1D)            (None, 2, 4)              4         \r\n_________________________________________________________________\r\nbatch_normalization_1 (Batch (None, 2, 4)              16        \r\n_________________________________________________________________\r\nmax_pooling1d_1 (MaxPooling1 (None, 1, 4)              0         \r\n_________________________________________________________________\r\ndropout_1 (Dropout)          (None, 1, 4)              0         \r\n_________________________________________________________________\r\nconv1d_2 (Conv1D)            (None, 2, 8)              8         \r\n_________________________________________________________________\r\nbatch_normalization_2 (Batch (None, 2, 8)              32        \r\n_________________________________________________________________\r\nmax_pooling1d_2 (MaxPooling1 (None, 1, 8)              0         \r\n_________________________________________________________________\r\ndropout_2 (Dropout)          (None, 1, 8)              0         \r\n_________________________________________________________________\r\nconv1d_3 (Conv1D)            (None, 2, 16)             16        \r\n_________________________________________________________________\r\nbatch_normalization_3 (Batch (None, 2, 16)             64        \r\n_________________________________________________________________\r\nmax_pooling1d_3 (MaxPooling1 (None, 1, 16)             0         \r\n_________________________________________________________________\r\ndropout_3 (Dropout)          (None, 1, 16)             0         \r\n_________________________________________________________________\r\nflatten (Flatten)            (None, 16)                0         \r\n_________________________________________________________________\r\ndense (Dense)                (None, 16)                272       \r\n_________________________________________________________________\r\nbatch_normalization_4 (Batch (None, 16)                64        \r\n_________________________________________________________________\r\ndropout_4 (Dropout)          (None, 16)                0         \r\n_________________________________________________________________\r\ndense_1 (Dense)              (None, 16)                272       \r\n_________________________________________________________________\r\nbatch_normalization_5 (Batch (None, 16)                64        \r\n_________________________________________________________________\r\ndropout_5 (Dropout)          (None, 16)                0         \r\n_________________________________________________________________\r\ndense_2 (Dense)              (None, 4)                 68        \r\n=================================================================\r\nTotal params: 890\r\nTrainable params: 766\r\nNon-trainable params: 124\r\n_________________________________________________________________\r\n```\r\n\r\nGiven the size of the model, I find it hard to believe that it would take over 3 hours for anything to happen. Any insight is appreciated and happy to provide any a
…
