…
sorflow\\lite\\python\\interpreter.py\", line 540, in invoke\r\n    self._interpreter.Invoke()\r\nRuntimeError: tensorflow/lite/kernels/concatenation.cc:76 t->dims->data[d] != t0->dims->data[d] (400 != 1)Node number 33 (CONCATENATION) failed to prepare.\r\nNode number 3 (WHILE) failed to invoke.\r\nNode number 187 (WHILE) failed to invoke.\r\n`\r\n\r\n**TF Model summary** \r\n`\r\nLayer (type)                    Output Shape         Param #     Connected to\r\n==================================================================================================\r\ninput_1 (InputLayer)            [(None, 300, 300, 3) 0\r\n__________________________________________________________________________________________________\r\nidentity_layer (Lambda)         (None, 300, 300, 3)  0           input_1[0][0]\r\n__________________________________________________________________________________________________\r\ninput_mean_normalization (Lambd (None, 300, 300, 3)  0           identity_layer[0][0]\r\n__________________________________________________________________________________________________\r\ninput_channel_swap (Lambda)     (None, 300, 300, 3)  0           input_mean_normalization[0][0]\r\n__________________________________________________________________________________________________\r\nconv1_1 (Conv2D)                (None, 300, 300, 64) 1792        input_channel_swap[0][0]\r\n__________________________________________________________________________________________________\r\nconv1_2 (Conv2D)                (None, 300, 300, 64) 36928       conv1_1[0][0]\r\n__________________________________________________________________________________________________\r\npool1 (MaxPooling2D)            (None, 150, 150, 64) 0           conv1_2[0][0]\r\n__________________________________________________________________________________________________\r\nconv2_1 (Conv2D)                (None, 150, 150, 128 73856       pool1[0][0]\r\n__________________________________________________________________________________________________\r\nconv2_2 (Conv2D)                (None, 150, 150, 128 147584      conv2_1[0][0]\r\n__________________________________________________________________________________________________\r\npool2 (MaxPooling2D)            (None, 75, 75, 128)  0           conv2_2[0][0]\r\n__________________________________________________________________________________________________\r\nconv3_1 (Conv2D)                (None, 75, 75, 256)  295168      pool2[0][0]\r\n__________________________________________________________________________________________________\r\nconv3_2 (Conv2D)                (None, 75, 75, 256)  590080      conv3_1[0][0]\r\n__________________________________________________________________________________________________\r\nconv3_3 (Conv2D)                (None, 75, 75, 256)  590080      conv3_2[0][0]\r\n__________________________________________________________________________________________________\r\npool3 (MaxPooling2D)            (None, 38, 38, 256)  0           conv3_3[0][0]\r\n__________________________________________________________________________________________________\r\nconv4_1 (Conv2D)                (None, 38, 38, 512)  1180160     pool3[0][0]\r\n__________________________________________________________________________________________________\r\nconv4_2 (Conv2D)                (None, 38, 38, 512)  2359808     conv4_1[0][0]\r\n__________________________________________________________________________________________________\r\nconv4_3 (Conv2D)                (None, 38, 38, 512)  2359808     conv4_2[0][0]\r\n__________________________________________________________________________________________________\r\npool4 (MaxPooling2D)            (None, 19, 19, 512)  0           conv4_3[0][0]\r\n__________________________________________________________________________________________________\r\nconv5_1 (Conv2D)                (None, 19, 19, 512)  2359808     pool4[0][0]\r\n__________________________________________________________________________________________________\r\nconv5_2 (Conv2D)                (None, 19, 19, 512)  2359808     conv5_1[0][0]\r\n__________________________________________________________________________________________________\r\nconv5_3 (Conv2D)                (None, 19, 19, 512)  2359808     conv5_2[0][0]\r\n__________________________________________________________________________________________________\r\npool5 (MaxPooling2D)            (None, 19, 19, 512)  0           conv5_3[0][0]\r\n__________________________________________________________________________________________________\r\nfc6 (Conv2D)                    (None, 19, 19, 1024) 4719616     pool5[0][0]\r\n__________________________________________________________________________________________________\r\nfc7 (Conv2D)                    (None, 19, 19, 1024) 1049600     fc6[0][0]\r\n__________________________________________________________________________________________________\r\nconv6_1 (Conv2D)                (None, 19, 19, 256)  262400      fc7[0][0]\r\n__________________________________________________________________________________________________\r\nconv6_padding (ZeroPadding2D)   (None, 21, 21, 256)  0           conv6_1[0][0]\r\n__________________________________________________________________________________________________\r\nconv6_2 (Conv2D)                (None, 10, 10, 512)  1180160     conv6_padding[0][0]\r\n__________________________________________________________________________________________________\r\nconv7_1 (Conv2D)                (None, 10, 10, 128)  65664       conv6_2[0][0]\r\n__________________________________________________________________________________________________\r\nconv7_padding (ZeroPadding2D)   (None, 12, 12, 128)  0           conv7_1[0][0]\r\n__________________________________________________________________________________________________\r\nconv7_2 (Conv2D)                (None, 5, 5, 256)    295168      conv7_padding[0][0]\r\n__________________________________________________________________________________________________\r\nconv8_1 (Conv2D)                (None, 5, 5, 128)    32896       conv7_2[0][0]\r\n__________________________________________________________________________________________________\r\nconv8_2 (Conv2D)                (None, 3, 3, 256)    295168      conv8_1[0][0]\r\n__________________________________________________________________________________________________\r\nconv9_1 (Conv2D)                (None, 3, 3, 128)    32896       conv8_2[0][0]\r\n__________________________________________________________________________________________________\r\nconv4_3_norm (L2Normalization)  (None, 38, 38, 512)  512         conv4_3[0][0]\r\n__________________________________________________________________________________________________\r\nconv9_2 (Conv2D)                (None, 1, 1, 256)    295168      conv9_1[0][0]\r\n__________________________________________________________________________________________________\r\nconv4_3_norm_mbox_conf (Conv2D) (None, 38, 38, 4220) 19449980    conv4_3_norm[0][0]\r\n__________________________________________________________________________________________________\r\nfc7_mbox_conf (Conv2D)          (None, 19, 19, 5275) 48619675    fc7[0][0]\r\n__________________________________________________________________________________________________\r\nconv6_2_mbox_conf (Conv2D)      (None, 10, 10, 5275) 24312475    conv6_2[0][0]\r\n__________________________________________________________________________________________________\r\nconv7_2_mbox_conf (Conv2D)      (None, 5, 5, 5275)   12158875    conv7_2[0][0]\r\n__________________________________________________________________________________________________\r\nconv8_2_mbox_conf (Conv2D)      (None, 3, 3, 4220)   9727100     conv8_2[0][0]\r\n__________________________________________________________________________________________________\r\nconv9_2_mbox_conf (Conv2D)      (None, 1, 1, 4220)   9727100     conv9_2[0][0]\r\n__________________________________________________________________________________________________\r\nconv4_3_norm_mbox_loc (Conv2D)  (None, 38, 38, 16)   73744       conv4_3_norm[0][0]\r\n__________________________________________________________________________________________________\r\nfc7_mbox_loc (Conv2D)           (None, 19, 19, 20)   184340      fc7[0][0]\r\n__________________________________________________________________________________________________\r\nconv6_2_mbox_loc (Conv2D)       (None, 10, 10, 20)   92180       conv6_2[0][0]\r\n__________________________________________________________________________________________________\r\nconv7_2_mbox_loc (Conv2D)       (None, 5, 5, 20)     46100       conv7_2[0][0]\r\n__________________________________________________________________________________________________\r\nconv8_2_mbox_loc (Conv2D)       (None, 3, 3, 16)     36880       conv8_2[0][0]\r\n__________________________________________________________________________________________________\r\nconv9_2_mbox_loc (Conv2D)       (None, 1, 1, 16)     36880       conv9_2[0][0]\r\n__________________________________________________________________________________________________\r\nconv4_3_norm_mbox_conf_reshape  (None, 5776, 1055)   0           conv4_3_norm_mbox_conf[0][0]\r\n__________________________________________________________________________________________________\r\nfc7_mbox_conf_reshape (Reshape) (None, 1805, 1055)   0           fc7_mbox_conf[0][0]\r\n__________________________________________________________________________________________________\r\nconv6_2_mbox_conf_reshape (Resh (None, 500, 1055)    0           conv6_2_mbox_conf[0][0]\r\n__________________________________________________________________________________________________\r\nconv7_2_mbox_conf_reshape (Resh (None, 125, 1055)    0           conv7_2_mbox_conf[0][0]\r\n__________________________________________________________________________________________________\r\nconv8_2_mbox_conf_reshape (Resh (None, 36, 1055)     0           conv8_2_mbox_conf[0][0]\r\n__________________________________________________________________________________________________\r\nconv9_2_mbox_conf_reshape (Resh (None, 4, 1055)      0           conv9_2_mbox_conf[0][0]\r\n__________________________________________________________________________________________________\r\nconv4_3_norm_mbox_priorbox (Anc (None, 38, 38, 4, 8) 0           conv4_3_norm_mbox_loc[0][0]\r\n__________________________________________________________________________________________________\r\nfc7_mbox_priorbox (AnchorBoxes) (None, 19, 19, 5, 8) 0           fc7_mbox_loc[0][0]\r\n__________________________________________________________________________________________________\r\nconv6_2_mbox_priorbox (AnchorBo (None, 10, 10, 5, 8) 0           conv6_2_mbox_loc[0][0]\r\n__________________________________________________________________________________________________\r\nconv7_2_mbox_priorbox (AnchorBo (None, 5, 5, 5, 8)   0           conv7_2_mbox_loc[0][0]\r\n__________________________________________________________________________________________________\r\nconv8_2_mbox_priorbox (AnchorBo (None, 3, 3, 4, 8)   0           conv8_2_mbox_loc[0][0]\r\n__________________________________________________________________________________________________\r\nconv9_2_mbox_priorbox (AnchorBo (None, 1, 1, 4, 8)   0           conv9_2_mbox_loc[0][0]\r\n__________________________________________________________________________________________________\r\nmbox_conf (Concatenate)         (None, 8246, 1055)   0           conv4_3_norm_mbox_conf_reshape[0]\r\n                                                                 fc7_mbox_conf_reshape[0][0]\r\n                                                                 conv6_2_mbox_conf_reshape[0][0]\r\n                                                                 conv7_2_mbox_conf_reshape[0][0]\r\n                                                                 conv8_2_mbox_conf_reshape[0][0]\r\n                                                                 conv9_2_mbox_conf_reshape[0][0]\r\n__________________________________________________________________________________________________\r\nconv4_3_norm_mbox_loc_reshape ( (None, 5776, 4)      0           conv4_3_norm_mbox_loc[0][0]\r\n__________________________________________________________________________________________________\r\nfc7_mbox_loc_reshape (Reshape)  (None, 1805, 4)      0           fc7_mbox_loc[0][0]\r\n__________________________________________________________________________________________________\r\nconv6_2_mbox_loc_reshape (Resha (None, 500, 4)       0           conv6_2_mbox_loc[0][0]\r\n__________________________________________________________________________________________________\r\nconv7_2_mbox_loc_reshape (Resha (None, 125, 4)       0           conv7_2_mbox_loc[0][0]\r\n__________________________________________________________________________________________________\r\nconv8_2_mbox_loc_reshape (Resha (None, 36, 4)        0           conv8_2_mbox_loc[0][0]\r\n__________________________________________________________________________________________________\r\nconv9_2_mbox_loc_reshape (Resha (None, 4, 4)         0           conv9_2_mbox_loc[0][0]\r\n__________________________________________________________________________________________________\r\nconv4_3_norm_mbox_priorbox_resh (None, 5776, 8)      0           conv4_3_norm_mbox_priorbox[0][0]\r\n__________________________________________________________________________________________________\r\nfc7_mbox_priorbox_reshape (Resh (None, 1805, 8)      0           fc7_mbox_priorbox[0][0]\r\n__________________________________________________________________________________________________\r\nconv6_2_mbox_priorbox_reshape ( (None, 500, 8)       0           conv6_2_mbox_priorbox[0][0]\r\n__________________________________________________________________________________________________\r\nconv7_2_mbox_priorbox_reshape ( (None, 125, 8)       0           conv7_2_mbox_priorbox[0][0]\r\n__________________________________________________________________________________________________\r\nconv8_2_mbox_priorbox_reshape ( (None, 36, 8)        0           conv8_2_mbox_priorbox[0][0]\r\n__________________________________________________________________________________________________\r\nconv9_2_mbox_priorbox_reshape ( (None, 4, 8)         0           conv9_2_mbox_priorbox[0][0]\r\n__________________________________________________________________________________________________\r\nmbox_conf_softmax (Activation)  (None, 8246, 1055)   0           mbox_conf[0][0]\r\n__________________________________________________________________________________________________\r\nmbox_loc (Concatenate)          (None, 8246, 4)      0           conv4_3_norm_mbox_loc_reshape[0][\r\n                                                                 fc7_mbox_loc_reshape[0][0]\r\n                                                                 conv6_2_mbox_loc_reshape[0][0]\r\n                                                                 conv7_2_mbox_loc_reshape[0][0]\r\n                                                                 conv8_2_mbox_loc_reshape[0][0]\r\n                                                                 conv9_2_mbox_loc_reshape[0][0]\r\n__________________________________________________________________________________________________\r\nmbox_priorbox (Concatenate)     (None, 8246, 8)      0           conv4_3_norm_mbox_priorbox_reshap\r\n                                                                 fc7_mbox_priorbox_reshape[0][0]\r\n                                                                 conv6_2_mbox_priorbox_reshape[0][\r\n                                                                 conv7_2_mbox_priorbox_reshape[0][\r\n                                                                 conv8_2_mbox_priorbox_reshape[0][\r\n                                                                 conv9_2_mbox_priorbox_reshape[0][\r\n__________________________________________________________________________________________________\r\npredictions (Concatenate)       (None, 8246, 1067)   0           mbox_conf_softmax[0][0]\r\n                                                                 mbox_loc[0][0]\r\n                                                                 mbox_priorbox[0][0]\r\n__________________________________________________________________________________________________\r\ndecoded_predictions (DecodeDete (None, 200, 6)       0           predictions[0][0]\r\n==================================================================================================\r\nTotal params: 147,409,265\r\nTrainable params: 147,409,265\r\nNon-trainable params: 0\r\n`\r\n\r\n\r\nDo you need any additional data or maybe it's kind of known issue ?\r\nThank you & best regards\r\n", "comments": ["Could you set a value for batch size instead of 
…
ne that ?\r\nBecause the net was trained with some batch size, and I failed to find any TF API allow to define batch size during model compilation... ", "@thaink  I succeeded to get to the following TF net state:\r\n\r\n`\r\nLayer (type)                    Output Shape         Param #     Connected to\r\n==================================================================================================\r\ninput_1 (InputLayer)            [(1, 300, 300, 3)]   0\r\n__________________________________________________________________________________________________\r\nidentity_layer (Lambda)         (1, 300, 300, 3)     0           input_1[0][0]\r\n__________________________________________________________________________________________________\r\ninput_mean_normalization (Lambd (1, 300, 300, 3)     0           identity_layer[0][0]\r\n__________________________________________________________________________________________________\r\ninput_channel_swap (Lambda)     (1, 300, 300, 3)     0           input_mean_normalization[0][0]\r\n__________________________________________________________________________________________________\r\nconv1_1 (Conv2D)                (1, 300, 300, 64)    1792        input_channel_swap[0][0]\r\n__________________________________________________________________________________________________\r\nconv1_2 (Conv2D)                (1, 300, 300, 64)    36928       conv1_1[0][0]\r\n__________________________________________________________________________________________________\r\npool1 (MaxPooling2D)            (1, 150, 150, 64)    0           conv1_2[0][0]\r\n__________________________________________________________________________________________________\r\nconv2_1 (Conv2D)                (1, 150, 150, 128)   73856       pool1[0][0]\r\n__________________________________________________________________________________________________\r\nconv2_2 (Conv2D)                (1, 150, 150, 128)   147584      conv2_1[0][0]\r\n__________________________________________________________________________________________________\r\npool2 (MaxPooling2D)            (1, 75, 75, 128)     0           conv2_2[0][0]\r\n__________________________________________________________________________________________________\r\nconv3_1 (Conv2D)                (1, 75, 75, 256)     295168      pool2[0][0]\r\n__________________________________________________________________________________________________\r\nconv3_2 (Conv2D)                (1, 75, 75, 256)     590080      conv3_1[0][0]\r\n__________________________________________________________________________________________________\r\nconv3_3 (Conv2D)                (1, 75, 75, 256)     590080      conv3_2[0][0]\r\n__________________________________________________________________________________________________\r\npool3 (MaxPooling2D)            (1, 38, 38, 256)     0           conv3_3[0][0]\r\n__________________________________________________________________________________________________\r\nconv4_1 (Conv2D)                (1, 38, 38, 512)     1180160     pool3[0][0]\r\n__________________________________________________________________________________________________\r\nconv4_2 (Conv2D)                (1, 38, 38, 512)     2359808     conv4_1[0][0]\r\n__________________________________________________________________________________________________\r\nconv4_3 (Conv2D)                (1, 38, 38, 512)     2359808     conv4_2[0][0]\r\n__________________________________________________________________________________________________\r\npool4 (MaxPooling2D)            (1, 19, 19, 512)     0           conv4_3[0][0]\r\n__________________________________________________________________________________________________\r\nconv5_1 (Conv2D)                (1, 19, 19, 512)     2359808     pool4[0][0]\r\n__________________________________________________________________________________________________\r\nconv5_2 (Conv2D)                (1, 19, 19, 512)     2359808     conv5_1[0][0]\r\n__________________________________________________________________________________________________\r\nconv5_3 (Conv2D)                (1, 19, 19, 512)     2359808     conv5_2[0][0]\r\n__________________________________________________________________________________________________\r\npool5 (MaxPooling2D)            (1, 19, 19, 512)     0           conv5_3[0][0]\r\n__________________________________________________________________________________________________\r\nfc6 (Conv2D)                    (1, 19, 19, 1024)    4719616     pool5[0][0]\r\n__________________________________________________________________________________________________\r\nfc7 (Conv2D)                    (1, 19, 19, 1024)    1049600     fc6[0][0]\r\n__________________________________________________________________________________________________\r\nconv6_1 (Conv2D)                (1, 19, 19, 256)     262400      fc7[0][0]\r\n__________________________________________________________________________________________________\r\nconv6_padding (ZeroPadding2D)   (1, 21, 21, 256)     0           conv6_1[0][0]\r\n__________________________________________________________________________________________________\r\nconv6_2 (Conv2D)                (1, 10, 10, 512)     1180160     conv6_padding[0][0]\r\n__________________________________________________________________________________________________\r\nconv7_1 (Conv2D)                (1, 10, 10, 128)     65664       conv6_2[0][0]\r\n__________________________________________________________________________________________________\r\nconv7_padding (ZeroPadding2D)   (1, 12, 12, 128)     0           conv7_1[0][0]\r\n__________________________________________________________________________________________________\r\nconv7_2 (Conv2D)                (1, 5, 5, 256)       295168      conv7_padding[0][0]\r\n__________________________________________________________________________________________________\r\nconv8_1 (Conv2D)                (1, 5, 5, 128)       32896       conv7_2[0][0]\r\n__________________________________________________________________________________________________\r\nconv8_2 (Conv2D)                (1, 3, 3, 256)       295168      conv8_1[0][0]\r\n__________________________________________________________________________________________________\r\nconv9_1 (Conv2D)                (1, 3, 3, 128)       32896       conv8_2[0][0]\r\n__________________________________________________________________________________________________\r\nconv4_3_norm (L2Normalization)  (1, 38, 38, 512)     512         conv4_3[0][0]\r\n__________________________________________________________________________________________________\r\nconv9_2 (Conv2D)                (1, 1, 1, 256)       295168      conv9_1[0][0]\r\n__________________________________________________________________________________________________\r\nconv4_3_norm_mbox_conf (Conv2D) (1, 38, 38, 4220)    19449980    conv4_3_norm[0][0]\r\n__________________________________________________________________________________________________\r\nfc7_mbox_conf (Conv2D)          (1, 19, 19, 5275)    48619675    fc7[0][0]\r\n__________________________________________________________________________________________________\r\nconv6_2_mbox_conf (Conv2D)      (1, 10, 10, 5275)    24312475    conv6_2[0][0]\r\n__________________________________________________________________________________________________\r\nconv7_2_mbox_conf (Conv2D)      (1, 5, 5, 5275)      12158875    conv7_2[0][0]\r\n__________________________________________________________________________________________________\r\nconv8_2_mbox_conf (Conv2D)      (1, 3, 3, 4220)      9727100     conv8_2[0][0]\r\n__________________________________________________________________________________________________\r\nconv9_2_mbox_conf (Conv2D)      (1, 1, 1, 4220)      9727100     conv9_2[0][0]\r\n__________________________________________________________________________________________________\r\nconv4_3_norm_mbox_loc (Conv2D)  (1, 38, 38, 16)      73744       conv4_3_norm[0][0]\r\n__________________________________________________________________________________________________\r\nfc7_mbox_loc (Conv2D)           (1, 19, 19, 20)      184340      fc7[0][0]\r\n__________________________________________________________________________________________________\r\nconv6_2_mbox_loc (Conv2D)       (1, 10, 10, 20)      92180       conv6_2[0][0]\r\n__________________________________________________________________________________________________\r\nconv7_2_mbox_loc (Conv2D)       (1, 5, 5, 20)        46100       conv7_2[0][0]\r\n__________________________________________________________________________________________________\r\nconv8_2_mbox_loc (Conv2D)       (1, 3, 3, 16)        36880       conv8_2[0][0]\r\n__________________________________________________________________________________________________\r\nconv9_2_mbox_loc (Conv2D)       (1, 1, 1, 16)        36880       conv9_2[0][0]\r\n__________________________________________________________________________________________________\r\nconv4_3_norm_mbox_conf_reshape  (1, 5776, 1055)      0           conv4_3_norm_mbox_conf[0][0]\r\n__________________________________________________________________________________________________\r\nfc7_mbox_conf_reshape (Reshape) (1, 1805, 1055)      0           fc7_mbox_conf[0][0]\r\n__________________________________________________________________________________________________\r\nconv6_2_mbox_conf_reshape (Resh (1, 500, 1055)       0           conv6_2_mbox_conf[0][0]\r\n__________________________________________________________________________________________________\r\nconv7_2_mbox_conf_reshape (Resh (1, 125, 1055)       0           conv7_2_mbox_conf[0][0]\r\n__________________________________________________________________________________________________\r\nconv8_2_mbox_conf_reshape (Resh (1, 36, 1055)        0           conv8_2_mbox_conf[0][0]\r\n__________________________________________________________________________________________________\r\nconv9_2_mbox_conf_reshape (Resh (1, 4, 1055)         0           conv9_2_mbox_conf[0][0]\r\n__________________________________________________________________________________________________\r\nconv4_3_norm_mbox_priorbox (Anc (1, 38, 38, 4, 8)    0           conv4_3_norm_mbox_loc[0][0]\r\n__________________________________________________________________________________________________\r\nfc7_mbox_priorbox (AnchorBoxes) (1, 19, 19, 5, 8)    0           fc7_mbox_loc[0][0]\r\n__________________________________________________________________________________________________\r\nconv6_2_mbox_priorbox (AnchorBo (1, 10, 10, 5, 8)    0           conv6_2_mbox_loc[0][0]\r\n__________________________________________________________________________________________________\r\nconv7_2_mbox_priorbox (AnchorBo (1, 5, 5, 5, 8)      0           conv7_2_mbox_loc[0][0]\r\n__________________________________________________________________________________________________\r\nconv8_2_mbox_priorbox (AnchorBo (1, 3, 3, 4, 8)      0           conv8_2_mbox_loc[0][0]\r\n__________________________________________________________________________________________________\r\nconv9_2_mbox_priorbox (AnchorBo (1, 1, 1, 4, 8)      0           conv9_2_mbox_loc[0][0]\r\n__________________________________________________________________________________________________\r\nmbox_conf (Concatenate)         (1, 8246, 1055)      0           conv4_3_norm_mbox_conf_reshape[0]\r\n                                                                 fc7_mbox_conf_reshape[0][0]\r\n                                                                 conv6_2_mbox_conf_reshape[0][0]\r\n                                                                 conv7_2_mbox_conf_reshape[0][0]\r\n                                                                 conv8_2_mbox_conf_reshape[0][0]\r\n                                                                 conv9_2_mbox_conf_reshape[0][0]\r\n__________________________________________________________________________________________________\r\nconv4_3_norm_mbox_loc_reshape ( (1, 5776, 4)         0           conv4_3_norm_mbox_loc[0][0]\r\n__________________________________________________________________________________________________\r\nfc7_mbox_loc_reshape (Reshape)  (1, 1805, 4)         0           fc7_mbox_loc[0][0]\r\n__________________________________________________________________________________________________\r\nconv6_2_mbox_loc_reshape (Resha (1, 500, 4)          0           conv6_2_mbox_loc[0][0]\r\n__________________________________________________________________________________________________\r\nconv7_2_mbox_loc_reshape (Resha (1, 125, 4)          0           conv7_2_mbox_loc[0][0]\r\n__________________________________________________________________________________________________\r\nconv8_2_mbox_loc_reshape (Resha (1, 36, 4)           0           conv8_2_mbox_loc[0][0]\r\n__________________________________________________________________________________________________\r\nconv9_2_mbox_loc_reshape (Resha (1, 4, 4)            0           conv9_2_mbox_loc[0][0]\r\n__________________________________________________________________________________________________\r\nconv4_3_norm_mbox_priorbox_resh (1, 5776, 8)         0           conv4_3_norm_mbox_priorbox[0][0]\r\n__________________________________________________________________________________________________\r\nfc7_mbox_priorbox_reshape (Resh (1, 1805, 8)         0           fc7_mbox_priorbox[0][0]\r\n__________________________________________________________________________________________________\r\nconv6_2_mbox_priorbox_reshape ( (1, 500, 8)          0           conv6_2_mbox_priorbox[0][0]\r\n__________________________________________________________________________________________________\r\nconv7_2_mbox_priorbox_reshape ( (1, 125, 8)          0           conv7_2_mbox_priorbox[0][0]\r\n__________________________________________________________________________________________________\r\nconv8_2_mbox_priorbox_reshape ( (1, 36, 8)           0           conv8_2_mbox_priorbox[0][0]\r\n__________________________________________________________________________________________________\r\nconv9_2_mbox_priorbox_reshape ( (1, 4, 8)            0           conv9_2_mbox_priorbox[0][0]\r\n__________________________________________________________________________________________________\r\nmbox_conf_softmax (Activation)  (1, 8246, 1055)      0           mbox_conf[0][0]\r\n__________________________________________________________________________________________________\r\nmbox_loc (Concatenate)          (1, 8246, 4)         0           conv4_3_norm_mbox_loc_reshape[0][\r\n                                                                 fc7_mbox_loc_reshape[0][0]\r\n                                                                 conv6_2_mbox_loc_reshape[0][0]\r\n                                                                 conv7_2_mbox_loc_reshape[0][0]\r\n                                                                 conv8_2_mbox_loc_reshape[0][0]\r\n                                                                 conv9_2_mbox_loc_reshape[0][0]\r\n__________________________________________________________________________________________________\r\nmbox_priorbox (Concatenate)     (1, 8246, 8)         0           conv4_3_norm_mbox_priorbox_reshap\r\n                                                                 fc7_mbox_priorbox_reshape[0][0]\r\n                                                                 conv6_2_mbox_priorbox_reshape[0][\r\n                                                                 conv7_2_mbox_priorbox_reshape[0][\r\n                                                                 conv8_2_mbox_priorbox_reshape[0][\r\n                                                                 conv9_2_mbox_priorbox_reshape[0][\r\n__________________________________________________________________________________________________\r\npredictions (Concatenate)       (1, 8246, 1067)      0           mbox_conf_softmax[0][0]\r\n                                                                 mbox_loc[0][0]\r\n                                                                 mbox_priorbox[0][0]\r\n__________________________________________________________________________________________________\r\ndecoded_predictions (DecodeDete (1, 200, 6)          0           predictions[0][0]\r\n==================================================================================================\r\nTotal params: 147,409,265\r\nTrainable params: 147,409,265\r\nNon-trainable params: 0\r\n`\r\n\r\nBut Converted TF lite model on invoke throw the same error:\r\n**t->dims->data[d] != t0->dims->data[d] (400 != 1)Node number 33 (CONCATENATION) failed to prepare.\r\nNo
…
