…
uce the issue in our environment.It helps us in localizing the issue faster.Thanks!", "@ravikyram Thanks for the fast response!\r\n\r\nDefinitely, I give the complete code below: \r\n\r\n# Model creation (usual procedure)\r\nModel was created in **Python version 3.8.2** and **Tensorflow version 2.2.0**\r\n\r\n# Model summary: \r\n```\r\nModel: \"sequential\"\r\n_________________________________________________________________\r\nLayer (type)                 Output Shape              Param #   \r\n=================================================================\r\nnn_input (Flatten)           (None, 64)                0         \r\n_________________________________________________________________\r\nbatch_normalization (BatchNo (None, 64)                256       \r\n_________________________________________________________________\r\ndense (Dense)                (None, 64)                4160      \r\n_________________________________________________________________\r\nbatch_normalization_1 (Batch (None, 64)                256       \r\n_________________________________________________________________\r\ndense_1 (Dense)              (None, 128)               8320      \r\n_________________________________________________________________\r\nbatch_normalization_2 (Batch (None, 128)               512       \r\n_________________________________________________________________\r\ndense_2 (Dense)              (None, 256)               33024     \r\n_________________________________________________________________\r\nbatch_normalization_3 (Batch (None, 256)               1024      \r\n_________________________________________________________________\r\ndense_3 (Dense)              (None, 256)               65792     \r\n_________________________________________________________________\r\nbatch_normalization_4 (Batch (None, 256)               1024      \r\n_________________________________________________________________\r\ndropout (Dropout)            (None, 256)               0         \r\n_________________________________________________________________\r\ndense_4 (Dense)              (None, 128)               32896     \r\n_________________________________________________________________\r\nbatch_normalization_5 (Batch (None, 128)               512       \r\n_________________________________________________________________\r\ndense_5 (Dense)              (None, 256)               33024     \r\n_________________________________________________________________\r\nbatch_normalization_6 (Batch (None, 256)               1024      \r\n_________________________________________________________________\r\ndense_6 (Dense)              (None, 512)               131584    \r\n_________________________________________________________________\r\nbatch_normalization_7 (Batch (None, 512)               2048      \r\n_________________________________________________________________\r\ndense_7 (Dense)              (None, 512)               262656    \r\n_________________________________________________________________\r\nbatch_normalization_8 (Batch (None, 512)               2048      \r\n_________________________________________________________________\r\ndropout_1 (Dropout)          (None, 512)               0         \r\n_________________________________________________________________\r\nnn_output (Dense)            (None, 1)                 513       \r\n=================================================================\r\nTotal params: 580,673\r\nTrainable params: 576,321\r\nNon-trainable params: 4,352\r\n_________________________________________________________________\r\n```\r\n\r\n# Model save (using callbacks)\r\nAlso **Python version 3.8.2** and **Tensorflow version 2.2.0**\r\n\r\n```\r\ntf.keras.callbacks.ModelCheckpoint(filepath=
…
