…
pe[1]`\r\n - Can use `MaxPooling1D` w/ `strides > 1`\r\n - `padding='valid'` leads to `ZeroPadding1D`, but it _doesn't_ change build order (don't know why)\r\n\r\n\r\n<hr>\r\n\r\n**`model_A.summary()`**:\r\n\r\n```python\r\nLayer (type)                    Output Shape         Param #     Connected to     \r\n==================================================================================\r\ninput_1 (InputLayer)            [(32, 240, 4)]       0                            \r\n__________________________________________________________________________________\r\nconv1d (Conv1D)                 (32, 2, 16)          1296        input_1[0][0]    \r\n__________________________________________________________________________________\r\nconv1d_1 (Conv1D)               (32, 2, 16)          12816       input_1[0][0]    \r\n__________________________________________________________________________________\r\nbn_1 (BatchNormalization)       (32, 2, 16)          64          conv1d[0][0]     \r\n__________________________________________________________________________________\r\nbn_2 (BatchNormalization)       (32, 2, 16)          64          conv1d_1[0][0]   \r\n__________________________________________________________________________________\r\nconcatenate (Concatenate)       (32, 2, 32)          0           bn_1[0][0]       \r\n                                                                 bn_2[0][0]       \r\n__________________________________________________________________________________\r\ngap_0 (GlobalAveragePooling1D)  (32, 32)             0           concatenate[0][0]\r\n__________________________________________________________________________________\r\ndense (Dense)                   (32, 1)              33          gap_0[0][0]      \r\n```\r\n\r\n**`model_B.summary()`** _(note the swapped layers)_\r\n\r\n```python\r\ninput_2 (InputLayer)            [(32, 250, 4)]       0                               \r\n_____________________________________________________________________________________\r\nconv1d_2 (Conv1D)               (32, 2, 16)          1296        input_2[0][0]       \r\n_____________________________________________________________________________________\r\nbn_1 (BatchNormalization)       (32, 2, 16)          64          conv1d_2[0][0]      \r\n_____________________________________________________________________________________\r\nconv1d_3 (Conv1D)               (32, 3, 16)          12816       input_2[0][0]       \r\n_____________________________________________________________________________________\r\nzero_padding1d (ZeroPadding1D)  (32, 3, 16)          0           bn_1[0][0]          \r\n_____________________________________________________________________________________\r\nbn_2 (BatchNormalization)       (32, 3, 16)          64          conv1d_3[0][0]      \r\n_____________________________________________________________________________________\r\nconcatenate_1 (Concatenate)     (32, 3, 32)          0           zero_padding1d[0][0]\r\n                                                                 bn_2[0][0]          \r\n_____________________________________________________________________________________\r\ngap_0 (GlobalAveragePooling1D)  (32, 32)             0           concatenate_1[0][0] \r\n_____________________________________________________________________________________\r\ndense_1 (Dense)                 (32, 1)              33          gap_0[0][0]  \r\n```\r\n\r\n<hr>\r\n\r\n**Minimally reproducible code**:\r\n\r\n```python\r\n# also works with `from keras`\r\nfrom tensorflow.keras.layers import Input, Conv1D, ZeroPadding1D, concatenate\r\nfrom tensorflow.keras.layers import BatchNormalization, Dense, GlobalAveragePooling1D\r\nfrom tensorflow.keras.models import Model\r\nimport numpy as np\r\n\r\ndef make_model(batch_s
…
