…
, 13, 64 0           conv2D_2[0][0]                   \r\n__________________________________________________________________________________________________\r\nbatchnorm_2 (TimeDistributed)   (None, 4, 13, 13, 64 256         maxpool_2[0][0]                  \r\n__________________________________________________________________________________________________\r\nconv2D_3 (TimeDistributed)      (None, 4, 13, 13, 12 73856       batchnorm_2[0][0]                \r\n__________________________________________________________________________________________________\r\nmaxpool_3 (TimeDistributed)     (None, 4, 6, 6, 128) 0           conv2D_3[0][0]                   \r\n__________________________________________________________________________________________________\r\nbatchnorm_3 (TimeDistributed)   (None, 4, 6, 6, 128) 512         maxpool_3[0][0]                  \r\n__________________________________________________________________________________________________\r\nflatten (TimeDistributed)       (None, 4, 4608)      0           batchnorm_3[0][0]                \r\n__________________________________________________________________________________________________\r\ndropout (TimeDistributed)       (None, 4, 4608)      0           flatten[0][0]                    \r\n__________________________________________________________________________________________________\r\nunified_lstm (UnifiedLSTM)      (None, 4, 2048)      54534144    dropout[0][0]                    \r\n__________________________________________________________________________________________________\r\ntime_distributed (TimeDistribut (None, 4, 1)         2049        unified_lstm[0][0]               \r\n__________________________________________________________________________________________________\r\nflatten_1 (Flatten)             (None, 4)            0           time_distributed[0][0]           \r\n__________________________________________________________________________________________________\r\nsoftmax (Softmax)               (None, 4)            0           flatten_1[0][0]                  \r\n__________________________________________________________________________________________________\r\ndot (Dot)                       (None, 2048)         0           unified_lstm[0][0]               \r\n                                                                 softmax[0][0]                    \r\n__________________________________________________________________________________________________\r\ndense_1 (Dense)                 (None, 1024)         2098176     dot[0][0]                        \r\n__________________________________________________________________________________________________\r\ndropout_1 (Dropout)             (None, 1024)         0           dense_1[0][0]                    \r\n__________________________________________________________________________________________________\r\ndense_2 (Dense)                 (None, 512)          524800      dropout_1[0][0]                  \r\n__________________________________________________________________________________________________\r\ndropout_2 (Dropout)             (None, 512)          0           dense_2[0][0]                    \r\n__________________________________________________________________________________________________\r\ndense_3 (Dense)                 (None, 2)            1026        dropout_2[0][0]                  \r\n==================================================================================================\r\nTotal params: 57,263,139\r\nTrainable params: 57,262,627\r\nNon-trainable params: 512\r\n__________________________________________________________________________________________________\r\n```\r\n", "comments": ["I believe this bug has been fixed in n
…
