…
_pred.shape)\r\n\r\nprint(\"Begin training with fit\")\r\nmodel.fit(x, y, epochs=10)\r\nprint(\"Fit successful\")\r\n\r\nprint(\"Begin training with train_on_batch\")\r\nfor i in range(10):\r\n    model.train_on_batch(x, y)\r\nprint(\"On batch successful\")\r\n```\r\n\r\n**Other info / logs**\r\n\r\nOutput and stack trace:\r\n\r\n```\r\nModel: \"sequential\"\r\n_________________________________________________________________\r\nLayer (type)                 Output Shape              Param #   \r\n=================================================================\r\nconv2d (Conv2D)              (None, 111, 111, 1)       28        \r\n_________________________________________________________________\r\nconv2d_1 (Conv2D)            (None, 55, 55, 1)         10        \r\n_________________________________________________________________\r\nconv2d_2 (Conv2D)            (None, 27, 27, 1)         10        \r\n_________________________________________________________________\r\nconv2d_3 (Conv2D)            (None, 13, 13, 1)         10        \r\n_________________________________________________________________\r\nconv2d_4 (Conv2D)            (None, 6, 6, 1)           10        \r\n_________________________________________________________________\r\nconv2d_5 (Conv2D)            (None, 2, 2, 1)           10        \r\n_________________________________________________________________\r\nconv2d_6 (Conv2D)            (None, 1, 1, 1)           5         \r\n=================================================================\r\nTotal params: 83\r\nTrainable params: 83\r\nNon-trainable params: 0\r\n_________________________________________________________________\r\nGPU is available: True\r\nx (10, 224, 224, 3)\r\ny (10, 1, 1, 1)\r\nPredict successful:  (10, 1, 1, 1)\r\nBegin training with fit\r\nTrain on 10 samples\r\nEpoch 1/10\r\n\r\n10/1
…
