…
nt(prediction)\r\n```", "comments": ["@007fred50 In the earlier opened issue [link](https://github.com/tensorflow/tensorflow/issues/28442) , seems like you have got the stackoverflow link.Can you please refer this. As this is the custom code after I ran the code it says 'Errno 2] No such file or directory: 'x.pickle'. ", "hello\r\n\r\nyou can download it here:\r\nhttp://people8people.com/x.pickle\r\nhttp://people8people.com/y.pickle", "can you test it ?", "@007fred50 Ran the code, Able to get the ouptut , please find the below details.\r\nLayer (type) Output Shape Param # \r\n conv2d (Conv2D) (None, 48, 48, 32) 320 \r\nmax_pooling2d (MaxPooling2D) (None, 24, 24, 32) 0 \r\n conv2d_1 (Conv2D) (None, 22, 22, 64) 18496 \r\n max_pooling2d_1 (MaxPooling2 (None, 11, 11, 64) 0 \r\nconv2d_2 (Conv2D) (None, 9, 9, 64) 36928 \r\nflatten (Flatten) (None, 5184) 0 \r\n dense (Dense) (None, 1) 5185 \r\nTotal params: 60,929 Trainable params: 60,929 Non-trainable params: 0 \r\n\r\n", "Hello,\r\n\r\ncan you send me a code? i can't read that messages you gave me", "@007fred50 Ran the same code provided here, in jupyter notebook. ", "Here is my jupyter notebook. with photo\r\n\r\n<img width=\"976\" alt=\"Screenshot 2019-05-17 at 14 18 06\" src=\"https://user-images.githubusercontent.com/25218874
…
