…
e segmentation. Why is this happening even I am using the same settings except the input_shapes are different? You can find the model [here](https://github.com/tensorflow/tensorflow/issues/48448#issuecomment-818020142);  \r\n\r\n```\r\n>>> model1.summary()\r\nModel: \"model_1\"\r\n__________________________________________________________________________________________________\r\nLayer (type)                    Output Shape         Param #     Connected to\r\n==================================================================================================\r\ninput_2 (InputLayer)            [(None, 128, 128, 1) 0\r\n__________________________________________________________________________________________________\r\nconv2d_20 (Conv2D)              (None, 128, 128, 64) 640         input_2[0][0]\r\n__________________________________________________________________________________________________\r\nleaky_re_lu_19 (LeakyReLU)      (None, 128, 128, 64) 0           conv2d_20[0][0]\r\n__________________________________________________________________________________________________\r\nconv2d_21 (Conv2D)              (None, 128, 128, 64) 36928       leaky_re_lu_19[0][0]\r\n__________________________________________________________________________________________________\r\nleaky_re_lu_20 (LeakyReLU)      (None, 128, 128, 64) 0           conv2d_21[0][0]\r\n__________________________________________________________________________________________________\r\nmax_pooling2d_4 (MaxPooling2D)  (None, 64, 64, 64)   0           leaky_re_lu_20[0][0]\r\n__________________________________________________________________________________________________\r\nconv2d_22 (Conv2D)              (None, 64, 64, 128)  73856       max_pooling2d_4[0][0]\r\n__________________________________________________________________________________________________\r\nleaky_re_lu_21 (LeakyReLU)      (None, 64, 64, 128)  0           conv2d_22[0][0]\r\n__________________________________________________________________________________________________\r\nconv2d_23 (Conv2D)              (None, 64, 64, 128)  147584      leaky_re_lu_21[0][0]\r\n__________________________________________________________________________________________________\r\nleaky_re_lu_22 (LeakyReLU)      (None, 64, 64, 128)  0           conv2d_23[0][0]\r\n__________________________________________________________________________________________________\r\nmax_pooling2d_5 (MaxPooling2D)  (None, 32, 32, 128)  0           leaky_re_lu_22[0][0]\r\n__________________________________________________________________________________________________\r\nconv2d_24 (Conv2D)              (None, 32, 32, 256)  295168      max_pooling2d_5[0][0]\r\n__________________________________________________________________________________________________\r\nleaky_re_lu_23 (LeakyReLU)      (None, 32, 32, 256)  0           conv2d_24[0][0]\r\n__________________________________________________________________________________________________\r\nconv2d_25 (Conv2D)              (None, 32, 32, 256)  590080      leaky_re_lu_23[0][0]\r\n__________________________________________________________________________________________________\r\nleaky_re_lu_24 (LeakyReLU)      (None, 32, 32, 256)  0           conv2d_25[0][0]\r\n__________________________________________________________________________________________________\r\nmax_pooling2d_6 (MaxPooling2D)  (None, 16, 16, 256)  0           leaky_re_lu_24[0][0]\r\n__________________________________________________________________________________________________\r\nconv2d_26 (Conv2D)              (None, 16, 16, 512)  1180160     max_pooling2d_6[0][0]\r\n__________________________________________________________________________________________________\r\nleaky_re_lu_25 (LeakyReLU)      (None, 16, 16, 512)  0           conv2d_26[0][0]\r\n__________________________________________________________________________________________________\r\nconv2d_27 (Conv2D)              (None, 16, 16, 512)  2359808     leaky_re_lu_25[0][0]\r\n__________________________________________________________________________________________________\r\nleaky_re_lu_26 (LeakyReLU)      (None, 16, 16, 512)  0           conv2d_27[0][0]\r\n__________________________________________________________________________________________________\r\ndropout_2 (Dropout)             (None, 16, 16, 512)  0           leaky_re_lu_26[0][0]\r\n__________________________________________________________________________________________________\r\nmax_pooling2d_7 (MaxPooling2D)  (None, 8, 8, 512)    0           dropout_2[0][0]\r\n__________________________________________________________________________________________________\r\nconv2d_28 (Conv2D)              (None, 8, 8, 1024)   4719616     max_pooling2d_7[0][0]\r\n__________________________________________________________________________________________________\r\nleaky_re_lu_27 (LeakyReLU)      (None, 8, 8, 1024)   0           conv2d_28[0][0]\r\n__________________________________________________________________________________________________\r\nconv2d_29 (Conv2D)              (None, 8, 8, 1024)   9438208     leaky_re_lu_27[0][0]\r\n__________________________________________________________________________________________________\r\nleaky_re_lu_28 (LeakyReLU)      (None, 8, 8, 1024)   0           conv2d_29[0][0]\r\n__________________________________________________________________________________________________\r\ndropout_3 (Dropout)             (None, 8, 8, 1024)   0           leaky_re_lu_28[0][0]\r\n__________________________________________________________________________________________________\r\nconv2d_transpose_4 (Conv2DTrans (None, 16, 16, 512)  4719104     dropout_3[0][0]\r\n__________________________________________________________________________________________________\r\nzero_padding2d_4 (ZeroPadding2D (None, 16, 16, 512)  0           conv2d_transpose_4[0][0]\r\n__________________________________________________________________________________________________\r\nconcatenate_4 (Concatenate)     (None, 16, 16, 1024) 0           dropout_2[0][0]\r\n                                                                 zero_padding2d_4[0][0]\r\n__________________________________________________________________________________________________\r\nconv2d_30 (Conv2D)              (None, 16, 16, 512)  4719104     concatenate_4[0][0]\r\n__________________________________________________________________________________________________\r\nleaky_re_lu_29 (LeakyReLU)      (None, 16, 16, 512)  0           conv2d_30[0][0]\r\n__________________________________________________________________________________________________\r\nconv2d_31 (Conv2D)              (None, 16, 16, 512)  2359808     leaky_re_lu_29[0][0]\r\n__________________________________________________________________________________________________\r\nleaky_re_lu_30 (LeakyReLU)      (None, 16, 16, 512)  0           conv2d_31[0][0]\r\n__________________________________________________________________________________________________\r\nconv2d_transpose_5 (Conv2DTrans (None, 32, 32, 256)  1179904     leaky_re_lu_30[0][0]\r\n__________________________________________________________________________________________________\r\nzero_padding2d_5 (ZeroPadding2D (None, 32, 32, 256)  0           conv2d_transpose_5[0][0]\r\n__________________________________________________________________________________________________\r\nconcatenate_5 (Concatenate)     (None, 32, 32, 512)  0           leaky_re_lu_24[0][0]\r\n                                                                 zero_padding2d_5[0][0]\r\n__________________________________________________________________________________________________\r\nconv2d_32 (Conv2D)              (None, 32, 32, 256)  1179904     concatenate_5[0][0]\r\n__________________________________________________________________________________________________\r\nleaky_re_lu_31 (LeakyReLU)      (None, 32, 32, 256)  0           conv2d_32[0][0]\r\n__________________________________________________________________________________________________\r\nconv2d_33 (Conv2D)              (None, 32, 32, 256)  590080      leaky_re_lu_31[0][0]\r\n__________________________________________________________________________________________________\r\nleaky_re_lu_32 (LeakyReLU)      (None, 32, 32, 256)  0           conv2d_33[0][0]\r\n__________________________________________________________________________________________________\r\nconv2d_transpose_6 (Conv2DTrans (None, 64, 64, 128)  295040      leaky_re_lu_32[0][0]\r\n__________________________________________________________________________________________________\r\nzero_padding2d_6 (ZeroPadding2D (None, 64, 64, 128)  0           conv2d_transpose_6[0][0]\r\n__________________________________________________________________________________________________\r\nconcatenate_6 (Concatenate)     (None, 64, 64, 256)  0           leaky_re_lu_22[0][0]\r\n                                                                 zero_padding2d_6[0][0]\r\n__________________________________________________________________________________________________\r\nconv2d_34 (Conv2D)              (None, 64, 64, 128)  295040      concatenate_6[0][0]\r\n__________________________________________________________________________________________________\r\nleaky_re_lu_33 (LeakyReLU)      (None, 64, 64, 128)  0           conv2d_34[0][0]\r\n__________________________________________________________________________________________________\r\nconv2d_35 (Conv2D)              (None, 64, 64, 128)  147584      leaky_re_lu_33[0][0]\r\n__________________________________________________________________________________________________\r\nleaky_re_lu_34 (LeakyReLU)      (None, 64, 64, 128)  0           conv2d_35[0][0]\r\n__________________________________________________________________________________________________\r\nconv2d_transpose_7 (Conv2DTrans (None, 128, 128, 64) 73792       leaky_re_lu_34[0][0]\r\n__________________________________________________________________________________________________\r\nzero_padding2d_7 (ZeroPadding2D (None, 128, 128, 64) 0           conv2d_transpose_7[0][0]\r\n__________________________________________________________________________________________________\r\nconcatenate_7 (Concatenate)     (None, 128, 128, 128 0           leaky_re_lu_20[0][0]\r\n                                                                 zero_padding2d_7[0][0]\r\n__________________________________________________________________________________________________\r\nconv2d_36 (Conv2D)              (None, 128, 128, 64) 73792       concatenate_7[0][0]\r\n__________________________________________________________________________________________________\r\nleaky_re_lu_35 (LeakyReLU)      (None, 128, 128, 64) 0           conv2d_36[0][0]\r\n__________________________________________________________________________________________________\r\nconv2d_37 (Conv2D)              (None, 128, 128, 64) 36928       leaky_re_lu_35[0][0]\r\n__________________________________________________________________________________________________\r\nleaky_re_lu_36 (LeakyReLU)      (None, 128, 128, 64) 0           conv2d_37[0][0]\r\n__________________________________________________________________________________________________\r\nconv2d_38 (Conv2D)              (None, 128, 128, 2)  1154        leaky_re_lu_36[0][0]\r\n__________________________________________________________________________________________________\r\nleaky_re_lu_37 (LeakyReLU)      (None, 128, 128, 2)  0           conv2d_38[0][0]\r\n__________________________________________________________________________________________________\r\nconv2d_39 (Conv2D)              (None, 128, 128, 2)  6           leaky_re_lu_37[0][0]\r\n==================================================================================================\r\nTotal params: 34,513,288\r\nTrainable params: 34,513,288\r\nNon-trainable params: 0\r\n__________________________________________________________________________________________________\r\n\r\n```\r\n```\r\n>>> model2.summary()\r\nModel: \"model\"\r\n__________________________________________________________________________________________________\r\nLayer (type)                    Output Shape         Param #     Connected to\r\n==================================================================================================\r\ninput_1 (InputLayer)            [(None, 128, 128, 3) 0\r\n__________________________________________________________________________________________________\r\nconv2d (Conv2D)                 (None, 128, 128, 64) 1792        input_1[0][0]\r\n__________________________________________________________________________________________________\r\nleaky_re_lu (LeakyReLU)         (None, 128, 128, 64) 0           conv2d[0][0]\r\n__________________________________________________________________________________________________\r\nconv2d_1 (Conv2D)               (None, 128, 128, 64) 36928       leaky_re_lu[0][0]\r\n__________________________________________________________________________________________________\r\nleaky_re_lu_1 (LeakyReLU)       (None, 128, 128, 64) 0           conv2d_1[0][0]\r\n__________________________________________________________________________________________________\r\nmax_pooling2d (MaxPooling2D)    (None, 64, 64, 64)   0           leaky_re_lu_1[0][0]\r\n__________________________________________________________________________________________________\r\nconv2d_2 (Conv2D)               (None, 64, 64, 128)  73856       max_pooling2d[0][0]\r\n__________________________________________________________________________________________________\r\nleaky_re_lu_2 (LeakyReLU)       (None, 64, 64, 128)  0           conv2d_2[0][0]\r\n__________________________________________________________________________________________________\r\nconv2d_3 (Conv2D)               (None, 64, 64, 128)  147584      leaky_re_lu_2[0][0]\r\n__________________________________________________________________________________________________\r\nleaky_re_lu_3 (LeakyReLU)       (None, 64, 64, 128)  0           conv2d_3[0][0]\r\n__________________________________________________________________________________________________\r\nmax_pooling2d_1 (MaxPooling2D)  (None, 32, 32, 128)  0           leaky_re_lu_3[0][0]\r\n__________________________________________________________________________________________________\r\nconv2d_4 (Conv2D)               (None, 32, 32, 256)  295168      max_pooling2d_1[0][0]\r\n__________________________________________________________________________________________________\r\nleaky_re_lu_4 (LeakyReLU)       (None, 32, 32, 256)  0           conv2d_4[0][0]\r\n__________________________________________________________________________________________________\r\nconv2d_5 (Conv2D)               (None, 32, 32, 256)  590080      leaky_re_lu_4[0][0]\r\n__________________________________________________________________________________________________\r\nleaky_re_lu_5 (LeakyReLU)       (None, 32, 32, 256)  0           conv2d_5[0][0]\r\n__________________________________________________________________________________________________\r\nmax_pooling2d_2 (MaxPooling2D)  (None, 16, 16, 256)  0           leaky_re_lu_5[0][0]\r\n__________________________________________________________________________________________________\r\nconv2d_6 (Conv2D)               (None, 16, 16, 512)  1180160     max_pooling2d_2[0][0]\r\n__________________________________________________________________________________________________\r\nleaky_re_lu_6 (LeakyReLU)       (None, 16, 16, 512)  0           conv2d_6[0][0]\r\n__________________________________________________________________________________________________\r\nconv2d_7 (Conv2D)               (None, 16, 16, 512)  2359808     leaky_re_lu_6[0][0]\r\n__________________________________________________________________________________________________\r\nleaky_re_lu_7 (LeakyReLU)       (None, 16, 16, 512)  0           conv2d_7[0][0]\r\n__________________________________________________________________________________________________\r\ndropout (Dropout)               (None, 16, 16, 512)  0           leaky_re_lu_7[0][0]\r\n__________________________________________________________________________________________________\r\nmax_pooling2d_3 (MaxPooling2D)  (None, 8, 8, 512)    0           dropout[0][0]\r\n__________________________________________________________________________________________________\r\nconv2d_8 (Conv2D)               (None, 8, 8, 1024)   4719616     max_pooling2d_3[0][0]\r\n__________________________________________________________________________________________________\r\nleaky_re_lu_8 (LeakyReLU)       (None, 8, 8, 1024)   0           conv2d_8[0][0]\r\n__________________________________________________________________________________________________\r\nconv2d_9 (Conv2D)               (None, 8, 8, 1024)   9438208     leaky_re_lu_8[0][0]\r\n__________________________________________________________________________________________________\r\nleaky_re_lu_9 (LeakyReLU)       (None, 8, 8, 1024)   0           conv2d_9[0][0]\r\n__________________________________________________________________________________________________\r\ndropout_1 (Dropout)             (None, 8, 8, 1024)   0           leaky_re_lu_9[0][0]\r\n__________________________________________________________________________________________________\r\nconv2d_transpose (Conv2DTranspo (None, 16, 16, 512)  4719104     dropout_1[0][0]\r\n__________________________________________________________________________________________________\r\nzero_padding2d (ZeroPadding2D)  (None, 16, 16, 512)  0           conv2d_transpose[0][0]\r\n__________________________________________________________________________________________________\r\nconcatenate (Concatenate)       (None, 16, 16, 1024) 0           dropout[0][0]\r\n                                                                 zero_padding2d[0][0]\r\n__________________________________________________________________________________________________\r\nconv2d_10 (Conv2D)              (None, 16, 16, 512)  4719104     concatenate[0][0]\r\n__________________________________________________________________________________________________\r\nleaky_re_lu_10 (LeakyReLU)      (None, 16, 16, 512)  0           conv2d_10[0][0]\r\n__________________________________________________________________________________________________\r\nconv2d_11 (Conv2D)              (None, 16, 16, 512)  2359808     leaky_re_lu_10[0][0]\r\n__________________________________________________________________________________________________\r\nleaky_re_lu_11 (LeakyReLU)      (None, 16, 16, 512)  0           conv2d_11[0][0]\r\n__________________________________________________________________________________________________\r\nconv2d_transpose_1 (Conv2DTrans (None, 32, 32, 256)  1179904     leaky_re_lu_11[0][0]\r\n__________________________________________________________________________________________________\r\nzero_padding2d_1 (ZeroPadding2D (None, 32, 32, 256)  0           conv2d_transpose_1[0][0]\r\n__________________________________________________________________________________________________\r\nconcatenate_1 (Concatenate)     (None, 32, 32, 512)  0           leaky_re_lu_5[0][0]\r\n                                                                 zero_padding2d_1[0][0]\r\n__________________________________________________________________________________________________\r\nconv2d_12 (Conv2D)              (None, 32, 32, 256)  1179904     concatenate_1[0][0]\r\n__________________________________________________________________________________________________\r\nleaky_re_lu_12 (LeakyReLU)      (None, 32, 32, 256)  0           conv2d_12[0][0]\r\n__________________________________________________________________________________________________\r\nconv2d_13 (Conv2D)              (None, 32, 32, 256)  590080      leaky_re_lu_12[0][0]\r\n__________________________________________________________________________________________________\r\nleaky_re_lu_13 (LeakyReLU)      (None, 32, 32, 256)  0           conv2d_13[0][0]\r\n__________________________________________________________________________________________________\r\nconv2d_transpose_2 (Conv2DTrans (None, 64, 64, 128)  295040      leaky_re_lu_13[0][0]\r\n__________________________________________________________________________________________________\r\nzero_padding2d_2 (ZeroPadding2D (None, 64, 64, 128)  0           conv2d_transpose_2[0][0]\r\n__________________________________________________________________________________________________\r\nconcatenate_2 (Concatenate)     (None, 64, 64, 256)  0           leaky_re_lu_3[0][0]\r\n                                                                 zero_padding2d_2[0][0]\r\n__________________________________________________________________________________________________\r\nconv2d_14 (Conv2D)              (None, 64, 64, 128)  295040      concatenate_2[0][0]\r\n__________________________________________________________________________________________________\r\nleaky_re_lu_14 (LeakyReLU)      (None, 64, 64, 128)  0           conv2d_14[0][0]\r\n__________________________________________________________________________________________________\r\nconv2d_15 (Conv2D)              (None, 64, 64, 128)  147584      leaky_re_lu_14[0][0]\r\n__________________________________________________________________________________________________\r\nleaky_re_lu_15 (LeakyReLU)      (None, 64, 64, 128)  0           conv2d_15[0][0]\r\n__________________________________________________________________________________________________\r\nconv2d_transpose_3 (Conv2DTrans (None, 128, 128, 64) 73792       leaky_re_lu_15[0][0]\r\n__________________________________________________________________________________________________\r\nzero_padding2d_3 (ZeroPadding2D (None, 128, 128, 64) 0           conv2d_transpose_3[0][0]\r\n__________________________________________________________________________________________________\r\nconcatenate_3 (Concatenate)     (None, 128, 128, 128 0           leaky_re_lu_1[0][0]\r\n                                                                 zero_padding2d_3[0][0]\r\n__________________________________________________________________________________________________\r\nconv2d_16 (Conv2D)              (None, 128, 128, 64) 73792       concatenate_3[0][0]\r\n__________________________________________________________________________________________________\r\nleaky_re_lu_16 (LeakyReLU)      (None, 128, 128, 64) 0           conv2d_16[0][0]\r\n__________________________________________________________________________________________________\r\nconv2d_17 (Conv2D)              (None, 128, 128, 64) 36928       leaky_re_lu_16[0][0]\r\n__________________________________________________________________________________________________\r\nleaky_re_lu_17 (LeakyReLU)      (None, 128, 128, 64) 0           conv2d_17[0][0]\r\n__________________________________________________________________________________________________\r\nconv2d_18 (Conv2D)              (None, 128, 128, 2)  1154        leaky_re_lu_17[0][0]\r\n__________________________________________________________________________________________________\r\nleaky_re_lu_18 (LeakyReLU)      (None, 128, 128, 2)  0           conv2d_18[0][0]\r\n__________________________________________________________________________________________________\r\nconv2d_19 (Conv2D)              (None, 128, 128, 2)  6           leaky_re_lu_18[0][0]\r\n==================================================================================================\r\nTotal params: 34,514,440\r\nTrainable params: 34,514,440\r\nNon-trainable params: 0\r\n__________________________________________________________________________________________________\r\n```\r\n\r\n\r\n\r\n\r\n", "comments": ["@micosacak \r\nHello again. Can yo
…
