[{"number": 42882, "title": "tensorflow lite div quantized problem", "body": "**System information**\r\n- OS Platform and Distribution (e.g., Linux Ubuntu 16.04):macOS 10.14.4\r\n- TensorFlow installed from (source or binary):binary(pip install tensorflow==2.3.0)\r\n- TensorFlow version (or github SHA if from source):2.3.0\r\n\r\nI want to quantify div operations, but I couldn't get a model with quant div Op.\r\n\r\nThe test code is as follows:\r\n#############################################\r\nimport tensorflow.compat.v1 as tf\r\nimport numpy as np\r\n\r\n\r\ntf.disable_eager_execution()\r\n\r\ndata1 = np.random.rand(3).astype(np.float32)\r\nbeginInput1 = tf.placeholder(tf.float32,shape=[3])\r\n\r\ndata2 = np.random.rand(3).astype(np.float32)\r\nbeginInput2 = tf.placeholder(tf.float32,shape=[3])\r\n\r\ny = tf.constant([4.0, 6.0, 2.0])\r\n\r\nresult = tf.div(beginInput1,y)\r\nresult = tf.quantization.fake_quant_with_min_max_args(result, 1, 2,name=\"quant\")\r\n\r\ninit_op = tf.initialize_all_variables()\r\n\r\ndef representative_data_gen():\r\n    yield [data1]\r\n\r\nwith tf.Session() as sess:\r\n    sess.run(init_op)\r\n    end = sess.run(result,feed_dict={beginInput1:data1,beginInput2:data2})\r\n\r\n    output_graph_def = tf.graph_util.convert_variables_to_constants(sess,\r\n                                                                    sess.graph_def,\r\n                                                                    output_node_names=[\"quant\"])\r\n\r\n    with tf.gfile.FastGFile(\"../model/model.pb\", mode=\"wb\") as f:\r\n        f.write(output_graph_def.SerializeToString())\r\n\r\n    converter = tf.lite.TFLiteConverter.from_frozen_graph(\"../model/model.pb\",\r\n                                                        input_arrays=[\"Placeholder\"],\r\n                                                        output_arrays=[\"quant\"],\r\n                                                        input_shapes={\r\n                                                            \"Placeholder\": [3],\r\n                                                        })\r\n\r\n    converter.inference_type = tf.lite.constants.QUANTIZED_UINT8\r\n    input_arrays = converter.get_input_arrays()\r\n    converter.quantized_input_stats = {input_arrays[0]: (0., 1.)}\r\n\r\n    print(\"converter begin.\")\r\n    tflite_model = converter.convert()\r\n    open(\"../model/model.tflite\", \"wb\").write(tflite_model)\r\n#############################################\r\n\r\n**Failure details**\r\n![image](https://user-images.githubusercontent.com/16719562/91945888-b095a900-ed31-11ea-9bae-80046ab5422e.png)\r\n\r\nYou can see that tensorflow lite has supported quant div op.\r\nhttps://github.com/tensorflow/tensorflow/blob/r2.3/tensorflow/lite/toco/graph_transformations/quantize.cc#L56\r\n\r\nHow to convert a model containing quant div op?\r\n\r\n\r\n", "comments": ["@xiaoyaozhuzi could you try conversion with the following code?\r\n\r\n```\r\n   converter.optimizations = [tf.lite.Optimize.DEFAULT]\r\n    converter.target_spec.supported_ops = [\r\n        tf.lite.OpsSet.TFLITE_BUILTINS_INT8\r\n    ]\r\n```", "> @xiaoyaozhuzi could you try conversion with the following code?\r\n> \r\n> ```\r\n>    converter.optimizations = [tf.lite.Optimize.DEFAULT]\r\n>     converter.target_spec.supported_ops = [\r\n>         tf.lite.OpsSet.TFLITE_BUILTINS_INT8\r\n>     ]\r\n> ```\r\n\r\nPython 3.7.3 (default, Mar 27 2019, 16:54:48) \r\n[Clang 4.0.1 (tags/RELEASE_401/final)] on darwin\r\nTraceback (most recent call last):\r\n  File \"/Applications/PyCharm.app/Contents/helpers/pydev/pydev_run_in_console.py\", line 52, in run_file\r\n    pydev_imports.execfile(file, globals, locals)  # execute the script\r\n  File \"/Applications/PyCharm.app/Contents/helpers/pydev/_pydev_imps/_pydev_execfile.py\", line 18, in execfile\r\n    exec(compile(contents+\"\\n\", file, 'exec'), glob, loc)\r\n  File \"/Users/zhangshuo/githouse/toco-test/tensorflow-test/div_test.py\", line 51, in <module>\r\n    tflite_model = converter.convert()\r\n  File \"/anaconda2/envs/python3/lib/python3.7/site-packages/tensorflow/lite/python/lite.py\", line 1970, in convert\r\n    return super(TFLiteConverter, self).convert()\r\n  File \"/anaconda2/envs/python3/lib/python3.7/site-packages/tensorflow/lite/python/lite.py\", line 1339, in convert\r\n    result = self._calibrate_quantize_model(result, **flags)\r\n  File \"/anaconda2/envs/python3/lib/python3.7/site-packages/tensorflow/lite/python/lite.py\", line 452, in _calibrate_quantize_model\r\n    inference_output_type, allow_float, activations_type)\r\n  File \"/anaconda2/envs/python3/lib/python3.7/site-packages/tensorflow/lite/python/optimize/calibrator.py\", line 98, in calibrate_and_quantize\r\n    np.dtype(activations_type.as_numpy_dtype()).num)\r\nRuntimeError: Quantization not yet supported for op: \r\n\r\n\r\nShows that there are unsupported Quantization ops.\r\n", "Could you try the original conversion code with the tf-nightly version?\r\n\r\nI can create a model with one quantized multiply op node with the same code at the HEAD. FYI, the multiply op is used for the division calculation.", "> Could you try the original conversion code with the tf-nightly version?\r\n> \r\n> I can create a model with one quantized multiply op node with the same code at the HEAD. FYI, the multiply op is used for the division calculation.\r\n\r\n2.3.0 can also generate a model with only one multiplication operation, but division doesn't work.", "Could you elaborate more on your expectations on the division calculation from the generated model? It looks good to me.", "> Could you elaborate more on your expectations on the division calculation from the generated model? It looks good to me.\r\n\r\nhttps://github.com/tensorflow/tensorflow/blob/r2.3/tensorflow/lite/kernels/div.cc#L155\r\n\r\nI want to verify the accuracy loss of quant div op, so I want to create a tflite model with only one quant div operation.", "@jianlijianli Could you help create a model with single quantized div operator?\r\n\r\n\r\n", "> @jianlijianli Could you help create a model with single quantized div operator?\r\n\r\nWhat else can I try?\r\n\r\n\r\n\r\n\r\n\r\n", "@xiaoyaozhuzi \r\nPlease update, does creating single quantized div operator help.", "This issue has been automatically marked as stale because it has not had recent activity. It will be closed if no further activity occurs. Thank you.\n", "Closing as stale. Please reopen if you'd like to work on this further.\n", "Can anyone confirm that Quantized Div is not supported as stated by https://github.com/tensorflow/tensorflow/issues/21526? "]}, {"number": 42881, "title": "[tf1.15] Low GPU usage with multi gpus and multi losses  ", "body": "**System information**\r\n- Have I written custom code (as opposed to using a stock example script provided in TensorFlow): Yes\r\n- OS Platform and Distribution (e.g., Linux Ubuntu 16.04): Linux Ubuntu 16.04\r\n- Mobile device (e.g. iPhone 8, Pixel 2, Samsung Galaxy) if the issue happens on mobile device: None\r\n- TensorFlow installed from (source or binary): build from source according to official documents. branch is r1.15\r\n- TensorFlow version (use command below): 1.15\r\n- Python version: 2.7\r\n- Bazel version (if compiling from source): 0.24.1\r\n- GCC/Compiler version (if compiling from source): 5.4.0\r\n- CUDA/cuDNN version: 10.1 / 7.6.2\r\n- GPU model and memory: v100, 16G\r\n\r\n**Describe the current behavior**\r\nI trained the model belowing with 2 v100 GPUs, each of which has 16GB memory, and get\r\nLow GPU usage, average is 20 percent.\r\n\r\nI tried batch size 384 on single GPU, the usage does not go any higher. I think it means that the low usage of GPU has nothing to do with batch size.\r\n\r\nAnd I tried on colab, [results](https://colab.research.google.com/drive/13N7ukulsc06WWf8B079jQIcEpQ7zUVYt?usp=sharing). Although I can't get the GPU usage while training, but the time by each step is the same with my local experiments.\r\n\r\n**Describe the expected behavior**\r\nHigh GPU usage and faster training.\r\n\r\n**Standalone code to reproduce the issue**\r\n```\r\nimport numpy as np\r\nimport tensorflow as tf\r\nfrom tensorflow.keras import backend as K\r\nfrom tensorflow.keras.callbacks import TensorBoard\r\nfrom tensorflow.keras.layers import GRU, CuDNNGRU, Dense, Embedding, Reshape\r\nfrom tensorflow.keras.optimizers import Adam\r\n\r\nbatch_size = 256\r\ntime_steps = 750\r\n\r\n# datasets with almost no time delay\r\nnp_input = np.random.random((batch_size, time_steps, 512))\r\nnp_output = np.random.randint(0, 32, size=(batch_size, time_steps, 8))\r\ndef generate():\r\n  while True:\r\n    yield np_input, np_output\r\noutput_shapes = ((batch_size, time_steps, 512), (batch_size, time_steps, 8))\r\n\r\n\r\n# split the output to 8 parts, calculate loss with 8 labels\r\ndef loss(y_true, y_pred):\r\n  y_true = tf.split(y_true, num_or_size_splits=8, axis=-1)\r\n  y_pred = tf.split(y_pred, num_or_size_splits=8, axis=-1)\r\n  loss_func = lambda true, pred: tf.keras.losses.sparse_categorical_crossentropy(\r\n      true, pred, from_logits=True)\r\n  return tf.reduce_mean(\r\n      tf.add_n([loss_func(y_true[i], y_pred[i]) for i in range(8)]))\r\n\r\n\r\n# two v100 gpus, each of which has 16GB of memory\r\nstrategy = tf.distribute.MirroredStrategy()\r\nwith strategy.scope():\r\n  # get dataset\r\n  dataset = tf.data.Dataset.from_generator(generate,\r\n                                           output_types=(tf.float32, tf.int32),\r\n                                           output_shapes=output_shapes)\r\n  dataset = dataset.prefetch(2)\r\n\r\n  # create model\r\n  inputs = tf.keras.Input(shape=(None, 512))\r\n  rnn_outputs, rnn_state = CuDNNGRU(384,\r\n                                    return_sequences=True,\r\n                                    return_state=True)(inputs)\r\n  h_1, h_2 = tf.split(rnn_outputs, num_or_size_splits=2, axis=-1)\r\n  logits_1 = Dense(128)(Dense(256, activation='relu')(h_1))\r\n  logits_2 = Dense(128)(Dense(256, activation='relu')(h_2))\r\n  outputs = K.concatenate([logits_1, logits_2], axis=-1)\r\n  model = tf.keras.Model(inputs, outputs)\r\n\r\n  tensorboard = TensorBoard(log_dir='/workspace/exp/tf_log',\r\n                            update_freq=500,\r\n                            profile_batch=0)\r\n  optimizer = Adam(lr=1e-4, clipnorm=1.)\r\n  model.compile(optimizer=optimizer, loss=loss)\r\n\r\n# train\r\nmodel.fit(dataset, epochs=4, steps_per_epoch=1000, callbacks=[tensorboard])\r\n\r\n```\r\n\r\n**Other info / logs** Include any logs or source code that would be helpful to\r\ndiagnose the problem. If including tracebacks, please include the full\r\ntraceback. Large logs and files should be attached.\r\n\r\nI split the outputs of CudnnGRU to 2 parts, and split the final logits to 8 parts to calculate loss. Is there any possible problems in my code ? If any, how can I improve the gpu usage ?\r\n\r\n", "comments": ["I have tried in colab with TF version 1.15.Please, find the gist [here](https://colab.research.google.com/gist/ravikyram/73a2948e34416502ff587892b945161b/untitled294.ipynb). Thanks!", "@ravikyram hi, I tried to remove the tf.distribute.MirroredStrategy and trained on a single GPU, and that problem did not disappear.", "@ravikyram I tried to simplify the codes, the following code leads to low usage of GPU on a 16G v100 too.\r\n\r\n```\r\nimport numpy as np\r\nimport tensorflow as tf\r\nfrom tensorflow.keras import backend as K\r\nfrom tensorflow.keras.callbacks import TensorBoard\r\nfrom tensorflow.keras.layers import GRU, CuDNNGRU, Dense, Embedding, Reshape\r\nfrom tensorflow.keras.optimizers import Adam\r\n\r\nbatch_size = 384\r\ntime_steps = 750\r\n\r\n# datasets with almost no time delay\r\nnp_input = np.random.random((batch_size, time_steps, 512))\r\nnp_output = np.random.randint(0, 32, size=(batch_size, time_steps, 1))\r\n\r\n\r\ndef generate():\r\n  while True:\r\n    yield np_input, np_output\r\n\r\n\r\noutput_shapes = ((batch_size, time_steps, 512), (batch_size, time_steps, 1))\r\n\r\n\r\n# split the output to 8 parts, calculate loss with 8 labels\r\ndef loss(y_true, y_pred):\r\n  loss_func = lambda true, pred: tf.keras.losses.sparse_categorical_crossentropy(\r\n      true, pred, from_logits=True)\r\n  return loss_func(y_true, y_pred)\r\n\r\n\r\n# get dataset\r\ndataset = tf.data.Dataset.from_generator(generate,\r\n                                         output_types=(tf.float32, tf.int32),\r\n                                         output_shapes=output_shapes)\r\ndataset = dataset.prefetch(3)\r\n\r\n# create model\r\ninputs = tf.keras.Input(shape=(None, 512))\r\nrnn_outputs, rnn_state = CuDNNGRU(384, return_sequences=True,\r\n                                  return_state=True)(inputs)\r\nlogits_1 = Dense(128)(Dense(256, activation='relu')(rnn_outputs))\r\nmodel = tf.keras.Model(inputs, logits_1)\r\n\r\noptimizer = Adam(lr=1e-4, clipnorm=1.)\r\nmodel.compile(optimizer=optimizer, loss=loss)\r\n\r\n# train\r\nmodel.fit(dataset, epochs=4, steps_per_epoch=1000)\r\n```", "Here is the [colab link](https://colab.research.google.com/drive/1j8CqU_7LoRqt8iIBlw2JRCpegN9OtBU8?usp=sharing) for the simplified code.", "Hi @Yablon, we are currently working on a performance debugging guide that will be added to the TF docs and hopefully help for issues like this. Until that's out I can try to help you here.\r\n\r\nCan you provide more detail on how you measured your GPU utilization?\r\n\r\nWhen debugging performance issues with a distribution strategy, it's useful to start by making sure you have optimal performance in the single GPU case first as you've noted in your comment above. \r\n\r\nThe first thing to do in these cases it to use the Tensorboard Profiler. With the trace viewer, we can get an idea of what could be causing the problem. Here is an [overview](https://www.tensorflow.org/guide/profiler) of how to use the Profiler, and here is a [simple example](https://www.tensorflow.org/tensorboard/tensorboard_profiling_keras) for using the profiler with a single GPU.  If you can provide some screenshots based on the performance (especially the trace viewer) that will help to debug.\r\n\r\nI am also curious to know what you see when you replace the CuDNNGRU unit with another layer. Additionally, it also seems like your code should run fine with TF 2.x (with the exception of the CuDNNGRU layer) so I would be interested to know what the results look like in that case as well.", "This issue has been automatically marked as stale because it has not had recent activity. It will be closed if no further activity occurs. Thank you.\n", "Closing as stale. Please reopen if you'd like to work on this further.\n"]}, {"number": 42880, "title": "weight decay (regularization) does not work with add_loss() function", "body": "**System information**\r\n- OS Platform: Ubuntu 16.04\r\n- TensorFlow installed from: conda\r\n- TensorFlow version: 2.2.0\r\n- Python version: 3.7\r\n- CUDA/cuDNN version: 10.1\r\n- GPU model and memory:  nvidia 1080\r\n\r\n**Describe the current behavior**\r\nI tried to add regularization loss to a model with model.add_loss() function. Normally, if I set the regularization term large enough, the regularization should damage training and give a poor result. But regularization does not affect training at all, the following code shows a toy example\r\n```\r\nepochs = 18\r\nreg = 10 # set a very large regularization and see if it works\r\n(x_train, y_train),(x_test, y_test) = tf.keras.datasets.mnist.load_data()\r\nx_train = np.expand_dims(x_train, axis=-1) / 255.0\r\nx_test = np.expand_dims(x_test, axis=-1) / 255.0\r\nmodel = tf.keras.models.Sequential([\r\n  tf.keras.layers.Flatten(input_shape=(28, 28, 1)),\r\n  tf.keras.layers.Dense(128, activation='relu'),\r\n  tf.keras.layers.Dropout(0.2),\r\n  tf.keras.layers.Dense(10, activation='softmax')\r\n])\r\nfor w in model.trainable_weights:\r\n    if 'bias' in w.name:\r\n        continue\r\n    model.add_loss(lambda: tf.nn.l2_loss(w) * reg )\r\nmodel.compile(optimizer='adam',loss='sparse_categorical_crossentropy',metrics=['accuracy'])\r\nmodel.fit(x_train, y_train, epochs=epochs)\r\nmodel.evaluate(x_test, y_test)\r\n```\r\n\r\n**Describe the expected behavior**\r\nI replace the model with the following code, and it works properly:\r\n```\r\nmodel = tf.keras.models.Sequential([\r\n  tf.keras.layers.Flatten(input_shape=(28, 28, 1)),\r\n  tf.keras.layers.Dense(128, activation='relu',  kernel_regularizer=l2(reg)),\r\n  tf.keras.layers.Dropout(0.2),\r\n  tf.keras.layers.Dense(10, activation='softmax', kernel_regularizer=l2(reg))\r\n])\r\n```\r\n", "comments": ["> I tried to add regularization loss to a model with model.add_loss() function. Normally, if I set the regularization term large enough, the regularization should damage training and give a poor result.\r\n\r\n@Ao-Lee,\r\nOn adding regularization loss to the model, I did observe a decrease in the accuracy. Please find the gist of it [here](https://colab.research.google.com/gist/amahendrakar/7720418849b266771bde82168f149080/42880.ipynb). \r\n\r\nCould you please confirm if this is the behavior you are expecting. Thanks!", "@amahendrakar ,\r\nthis is not my expecting behavior \r\n\r\nwith the following code below, setting the regularization term to 10, I observe the training accuracy over one epoch is around 0.91,  which is the same result as there was no regularization. Since strong regularization is applied, my expected result was some value far below 0.91 (actually around 0.11\uff0csee the following ). I suspect that adding regularization via model.add_loss() is not officially supported.\r\n```\r\nreg = 10\r\nfor w in model.trainable_weights:\r\n    if 'bias' in w.name:\r\n        continue\r\n    model.add_loss(lambda: tf.nn.l2_loss(w) * reg)\r\n```\r\n\r\nIf the regularization is set with kernel_regularizer parameter of keras layers, I observed that the training accuracy over one epoch is around 0.11. \r\n```\r\nmodel = tf.keras.models.Sequential([\r\n  tf.keras.layers.Flatten(input_shape=(28, 28, 1)),\r\n  tf.keras.layers.Dense(128, activation='relu',  kernel_regularizer=l2(10.0)),\r\n  tf.keras.layers.Dropout(0.2),\r\n  tf.keras.layers.Dense(10, activation='softmax', kernel_regularizer=l2(10.0))\r\n])\r\n```\r\n", "If regularization loss can not be added to a model via model.add_loss(), it would be very hard to add regularization to pre-trained models, such as tensorflow.keras.applications.ResNet50. One temporary solution is here: https://sthalles.github.io/keras-regularizer/\r\nI tested the methods and it correctly works. But this method is not cost efficient and I hope there would be a convinent method which correctly add regularization losses to pre-defined models", "@Ao-Lee,\r\nThis issue is duplicate of [#38891](https://github.com/tensorflow/tensorflow/issues/38891). Can you please confirm if we can close this issue as it is being tracked [there](https://github.com/tensorflow/tensorflow/issues/38891). Thanks!", "This issue has been automatically marked as stale because it has not had recent activity. It will be closed if no further activity occurs. Thank you.\n", "@Ao-Lee,\r\nCan you please respond to the [above comment](https://github.com/tensorflow/tensorflow/issues/42880#issuecomment-730431019). Thanks! ", "Closing as stale. Please reopen if you'd like to work on this further.\n", "Are you satisfied with the resolution of your issue?\n<a href=\"https://docs.google.com/forms/d/e/1FAIpQLSfaP12TRhd9xSxjXZjcZFNXPGk4kc1-qMdv3gc6bEP90vY1ew/viewform?entry.85265664=Yes&entry.2137816233=https://github.com/tensorflow/tensorflow/issues/42880\">Yes</a>\n<a href=\"https://docs.google.com/forms/d/e/1FAIpQLSfaP12TRhd9xSxjXZjcZFNXPGk4kc1-qMdv3gc6bEP90vY1ew/viewform?entry.85265664=No&entry.2137816233=https://github.com/tensorflow/tensorflow/issues/42880\">No</a>\n"]}, {"number": 42879, "title": "NMS support in XLA", "body": "<em>Please make sure that this is a bug. As per our\r\n[GitHub Policy](https://github.com/tensorflow/tensorflow/blob/master/ISSUES.md),\r\nwe only address code/doc bugs, performance issues, feature requests and\r\nbuild/installation issues on GitHub. tag:bug_template</em>\r\n\r\n**System information**\r\n- Have I written custom code (as opposed to using a stock example script provided in TensorFlow): No\r\n- OS Platform and Distribution (e.g., Linux Ubuntu 16.04): Linux Ubuntu 16.04\r\n- Mobile device (e.g. iPhone 8, Pixel 2, Samsung Galaxy) if the issue happens on mobile device: NA\r\n- TensorFlow installed from (source or binary): binary\r\n- TensorFlow version (use command below): 2.3\r\n- Python version: 3.7.6\r\n- Bazel version (if compiling from source): NA\r\n- GCC/Compiler version (if compiling from source): na\r\n- CUDA/cuDNN version: na\r\n- GPU model and memory: na\r\n\r\nYou can collect some of this information using our environment capture\r\n[script](https://github.com/tensorflow/tensorflow/tree/master/tools/tf_env_collect.sh)\r\nYou can also obtain the TensorFlow version with:\r\n1. TF 1.0: `python -c \"import tensorflow as tf; print(tf.GIT_VERSION, tf.VERSION)\"`\r\n2. TF 2.0: `python -c \"import tensorflow as tf; print(tf.version.GIT_VERSION, tf.version.VERSION)\"`\r\n\r\n\r\n**Describe the current behavior**\r\nI saw the [NMS implementation in tf2xla](https://github.com/tensorflow/tensorflow/blob/master/tensorflow/compiler/tf2xla/kernels/image_ops.cc#L399), but the op has not been registered yet via REGISTER_XLA_OP. I am wondering what is the status of nms support in xla, since it is a data dependent dynamic op, would love to see how dynamic output is handled by XLA.\r\n\r\n**Describe the expected behavior**\r\n\r\n**Standalone code to reproduce the issue**\r\nProvide a reproducible test case that is the bare minimum necessary to generate\r\nthe problem. If possible, please share a link to Colab/Jupyter/any notebook.\r\n```\r\nimport numpy as np\r\nimport tensorflow as tf\r\ntf.compat.v1.enable_eager_execution()\r\n\r\n# Non-Maximum Suppression\r\n@tf.function(experimental_compile=True)\r\ndef test_nms():\r\n    box_shape = (20, 4)\r\n    score_shape = (20, )\r\n    iou_threshold = 0.7\r\n    score_threshold = 0.5\r\n    out_size = 10\r\n    dtype=\"float32\"\r\n\r\n    boxes = np.random.uniform(0, 10, size=box_shape).astype(dtype)\r\n    scores = np.random.uniform(size=score_shape).astype(dtype)\r\n    max_output_size = np.int32(out_size)\r\n    in_data_1 = tf.constant(boxes, dtype, boxes.shape, name=\"in_data_1\")\r\n    in_data_2 = tf.constant(scores, dtype, scores.shape, name=\"in_data_2\")\r\n    in_data_3 = tf.constant(max_output_size, \"int32\", name=\"in_data_3\")\r\n    res = tf.image.non_max_suppression(boxes=in_data_1, scores=in_data_2, max_output_size=in_data_3,\r\n                                       iou_threshold=iou_threshold, score_threshold=score_threshold, name=\"nms\")\r\n    return res\r\n\r\ntest_nms()\r\n```\r\n\r\n**Other info / logs** Include any logs or source code that would be helpful to\r\ndiagnose the problem. If including tracebacks, please include the full\r\ntraceback. Large logs and files should be attached.\r\n\r\nerror message\r\n```\r\nnms/NonMaxSuppressionV3: unsupported op: No registered 'NonMaxSuppressionV3' OpKernel for XLA_CPU_JIT devices compatible with node {{node nms/NonMaxSuppressionV3}}\r\n\tStacktrace:\r\n\t\tNode: __inference_test_nms_10, function: \r\n\t\tNode: nms/NonMaxSuppressionV3, function: __inference_test_nms_10\r\n [Op:__inference_test_nms_10]\r\n```", "comments": ["I am able to replicate the issue reported, please find the [gist here](https://colab.research.google.com/gist/Saduf2019/19a5fc19c048117828334c9e5ad16fd2/untitled401.ipynb).", "@yongwww Looks like this was resolved. I tried your code with `tf-nightly` nad I cannot reproduce the error. Please check the [gist here](https://colab.research.google.com/gist/jvishnuvardhan/adf3ebd661b088846a7e3d1e003aeb49/untitled401.ipynb).\r\n\r\nCan you please verify and close the issue if this was resolved for you. Thanks!", "This issue has been automatically marked as stale because it has not had recent activity. It will be closed if no further activity occurs. Thank you.\n", "Closing as stale. Please reopen if you'd like to work on this further.\n", "Are you satisfied with the resolution of your issue?\n<a href=\"https://docs.google.com/forms/d/e/1FAIpQLSfaP12TRhd9xSxjXZjcZFNXPGk4kc1-qMdv3gc6bEP90vY1ew/viewform?entry.85265664=Yes&entry.2137816233=https://github.com/tensorflow/tensorflow/issues/42879\">Yes</a>\n<a href=\"https://docs.google.com/forms/d/e/1FAIpQLSfaP12TRhd9xSxjXZjcZFNXPGk4kc1-qMdv3gc6bEP90vY1ew/viewform?entry.85265664=No&entry.2137816233=https://github.com/tensorflow/tensorflow/issues/42879\">No</a>\n"]}, {"number": 42877, "title": "tf.keras.Model.compile unexpectedly recovered old optimizer iterations", "body": "\r\n**System information**\r\n- TensorFlow version (use command below):2.4 nightly\r\n- GCC/Compiler version (if compiling from source):\r\n- CUDA/cuDNN version: 11\r\n- GPU model and memory: Titan RTX\r\n\r\nAfter I set a new optimizer in tf.keras.Model.compile. The \"iterations\" become previous trained iterations", "comments": ["Currently I am using `model.optimizer.iterations.assign(0)` to fix this isuse after compiled", "@edwardyehuang,\r\nIn order to expedite the trouble-shooting process, could you please provide the complete code to reproduce the issue reported here and also the dataset you are using. Thanks!", "This issue has been automatically marked as stale because it has not had recent activity. It will be closed if no further activity occurs. Thank you.\n", "Closing as stale. Please reopen if you'd like to work on this further.\n", "Are you satisfied with the resolution of your issue?\n<a href=\"https://docs.google.com/forms/d/e/1FAIpQLSfaP12TRhd9xSxjXZjcZFNXPGk4kc1-qMdv3gc6bEP90vY1ew/viewform?entry.85265664=Yes&entry.2137816233=https://github.com/tensorflow/tensorflow/issues/42877\">Yes</a>\n<a href=\"https://docs.google.com/forms/d/e/1FAIpQLSfaP12TRhd9xSxjXZjcZFNXPGk4kc1-qMdv3gc6bEP90vY1ew/viewform?entry.85265664=No&entry.2137816233=https://github.com/tensorflow/tensorflow/issues/42877\">No</a>\n"]}, {"number": 42874, "title": "Allow grappler layout optimizer to support LeakyRelu ops", "body": "This PR enables the LeakyRelu/LeakyReluGrad to be included in the layout agnostic list. Then, the grappler layout optimizer will be able to propagate desired layout formats through them to avoid unnecessary transpose back and forth.\r\n\r\n\r\nFYI @nluehr ", "comments": []}, {"number": 42873, "title": "TFLite conversion produces model with a different input shape despite providing input parameter", "body": "**System information**\r\n- OS Platform and Distribution: `Windows 10`\r\n- TensorFlow installed from: `Binary`\r\n- TensorFlow version: `2.4.0-dev20200901`\r\n\r\n\r\n**Command used to run the converter or code if you\u2019re using the Python API**\r\n\r\nThe original model is an SSD object detection model trained using ResNet50 as the base model.  TensorFlow core model operates as expected but lite model rejects the same input image.\r\n\r\n**Python API Conversion:**\r\n```python\r\nimport tensorflow as tf\r\nsaved_model_dir = r\"C:\\Users\\alfarok\\Desktop\\tflite_graph\\saved_model\"\r\noutput_file_dir = r\"C:\\Users\\alfarok\\Desktop\\output\"\r\nconverter = tf.lite.TFLiteConverter.from_saved_model(saved_model_dir, signature_keys=['serving_default'])\r\n\r\nconverter.input_shape=(None,640,640,3)\r\nconverter.optimizations = [tf.lite.Optimize.DEFAULT]\r\nconverter.target_spec.supported_ops = [tf.lite.OpsSet.TFLITE_BUILTINS, tf.lite.OpsSet.SELECT_TF_OPS]\r\n\r\ntflite_model = converter.convert()\r\nwith tf.io.gfile.GFile('model.tflite', 'wb') as f:\r\n    f.write(tflite_model)\r\nprint(f\"{output_file_dir} written\")\r\n```\r\n\r\n**The output from the converter invocation**\r\n\r\n```\r\nC:\\Users\\alfarok\\Desktop\\output written\r\n```\r\n\r\n**Also, please include a link to the saved model or GraphDef**\r\n\r\n```\r\n# Can be sent via email if required\r\n```\r\n\r\n**Failure details**\r\nIf the conversion is successful, but the generated model is wrong,\r\nstate what is wrong:\r\n- Input shape that was specified is not preserved\r\n- `converter.input_shape=(None,640,640,3)` produces `'shape': array([1, 1, 1, 3]), 'shape_signature': array([ 1, -1, -1,  3])`\r\n- Attempting to invoke the model `ValueError: Cannot set tensor: Dimension mismatch. Got 640 but expected 1 for dimension 1 of input 0.`\r\n\r\nDetails:\r\n```python\r\ninterpreter = tf.lite.Interpreter(model_path=tflite_model_path)\r\ninterpreter.allocate_tensors()\r\n    \r\ninput_details = interpreter.get_input_details()\r\noutput_details = interpreter.get_output_details()\r\n\r\nprint(input_details)\r\n```\r\n\r\n```\r\n[{'name': 'serving_default_input_tensor:0', 'index': 0, 'shape': array([1, 1, 1, 3]), 'shape_signature': array([ 1, -1, -1,  3]), 'dtype': <class 'numpy.uint8'>, 'quantization': (0.0, 0), 'quantization_parameters': {'scales': array([], dtype=float32), 'zero_points': array([], dtype=int32), 'quantized_dimension': 0}, 'sparsity_parameters': {}}]\r\n```\r\n\r\n```python\r\nprint(output_details)\r\n```\r\n\r\n```\r\n[{'name': 'StatefulPartitionedCall:5', 'index': 740, 'shape': array([1]), 'shape_signature': array([1]), 'dtype': <class 'numpy.float32'>, 'quantization': (0.0, 0), 'quantization_parameters': {'scales': array([], dtype=float32), 'zero_points': array([], dtype=int32), 'quantized_dimension': 0}, 'sparsity_parameters': {}}, {'name': 'StatefulPartitionedCall:1', 'index': 836, 'shape': array([1, 1, 1]), 'shape_signature': array([ 1, -1, -1]), 'dtype': <class 'numpy.float32'>, 'quantization': (0.0, 0), 'quantization_parameters': {'scales': array([], dtype=float32), 'zero_points': array([], dtype=int32), 'quantized_dimension': 0}, 'sparsity_parameters': {}}, {'name': 'StatefulPartitionedCall:2', 'index': 814, 'shape': array([1, 1]), 'shape_signature': array([ 1, -1]), 'dtype': <class 'numpy.float32'>, 'quantization': (0.0, 0), 'quantization_parameters': {'scales': array([], dtype=float32), 'zero_points': array([], dtype=int32), 'quantized_dimension': 0}, 'sparsity_parameters': {}}, {'name': 'StatefulPartitionedCall:7', 'index': 452, 'shape': array([    1, 85250,    12]), 'shape_signature': array([    1, 85250,    12]), 'dtype': <class 'numpy.float32'>, 'quantization': (0.0, 0), 'quantization_parameters': {'scales': array([], dtype=float32), 'zero_points': array([], dtype=int32), 'quantized_dimension': 0}, 'sparsity_parameters': {}}, {'name': 'StatefulPartitionedCall:4', 'index': 757, 'shape': array([1, 1]), 'shape_signature': array([ 1, -1]), 'dtype': <class 'numpy.float32'>, 'quantization': (0.0, 0), 'quantization_parameters': {'scales': array([], dtype=float32), 'zero_points': array([], dtype=int32), 'quantized_dimension': 0}, 'sparsity_parameters': {}}, {'name': 'StatefulPartitionedCall:6', 'index': 436, 'shape': array([    1, 85250,     4]), 'shape_signature': array([    1, 85250,     4]), 'dtype': <class 'numpy.float32'>, 'quantization': (0.0, 0), 'quantization_parameters': {'scales': array([], dtype=float32), 'zero_points': array([], dtype=int32), 'quantized_dimension': 0}, 'sparsity_parameters': {}}, {'name': 'StatefulPartitionedCall:3', 'index': 797, 'shape': array([1, 1, 1]), 'shape_signature': array([ 1, -1, -1]), 'dtype': <class 'numpy.float32'>, 'quantization': (0.0, 0), 'quantization_parameters': {'scales': array([], dtype=float32), 'zero_points': array([], dtype=int32), 'quantized_dimension': 0}, 'sparsity_parameters': {}}, {'name': 'StatefulPartitionedCall:0', 'index': 775, 'shape': array([1, 1]), 'shape_signature': array([ 1, -1]), 'dtype': <class 'numpy.float32'>, 'quantization': (0.0, 0), 'quantization_parameters': {'scales': array([], dtype=float32), 'zero_points': array([], dtype=int32), 'quantized_dimension': 0}, 'sparsity_parameters': {}}]\r\n```\r\n\r\n```python\r\n# Get expected width and height from models input dimensions\r\nheight = input_details[0]['shape'][1]\r\nwidth = input_details[0]['shape'][2]\r\nprint(height, width)\r\n```\r\n```\r\n1 1\r\n```\r\n\r\n**Any other info / logs**\r\n\r\nI also tried to use the CLI such as but the output file is never produced.  It runs for a while and looks like it completes but I cannot find the `.tflite` model in the expected directory?\r\n```\r\ntflite_convert --saved_model_dir=inference_graph_ssd_resnet50\\saved_model --output_file=inference_graph_ssd_resnet50.tflite --output_format=TFLITE --input_shapes=None,640,640,3 \r\n```\r\n\r\n```\r\nRuns for a while eventually producing this (let me know if you need the entire log):\r\n  %0 = \"tfl.cast\"(%cst_228) : (tensor<1x85250xi32>) -> tensor<1x85250xf32>\r\n  %1 = \"tfl.unpack\"(%0) {axis = 0 : i32, num = 1 : i32} : (tensor<1x85250xf32>) -> tensor<85250xf32>\r\n  %2 = \"tfl.slice\"(%1, %cst_258, %cst_24) : (tensor<85250xf32>, tensor<1xi32>, tensor<1xi32>) -> tensor<85250xf32>\r\n  %3 = \"tfl.cast\"(%arg0) : (tensor<1x?x?x3xui8>) -> tensor<1x?x?x3xf32>\r\n  %4 = \"tfl.sub\"(%3, %cst_34) {fused_activation_function = \"NONE\"} : (tensor<1x?x?x3xf32>, tensor<1x1x3xf32>) -> tensor<1x?x?x3xf32>\r\n  %5 = \"tfl.unpack\"(%4) {axis = 0 : i32, num = 1 : i32} : (tensor<1x?x?x3xf32>) -> tensor<?x?x3xf32>\r\n  %6 = \"tfl.expand_dims\"(%5, %cst_32) : (tensor<?x?x3xf32>, tensor<i32>) -> tensor<1x?x?x3xf32>\r\n  %7 = \"tfl.resize_bilinear\"(%6, %cst_33) {align_corners = false, half_pixel_centers = false} : (tensor<1x?x?x3xf32>, tensor<2xi32>) -> tensor<1x640x640x3xf32>\r\n  %8 = \"tfl.reshape\"(%7, %cst_229) : (tensor<1x640x640x3xf32>, tensor<3xi32>) -> tensor<640x640x3xf32>\r\n  %9 = \"tfl.pack\"(%8) {axis = 0 : i32, values_count = 1 : i32} : (tensor<640x640x3xf32>) -> tensor<1x640x640x3xf32>\r\n  %10 = \"tfl.pad\"(%9, %cst_37) : (tensor<1x640x640x3xf32>, tensor<4x2xi32>) -> tensor<1x646x646x3xf32>\r\n  %11 = \"tfl.conv_2d\"(%10, %cst_126, %cst_49) {dilation_h_factor = 1 : i32, dilation_w_factor = 1 : i32, fused_activation_function = \"RELU6\", padding = \"VALID\", stride_h = 2 : i32, stride_w = 2 : i32} : (tensor<1x646x646x3xf32>, tensor<64x7x7x3xf32>, tensor<64xf32>) -> tensor<1x320x320x64xf32>\r\n  %12 = \"tfl.max_pool_2d\"(%11) {filter_height = 3 : i32, filter_width = 3 : i32, fused_activation_function = \"NONE\", padding = \"SAME\", stride_h = 2 : i32, stride_w = 2 : i32} : (tensor<1x320x320x64xf32>) -> tensor<1x160x160x64xf32>\r\n  %13 = \"tfl.conv_2d\"(%12, %cst_127, %cst_230) {dilation_h_factor = 1 : i32, dilation_w_factor = 1 : i32, fused_activation_function = \"NONE\", padding = \"SAME\", stride_h = 1 : i32, stride_w = 1 : i32} : (tensor<1x160x160x64xf32>, tensor<256x1x1x64xf32>, tensor<256xf32>) -> tensor<1x160x160x256xf32>\r\n  %14 = \"tfl.conv_2d\"(%12, %cst_128, %cst_50) {dilation_h_factor = 1 : i32, dilation_w_factor = 1 : i32, fused_activation_function = \"RELU6\", padding = \"SAME\", stride_h = 1 : i32, stride_w = 1 : i32} : (tensor<1x160x160x64xf32>, tensor<64x1x1x64xf32>, tensor<64xf32>) -> tensor<1x160x160x64xf32>\r\n  %15 = \"tfl.conv_2d\"(%14, %cst_129, %cst_51) {dilation_h_factor = 1 : i32, dilation_w_factor = 1 : i32, fused_activation_function = \"RELU6\", padding = \"SAME\", stride_h = 1 : i32, stride_w = 1 : i32} : (tensor<1x160x160x64xf32>, tensor<64x3x3x64xf32>, tensor<64xf32>) -> tensor<1x160x160x64xf32>\r\n  %16 = \"tfl.conv_2d\"(%15, %cst_130, %cst_231) {dilation_h_factor = 1 : i32, dilation_w_factor = 1 : i32, fused_activation_function = \"NONE\", padding = \"SAME\", stride_h = 1 : i32, stride_w = 1 : i32} : (tensor<1x160x160x64xf32>, tensor<256x1x1x64xf32>, tensor<256xf32>) -> tensor<1x160x160x256xf32>\r\n  %17 = \"tfl.add\"(%13, %16) {fused_activation_function = \"RELU6\"} : (tensor<1x160x160x256xf32>, tensor<1x160x160x256xf32>) -> tensor<1x160x160x256xf32>\r\n  %18 = \"tfl.conv_2d\"(%17, %cst_131, %cst_52) {dilation_h_factor = 1 : i32, dilation_w_factor = 1 : i32, fused_activation_function = \"RELU6\", padding = \"SAME\", stride_h = 1 : i32, stride_w = 1 : i32} : (tensor<1x160x160x256xf32>, tensor<64x1x1x256xf32>, tensor<64xf32>) -> tensor<1x160x160x64xf32>\r\n  %19 = \"tfl.conv_2d\"(%18, %cst_132, %cst_53) {dilation_h_factor = 1 : i32, dilation_w_factor = 1 : i32, fused_activation_function = \"RELU6\", padding = \"SAME\", stride_h = 1 : i32, stride_w = 1 : i32} : (tensor<1x160x160x64xf32>, tensor<64x3x3x64xf32>, tensor<64xf32>) -> tensor<1x160x160x64xf32>\r\n  %20 = \"tfl.conv_2d\"(%19, %cst_133, %cst_232) {dilation_h_factor = 1 : i32, dilation_w_factor = 1 : i32, fused_activation_function = \"NONE\", padding = \"SAME\", stride_h = 1 : i32, stride_w = 1 : i32} : (tensor<1x160x160x64xf32>, tensor<256x1x1x64xf32>, tensor<256xf32>) -> tensor<1x160x160x256xf32>\r\n  %21 = \"tfl.add\"(%17, %20) {fused_activation_function = \"RELU6\"} : (tensor<1x160x160x256xf32>, tensor<1x160x160x256xf32>) -> tensor<1x160x160x256xf32>\r\n  %22 = \"tfl.conv_2d\"(%21, %cst_134, %cst_54) {dilation_h_factor = 1 : i32, dilation_w_factor = 1 : i32, fused_activation_function = \"RELU6\", padding = \"SAME\", stride_h = 1 : i32, stride_w = 1 : i32} : (tensor<1x160x160x256xf32>, tensor<64x1x1x256xf32>, tensor<64xf32>) -> tensor<1x160x160x64xf32>\r\n  %23 = \"tfl.conv_2d\"(%22, %cst_135, %cst_55) {dilation_h_factor = 1 : i32, dilation_w_factor = 1 : i32, fused_activation_function = \"RELU6\", padding = \"SAME\", stride_h = 1 : i32, stride_w = 1 : i32} : (tensor<1x160x160x64xf32>, tensor<64x3x3x64xf32>, tensor<64xf32>) -> tensor<1x160x160x64xf32>\r\n  %24 = \"tfl.conv_2d\"(%23, %cst_136, %cst_233) {dilation_h_factor = 1 : i32, dilation_w_factor = 1 : i32, fused_activation_function = \"NONE\", padding = \"SAME\", stride_h = 1 : i32, stride_w = 1 : i32} : (tensor<1x160x160x64xf32>, tensor<256x1x1x64xf32>, tensor<256xf32>) -> tensor<1x160x160x256xf32>\r\n  %25 = \"tfl.add\"(%21, %24) {fused_activation_function = \"RELU6\"} : (tensor<1x160x160x256xf32>, tensor<1x160x160x256xf32>) -> tensor<1x160x160x256xf32>\r\n  %26 = \"tfl.conv_2d\"(%25, %cst_137, %cst_234) {dilation_h_factor = 1 : i32, dilation_w_factor = 1 : i32, fused_activation_function = \"NONE\", padding = \"SAME\", stride_h = 2 : i32, stride_w = 2 : i32} : (tensor<1x160x160x256xf32>, tensor<512x1x1x256xf32>, tensor<512xf32>) -> tensor<1x80x80x512xf32>\r\n  %27 = \"tfl.conv_2d\"(%25, %cst_138, %cst_56) {dilation_h_factor = 1 : i32, dilation_w_factor = 1 : i32, fused_activation_function = \"RELU6\", padding = \"SAME\", stride_h = 2 : i32, stride_w = 2 : i32} : (tensor<1x160x160x256xf32>, tensor<128x1x1x256xf32>, tensor<128xf32>) -> tensor<1x80x80x128xf32>\r\n  %28 = \"tfl.conv_2d\"(%27, %cst_139, %cst_57) {dilation_h_factor = 1 : i32, dilation_w_factor = 1 : i32, fused_activation_function = \"RELU6\", padding = \"SAME\", stride_h = 1 : i32, stride_w = 1 : i32} : (tensor<1x80x80x128xf32>, tensor<128x3x3x128xf32>, tensor<128xf32>) -> tensor<1x80x80x128xf32>\r\n  %29 = \"tfl.conv_2d\"(%28, %cst_140, %cst_235) {dilation_h_factor = 1 : i32, dilation_w_factor = 1 : i32, fused_activation_function = \"NONE\", padding = \"SAME\", stride_h = 1 : i32, stride_w = 1 : i32} : (tensor<1x80x80x128xf32>, tensor<512x1x1x128xf32>, tensor<512xf32>) -> tensor<1x80x80x512xf32>\r\n  %30 = \"tfl.add\"(%26, %29) {fused_activation_function = \"RELU6\"} : (tensor<1x80x80x512xf32>, tensor<1x80x80x512xf32>) -> tensor<1x80x80x512xf32>\r\n  %31 = \"tfl.conv_2d\"(%30, %cst_141, %cst_58) {dilation_h_factor = 1 : i32, dilation_w_factor = 1 : i32, fused_activation_function = \"RELU6\", padding = \"SAME\", stride_h = 1 : i32, stride_w = 1 : i32} : (tensor<1x80x80x512xf32>, tensor<128x1x1x512xf32>, tensor<128xf32>) -> tensor<1x80x80x128xf32>\r\n  %32 = \"tfl.conv_2d\"(%31, %cst_142, %cst_59) {dilation_h_factor = 1 : i32, dilation_w_factor = 1 : i32, fused_activation_function = \"RELU6\", padding = \"SAME\", stride_h = 1 : i32, stride_w = 1 : i32} : (tensor<1x80x80x128xf32>, tensor<128x3x3x128xf32>, tensor<128xf32>) -> tensor<1x80x80x128xf32>\r\n  %33 = \"tfl.conv_2d\"(%32, %cst_143, %cst_236) {dilation_h_factor = 1 : i32, dilation_w_factor = 1 : i32, fused_activation_function = \"NONE\", padding = \"SAME\", stride_h = 1 : i32, stride_w = 1 : i32} : (tensor<1x80x80x128xf32>, tensor<512x1x1x128xf32>, tensor<512xf32>) -> tensor<1x80x80x512xf32>\r\n  %34 = \"tfl.add\"(%30, %33) {fused_activation_function = \"RELU6\"} : (tensor<1x80x80x512xf32>, tensor<1x80x80x512xf32>) -> tensor<1x80x80x512xf32>\r\n  %35 = \"tfl.conv_2d\"(%34, %cst_144, %cst_60) {dilation_h_factor = 1 : i32, dilation_w_factor = 1 : i32, fused_activation_function = \"RELU6\", padding = \"SAME\", stride_h = 1 : i32, stride_w = 1 : i32} : (tensor<1x80x80x512xf32>, tensor<128x1x1x512xf32>, tensor<128xf32>) -> tensor<1x80x80x128xf32>\r\n  %36 = \"tfl.conv_2d\"(%35, %cst_145, %cst_61) {dilation_h_factor = 1 : i32, dilation_w_factor = 1 : i32, fused_activation_function = \"RELU6\", padding = \"SAME\", stride_h = 1 : i32, stride_w = 1 : i32} : (tensor<1x80x80x128xf32>, tensor<128x3x3x128xf32>, tensor<128xf32>) -> tensor<1x80x80x128xf32>\r\n  %37 = \"tfl.conv_2d\"(%36, %cst_146, %cst_237) {dilation_h_factor = 1 : i32, dilation_w_factor = 1 : i32, fused_activation_function = \"NONE\", padding = \"SAME\", stride_h = 1 : i32, stride_w = 1 : i32} : (tensor<1x80x80x128xf32>, tensor<512x1x1x128xf32>, tensor<512xf32>) -> tensor<1x80x80x512xf32>\r\n  %38 = \"tfl.add\"(%34, %37) {fused_activation_function = \"RELU6\"} : (tensor<1x80x80x512xf32>, tensor<1x80x80x512xf32>) -> tensor<1x80x80x512xf32>\r\n  %39 = \"tfl.conv_2d\"(%38, %cst_147, %cst_62) {dilation_h_factor = 1 : i32, dilation_w_factor = 1 : i32, fused_activation_function = \"RELU6\", padding = \"SAME\", stride_h = 1 : i32, stride_w = 1 : i32} : (tensor<1x80x80x512xf32>, tensor<128x1x1x512xf32>, tensor<128xf32>) -> tensor<1x80x80x128xf32>\r\n  %40 = \"tfl.conv_2d\"(%39, %cst_148, %cst_63) {dilation_h_factor = 1 : i32, dilation_w_factor = 1 : i32, fused_activation_function = \"RELU6\", padding = \"SAME\", stride_h = 1 : i32, stride_w = 1 : i32} : (tensor<1x80x80x128xf32>, tensor<128x3x3x128xf32>, tensor<128xf32>) -> tensor<1x80x80x128xf32>\r\n  %41 = \"tfl.conv_2d\"(%40, %cst_149, %cst_238) {dilation_h_factor = 1 : i32, dilation_w_factor = 1 : i32, fused_activation_function = \"NONE\", padding = \"SAME\", stride_h = 1 : i32, stride_w = 1 : i32} : (tensor<1x80x80x128xf32>, tensor<512x1x1x128xf32>, tensor<512xf32>) -> tensor<1x80x80x512xf32>\r\n  %42 = \"tfl.add\"(%38, %41) {fused_activation_function = \"RELU6\"} : (tensor<1x80x80x512xf32>, tensor<1x80x80x512xf32>) -> tensor<1x80x80x512xf32>\r\n  %43 = \"tfl.conv_2d\"(%42, %cst_150, %cst_239) {dilation_h_factor = 1 : i32, dilation_w_factor = 1 : i32, fused_activation_function = \"NONE\", padding = \"SAME\", stride_h = 1 : i32, stride_w = 1 : i32} : (tensor<1x80x80x512xf32>, tensor<256x1x1x512xf32>, tensor<256xf32>) -> tensor<1x80x80x256xf32>\r\n  %44 = \"tfl.conv_2d\"(%42, %cst_151, %cst_240) {dilation_h_factor = 1 : i32, dilation_w_factor = 1 : i32, fused_activation_function = \"NONE\", padding = \"SAME\", stride_h = 2 : i32, stride_w = 2 : i32} : (tensor<1x80x80x512xf32>, tensor<1024x1x1x512xf32>, tensor<1024xf32>) -> tensor<1x40x40x1024xf32>\r\n  %45 = \"tfl.conv_2d\"(%42, %cst_152, %cst_64) {dilation_h_factor = 1 : i32, dilation_w_factor = 1 : i32, fused_activation_function = \"RELU6\", padding = \"SAME\", stride_h = 2 : i32, stride_w = 2 : i32} : (tensor<1x80x80x512xf32>, tensor<256x1x1x512xf32>, tensor<256xf32>) -> tensor<1x40x40x256xf32>\r\n  %46 = \"tfl.conv_2d\"(%45, %cst_153, %cst_65) {dilation_h_factor = 1 : i32, dilation_w_factor = 1 : i32, fused_activation_function = \"RELU6\", padding = \"SAME\", stride_h = 1 : i32, stride_w = 1 : i32} : (tensor<1x40x40x256xf32>, tensor<256x3x3x256xf32>, tensor<256xf32>) -> tensor<1x40x40x256xf32>\r\n  %47 = \"tfl.conv_2d\"(%46, %cst_154, %cst_241) {dilation_h_factor = 1 : i32, dilation_w_factor = 1 : i32, fused_activation_function = \"NONE\", padding = \"SAME\", stride_h = 1 : i32, stride_w = 1 : i32} : (tensor<1x40x40x256xf32>, tensor<1024x1x1x256xf32>, tensor<1024xf32>) -> tensor<1x40x40x1024xf32>\r\n  %48 = \"tfl.add\"(%44, %47) {fused_activation_function = \"RELU6\"} : (tensor<1x40x40x1024xf32>, tensor<1x40x40x1024xf32>) -> tensor<1x40x40x1024xf32>\r\n  %49 = \"tfl.conv_2d\"(%48, %cst_155, %cst_66) {dilation_h_factor = 1 : i32, dilation_w_factor = 1 : i32, fused_activation_function = \"RELU6\", padding = \"SAME\", stride_h = 1 : i32, stride_w = 1 : i32} : (tensor<1x40x40x1024xf32>, tensor<256x1x1x1024xf32>, tensor<256xf32>) -> tensor<1x40x40x256xf32>\r\n  %50 = \"tfl.conv_2d\"(%49, %cst_156, %cst_67) {dilation_h_factor = 1 : i32, dilation_w_factor = 1 : i32, fused_activation_function = \"RELU6\", padding = \"SAME\", stride_h = 1 : i32, stride_w = 1 : i32} : (tensor<1x40x40x256xf32>, tensor<256x3x3x256xf32>, tensor<256xf32>) -> tensor<1x40x40x256xf32>\r\n  %51 = \"tfl.conv_2d\"(%50, %cst_157, %cst_242) {dilation_h_factor = 1 : i32, dilation_w_factor = 1 : i32, fused_activation_function = \"NONE\", padding = \"SAME\", stride_h = 1 : i32, stride_w = 1 : i32} : (tensor<1x40x40x256xf32>, tensor<1024x1x1x256xf32>, tensor<1024xf32>) -> tensor<1x40x40x1024xf32>\r\n  %52 = \"tfl.add\"(%48, %51) {fused_activation_function = \"RELU6\"} : (tensor<1x40x40x1024xf32>, tensor<1x40x40x1024xf32>) -> tensor<1x40x40x1024xf32>\r\n  %53 = \"tfl.conv_2d\"(%52, %cst_158, %cst_68) {dilation_h_factor = 1 : i32, dilation_w_factor = 1 : i32, fused_activation_function = \"RELU6\", padding = \"SAME\", stride_h = 1 : i32, stride_w = 1 : i32} : (tensor<1x40x40x1024xf32>, tensor<256x1x1x1024xf32>, tensor<256xf32>) -> tensor<1x40x40x256xf32>\r\n  %54 = \"tfl.conv_2d\"(%53, %cst_159, %cst_69) {dilation_h_factor = 1 : i32, dilation_w_factor = 1 : i32, fused_activation_function = \"RELU6\", padding = \"SAME\", stride_h = 1 : i32, stride_w = 1 : i32} : (tensor<1x40x40x256xf32>, tensor<256x3x3x256xf32>, tensor<256xf32>) -> tensor<1x40x40x256xf32>\r\n  %55 = \"tfl.conv_2d\"(%54, %cst_160, %cst_243) {dilation_h_factor = 1 : i32, dilation_w_factor = 1 : i32, fused_activation_function = \"NONE\", padding = \"SAME\", stride_h = 1 : i32, stride_w = 1 : i32} : (tensor<1x40x40x256xf32>, tensor<1024x1x1x256xf32>, tensor<1024xf32>) -> tensor<1x40x40x1024xf32>\r\n  %56 = \"tfl.add\"(%52, %55) {fused_activation_function = \"RELU6\"} : (tensor<1x40x40x1024xf32>, tensor<1x40x40x1024xf32>) -> tensor<1x40x40x1024xf32>\r\n  %57 = \"tfl.conv_2d\"(%56, %cst_161, %cst_70) {dilation_h_factor = 1 : i32, dilation_w_factor = 1 : i32, fused_activation_function = \"RELU6\", padding = \"SAME\", stride_h = 1 : i32, stride_w = 1 : i32} : (tensor<1x40x40x1024xf32>, tensor<256x1x1x1024xf32>, tensor<256xf32>) -> tensor<1x40x40x256xf32>\r\n  %58 = \"tfl.conv_2d\"(%57, %cst_162, %cst_71) {dilation_h_factor = 1 : i32, dilation_w_factor = 1 : i32, fused_activation_function = \"RELU6\", padding = \"SAME\", stride_h = 1 : i32, stride_w = 1 : i32} : (tensor<1x40x40x256xf32>, tensor<256x3x3x256xf32>, tensor<256xf32>) -> tensor<1x40x40x256xf32>\r\n  %59 = \"tfl.conv_2d\"(%58, %cst_163, %cst_244) {dilation_h_factor = 1 : i32, dilation_w_factor = 1 : i32, fused_activation_function = \"NONE\", padding = \"SAME\", stride_h = 1 : i32, stride_w = 1 : i32} : (tensor<1x40x40x256xf32>, tensor<1024x1x1x256xf32>, tensor<1024xf32>) -> tensor<1x40x40x1024xf32>\r\n  %60 = \"tfl.add\"(%56, %59) {fused_activation_function = \"RELU6\"} : (tensor<1x40x40x1024xf32>, tensor<1x40x40x1024xf32>) -> tensor<1x40x40x1024xf32>\r\n  %61 = \"tfl.conv_2d\"(%60, %cst_164, %cst_72) {dilation_h_factor = 1 : i32, dilation_w_factor = 1 : i32, fused_activation_function = \"RELU6\", padding = \"SAME\", stride_h = 1 : i32, stride_w = 1 : i32} : (tensor<1x40x40x1024xf32>, tensor<256x1x1x1024xf32>, tensor<256xf32>) -> tensor<1x40x40x256xf32>\r\n  %62 = \"tfl.conv_2d\"(%61, %cst_165, %cst_73) {dilation_h_factor = 1 : i32, dilation_w_factor = 1 : i32, fused_activation_function = \"RELU6\", padding = \"SAME\", stride_h = 1 : i32, stride_w = 1 : i32} : (tensor<1x40x40x256xf32>, tensor<256x3x3x256xf32>, tensor<256xf32>) -> tensor<1x40x40x256xf32>\r\n  %63 = \"tfl.conv_2d\"(%62, %cst_166, %cst_245) {dilation_h_factor = 1 : i32, dilation_w_factor = 1 : i32, fused_activation_function = \"NONE\", padding = \"SAME\", stride_h = 1 : i32, stride_w = 1 : i32} : (tensor<1x40x40x256xf32>, tensor<1024x1x1x256xf32>, tensor<1024xf32>) -> tensor<1x40x40x1024xf32>\r\n  %64 = \"tfl.add\"(%60, %63) {fused_activation_function = \"RELU6\"} : (tensor<1x40x40x1024xf32>, tensor<1x40x40x1024xf32>) -> tensor<1x40x40x1024xf32>\r\n  %65 = \"tfl.conv_2d\"(%64, %cst_167, %cst_74) {dilation_h_factor = 1 : i32, dilation_w_factor = 1 : i32, fused_activation_function = \"RELU6\", padding = \"SAME\", stride_h = 1 : i32, stride_w = 1 : i32} : (tensor<1x40x40x1024xf32>, tensor<256x1x1x1024xf32>, tensor<256xf32>) -> tensor<1x40x40x256xf32>\r\n  %66 = \"tfl.conv_2d\"(%65, %cst_168, %cst_75) {dilation_h_factor = 1 : i32, dilation_w_factor = 1 : i32, fused_activation_function = \"RELU6\", padding = \"SAME\", stride_h = 1 : i32, stride_w = 1 : i32} : (tensor<1x40x40x256xf32>, tensor<256x3x3x256xf32>, tensor<256xf32>) -> tensor<1x40x40x256xf32>\r\n  %67 = \"tfl.conv_2d\"(%66, %cst_169, %cst_246) {dilation_h_factor = 1 : i32, dilation_w_factor = 1 : i32, fused_activation_function = \"NONE\", padding = \"SAME\", stride_h = 1 : i32, stride_w = 1 : i32} : (tensor<1x40x40x256xf32>, tensor<1024x1x1x256xf32>, tensor<1024xf32>) -> tensor<1x40x40x1024xf32>\r\n  %68 = \"tfl.add\"(%64, %67) {fused_activation_function = \"RELU6\"} : (tensor<1x40x40x1024xf32>, tensor<1x40x40x1024xf32>) -> tensor<1x40x40x1024xf32>\r\n  %69 = \"tfl.conv_2d\"(%68, %cst_170, %cst_247) {dilation_h_factor = 1 : i32, dilation_w_factor = 1 : i32, fused_activation_function = \"NONE\", padding = \"SAME\", stride_h = 1 : i32, stride_w = 1 : i32} : (tensor<1x40x40x1024xf32>, tensor<256x1x1x1024xf32>, tensor<256xf32>) -> tensor<1x40x40x256xf32>\r\n  %70 = \"tfl.conv_2d\"(%68, %cst_171, %cst_248) {dilation_h_factor = 1 : i32, dilation_w_factor = 1 : i32, fused_activation_function = \"NONE\", padding = \"SAME\", stride_h = 2 : i32, stride_w = 2 : i32} : (tensor<1x40x40x1024xf32>, tensor<2048x1x1x1024xf32>, tensor<2048xf32>) -> tensor<1x20x20x2048xf32>\r\n  %71 = \"tfl.conv_2d\"(%68, %cst_172, %cst_76) {dilation_h_factor = 1 : i32, dilation_w_factor = 1 : i32, fused_activation_function = \"RELU6\", padding = \"SAME\", stride_h = 2 : i32, stride_w = 2 : i32} : (tensor<1x40x40x1024xf32>, tensor<512x1x1x1024xf32>, tensor<512xf32>) -> tensor<1x20x20x512xf32>\r\n  %72 = \"tfl.conv_2d\"(%71, %cst_173, %cst_77) {dilation_h_factor = 1 : i32, dilation_w_factor = 1 : i32, fused_activation_function = \"RELU6\", padding = \"SAME\", stride_h = 1 : i32, stride_w = 1 : i32} : (tensor<1x20x20x512xf32>, tensor<512x3x3x512xf32>, tensor<512xf32>) -> tensor<1x20x20x512xf32>\r\n  %73 = \"tfl.conv_2d\"(%72, %cst_174, %cst_249) {dilation_h_factor = 1 : i32, dilation_w_factor = 1 : i32, fused_activation_function = \"NONE\", padding = \"SAME\", stride_h = 1 : i32, stride_w = 1 : i32} : (tensor<1x20x20x512xf32>, tensor<2048x1x1x512xf32>, tensor<2048xf32>) -> tensor<1x20x20x2048xf32>\r\n  %74 = \"tfl.add\"(%70, %73) {fused_activation_function = \"RELU6\"} : (tensor<1x20x20x2048xf32>, tensor<1x20x20x2048xf32>) -> tensor<1x20x20x2048xf32>\r\n  %75 = \"tfl.conv_2d\"(%74, %cst_175, %cst_78) {dilation_h_factor = 1 : i32, dilation_w_factor = 1 : i32, fused_activation_function = \"RELU6\", padding = \"SAME\", stride_h = 1 : i32, stride_w = 1 : i32} : (tensor<1x20x20x2048xf32>, tensor<512x1x1x2048xf32>, tensor<512xf32>) -> tensor<1x20x20x512xf32>\r\n  %76 = \"tfl.conv_2d\"(%75, %cst_176, %cst_79) {dilation_h_factor = 1 : i32, dilation_w_factor = 1 : i32, fused_activation_function = \"RELU6\", padding = \"SAME\", stride_h = 1 : i32, stride_w = 1 : i32} : (tensor<1x20x20x512xf32>, tensor<512x3x3x512xf32>, tensor<512xf32>) -> tensor<1x20x20x512xf32>\r\n  %77 = \"tfl.conv_2d\"(%76, %cst_177, %cst_250) {dilation_h_factor = 1 : i32, dilation_w_factor = 1 : i32, fused_activation_function = \"NONE\", padding = \"SAME\", stride_h = 1 : i32, stride_w = 1 : i32} : (tensor<1x20x20x512xf32>, tensor<2048x1x1x512xf32>, tensor<2048xf32>) -> tensor<1x20x20x2048xf32>\r\n  %78 = \"tfl.add\"(%74, %77) {fused_activation_function = \"RELU6\"} : (tensor<1x20x20x2048xf32>, tensor<1x20x20x2048xf32>) -> tensor<1x20x20x2048xf32>\r\n  %79 = \"tfl.conv_2d\"(%78, %cst_178, %cst_80) {dilation_h_factor = 1 : i32, dilation_w_factor = 1 : i32, fused_activation_function = \"RELU6\", padding = \"SAME\", stride_h = 1 : i32, stride_w = 1 : i32} : (tensor<1x20x20x2048xf32>, tensor<512x1x1x2048xf32>, tensor<512xf32>) -> tensor<1x20x20x512xf32>\r\n  %80 = \"tfl.conv_2d\"(%79, %cst_179, %cst_81) {dilation_h_factor = 1 : i32, dilation_w_factor = 1 : i32, fused_activation_function = \"RELU6\", padding = \"SAME\", stride_h = 1 : i32, stride_w = 1 : i32} : (tensor<1x20x20x512xf32>, tensor<512x3x3x512xf32>, tensor<512xf32>) -> tensor<1x20x20x512xf32>\r\n  %81 = \"tfl.conv_2d\"(%80, %cst_180, %cst_251) {dilation_h_factor = 1 : i32, dilation_w_factor = 1 : i32, fused_activation_function = \"NONE\", padding = \"SAME\", stride_h = 1 : i32, stride_w = 1 : i32} : (tensor<1x20x20x512xf32>, tensor<2048x1x1x512xf32>, tensor<2048xf32>) -> tensor<1x20x20x2048xf32>\r\n  %82 = \"tfl.add\"(%78, %81) {fused_activation_function = \"RELU6\"} : (tensor<1x20x20x2048xf32>, tensor<1x20x20x2048xf32>) -> tensor<1x20x20x2048xf32>\r\n  %83 = \"tfl.conv_2d\"(%82, %cst_181, %cst_252) {dilation_h_factor = 1 : i32, dilation_w_factor = 1 : i32, fused_activation_function = \"NONE\", padding = \"SAME\", stride_h = 1 : i32, stride_w = 1 : i32} : (tensor<1x20x20x2048xf32>, tensor<256x1x1x2048xf32>, tensor<256xf32>) -> tensor<1x20x20x256xf32>\r\n  %84 = \"tfl.pack\"(%83, %83) {axis = 3 : i32, values_count = 2 : i32} : (tensor<1x20x20x256xf32>, tensor<1x20x20x256xf32>) -> tensor<1x20x20x2x256xf32>\r\n  %85 = \"tfl.pack\"(%84, %84) {axis = 2 : i32, values_count = 2 : i32} : (tensor<1x20x20x2x256xf32>, tensor<1x20x20x2x256xf32>) -> tensor<1x20x2x20x2x256xf32>\r\n  %86 = \"tfl.reshape\"(%85, %cst_35) : (tensor<1x20x2x20x2x256xf32>, tensor<4xi32>) -> tensor<1x40x40x256xf32>\r\n  %87 = \"tfl.add\"(%86, %69) {fused_activation_function = \"NONE\"} : (tensor<1x40x40x256xf32>, tensor<1x40x40x256xf32>) -> tensor<1x40x40x256xf32>\r\n  %88 = \"tfl.conv_2d\"(%87, %cst_182, %cst_82) {dilation_h_factor = 1 : i32, dilation_w_factor = 1 : i32, fused_activation_function = \"RELU6\", padding = \"SAME\", stride_h = 1 : i32, stride_w = 1 : i32} : (tensor<1x40x40x256xf32>, tensor<256x3x3x256xf32>, tensor<256xf32>) -> tensor<1x40x40x256xf32>\r\n  %89 = \"tfl.pack\"(%88, %88) {axis = 3 : i32, values_count = 2 : i32} : (tensor<1x40x40x256xf32>, tensor<1x40x40x256xf32>) -> tensor<1x40x40x2x256xf32>\r\n  %90 = \"tfl.pack\"(%89, %89) {axis = 2 : i32, values_count = 2 : i32} : (tensor<1x40x40x2x256xf32>, tensor<1x40x40x2x256xf32>) -> tensor<1x40x2x40x2x256xf32>\r\n  %91 = \"tfl.reshape\"(%90, %cst_36) : (tensor<1x40x2x40x2x256xf32>, tensor<4xi32>) -> tensor<1x80x80x256xf32>\r\n  %92 = \"tfl.add\"(%91, %43) {fused_activation_function = \"NONE\"} : (tensor<1x80x80x256xf32>, tensor<1x80x80x256xf32>) -> tensor<1x80x80x256xf32>\r\n  %93 = \"tfl.conv_2d\"(%92, %cst_183, %cst_83) {dilation_h_factor = 1 : i32, dilation_w_factor = 1 : i32, fused_activation_function = \"RELU6\", padding = \"SAME\", stride_h = 1 : i32, stride_w = 1 : i32} : (tensor<1x80x80x256xf32>, tensor<256x3x3x256xf32>, tensor<256xf32>) -> tensor<1x80x80x256xf32>\r\n  %94 = \"tfl.conv_2d\"(%83, %cst_184, %cst_84) {dilation_h_factor = 1 : i32, dilation_w_factor = 1 : i32, fused_activation_function = \"RELU6\", padding = \"SAME\", stride_h = 2 : i32, stride_w = 2 : i32} : (tensor<1x20x20x256xf32>, tensor<256x3x3x256xf32>, tensor<256xf32>) -> tensor<1x10x10x256xf32>\r\n  %95 = \"tfl.conv_2d\"(%94, %cst_185, %cst_85) {dilation_h_factor = 1 : i32, dilation_w_factor = 1 : i32, fused_activation_function = \"RELU6\", padding = \"SAME\", stride_h = 2 : i32, stride_w = 2 : i32} : (tensor<1x10x10x256xf32>, tensor<256x3x3x256xf32>, tensor<256xf32>) -> tensor<1x5x5x256xf32>\r\n  %96 = \"tfl.conv_2d\"(%93, %cst_186, %cst_86) {dilation_h_factor = 1 : i32, dilation_w_factor = 1 : i32, fused_activation_function = \"RELU6\", padding = \"SAME\", stride_h = 1 : i32, stride_w = 1 : i32} : (tensor<1x80x80x256xf32>, tensor<256x3x3x256xf32>, tensor<256xf32>) -> tensor<1x80x80x256xf32>\r\n  %97 = \"tfl.conv_2d\"(%88, %cst_187, %cst_87) {dilation_h_factor = 1 : i32, dilation_w_factor = 1 : i32, fused_activation_function = \"RELU6\", padding = \"SAME\", stride_h = 1 : i32, stride_w = 1 : i32} : (tensor<1x40x40x256xf32>, tensor<256x3x3x256xf32>, tensor<256xf32>) -> tensor<1x40x40x256xf32>\r\n  %98 = \"tfl.conv_2d\"(%83, %cst_188, %cst_88) {dilation_h_factor = 1 : i32, dilation_w_factor = 1 : i32, fused_activation_function = \"RELU6\", padding = \"SAME\", stride_h = 1 : i32, stride_w = 1 : i32} : (tensor<1x20x20x256xf32>, tensor<256x3x3x256xf32>, tensor<256xf32>) -> tensor<1x20x20x256xf32>\r\n  %99 = \"tfl.conv_2d\"(%94, %cst_189, %cst_89) {dilation_h_factor = 1 : i32, dilation_w_factor = 1 : i32, fused_activation_function = \"RELU6\", padding = \"SAME\", stride_h = 1 : i32, stride_w = 1 : i32} : (tensor<1x10x10x256xf32>, tensor<256x3x3x256xf32>, tensor<256xf32>) -> tensor<1x10x10x256xf32>\r\n  %100 = \"tfl.conv_2d\"(%95, %cst_190, %cst_90) {dilation_h_factor = 1 : i32, dilation_w_factor = 1 : i32, fused_activation_function = \"RELU6\", padding = \"SAME\", stride_h = 1 : i32, stride_w = 1 : i32} : (tensor<1x5x5x256xf32>, tensor<256x3x3x256xf32>, tensor<256xf32>) -> tensor<1x5x5x256xf32>\r\n  %101 = \"tfl.conv_2d\"(%96, %cst_191, %cst_91) {dilation_h_factor = 1 : i32, dilation_w_factor = 1 : i32, fused_activation_function = \"RELU6\", padding = \"SAME\", stride_h = 1 : i32, stride_w = 1 : i32} : (tensor<1x80x80x256xf32>, tensor<256x3x3x256xf32>, tensor<256xf32>) -> tensor<1x80x80x256xf32>\r\n  %102 = \"tfl.conv_2d\"(%97, %cst_192, %cst_92) {dilation_h_factor = 1 : i32, dilation_w_factor = 1 : i32, fused_activation_function = \"RELU6\", padding = \"SAME\", stride_h = 1 : i32, stride_w = 1 : i32} : (tensor<1x40x40x256xf32>, tensor<256x3x3x256xf32>, tensor<256xf32>) -> tensor<1x40x40x256xf32>\r\n  %103 = \"tfl.conv_2d\"(%98, %cst_193, %cst_93) {dilation_h_factor = 1 : i32, dilation_w_factor = 1 : i32, fused_activation_function = \"RELU6\", padding = \"SAME\", stride_h = 1 : i32, stride_w = 1 : i32} : (tensor<1x20x20x256xf32>, tensor<256x3x3x256xf32>, tensor<256xf32>) -> tensor<1x20x20x256xf32>\r\n  %104 = \"tfl.conv_2d\"(%99, %cst_194, %cst_94) {dilation_h_factor = 1 : i32, dilation_w_factor = 1 : i32, fused_activation_function = \"RELU6\", padding = \"SAME\", stride_h = 1 : i32, stride_w = 1 : i32} : (tensor<1x10x10x256xf32>, tensor<256x3x3x256xf32>, tensor<256xf32>) -> tensor<1x10x10x256xf32>\r\n  %105 = \"tfl.conv_2d\"(%100, %cst_195, %cst_95) {dilation_h_factor = 1 : i32, dilation_w_factor = 1 : i32, fused_activation_function = \"RELU6\", padding = \"SAME\", stride_h = 1 : i32, stride_w = 1 : i32} : (tensor<1x5x5x256xf32>, tensor<256x3x3x256xf32>, tensor<256xf32>) -> tensor<1x5x5x256xf32>\r\n  %106 = \"tfl.conv_2d\"(%101, %cst_196, %cst_96) {dilation_h_factor = 1 : i32, dilation_w_factor = 1 : i32, fused_activation_function = \"RELU6\", padding = \"SAME\", stride_h = 1 : i32, stride_w = 1 : i32} : (tensor<1x80x80x256xf32>, tensor<256x3x3x256xf32>, tensor<256xf32>) -> tensor<1x80x80x256xf32>\r\n  %107 = \"tfl.conv_2d\"(%102, %cst_197, %cst_97) {dilation_h_factor = 1 : i32, dilation_w_factor = 1 : i32, fused_activation_function = \"RELU6\", padding = \"SAME\", stride_h = 1 : i32, stride_w = 1 : i32} : (tensor<1x40x40x256xf32>, tensor<256x3x3x256xf32>, tensor<256xf32>) -> tensor<1x40x40x256xf32>\r\n  %108 = \"tfl.conv_2d\"(%103, %cst_198, %cst_98) {dilation_h_factor = 1 : i32, dilation_w_factor = 1 : i32, fused_activation_function = \"RELU6\", padding = \"SAME\", stride_h = 1 : i32, stride_w = 1 : i32} : (tensor<1x20x20x256xf32>, tensor<256x3x3x256xf32>, tensor<256xf32>) -> tensor<1x20x20x256xf32>\r\n  %109 = \"tfl.conv_2d\"(%104, %cst_199, %cst_99) {dilation_h_factor = 1 : i32, dilation_w_factor = 1 : i32, fused_activation_function = \"RELU6\", padding = \"SAME\", stride_h = 1 : i32, stride_w = 1 : i32} : (tensor<1x10x10x256xf32>, tensor<256x3x3x256xf32>, tensor<256xf32>) -> tensor<1x10x10x256xf32>\r\n  %110 = \"tfl.conv_2d\"(%105, %cst_200, %cst_100) {dilation_h_factor = 1 : i32, dilation_w_factor = 1 : i32, fused_activation_function = \"RELU6\", padding = \"SAME\", stride_h = 1 : i32, stride_w = 1 : i32} : (tensor<1x5x5x256xf32>, tensor<256x3x3x256xf32>, tensor<256xf32>) -> tensor<1x5x5x256xf32>\r\n  %111 = \"tfl.conv_2d\"(%106, %cst_201, %cst_101) {dilation_h_factor = 1 : i32, dilation_w_factor = 1 : i32, fused_activation_function = \"RELU6\", padding = \"SAME\", stride_h = 1 : i32, stride_w = 1 : i32} : (tensor<1x80x80x256xf32>, tensor<256x3x3x256xf32>, tensor<256xf32>) -> tensor<1x80x80x256xf32>\r\n  %112 = \"tfl.conv_2d\"(%107, %cst_202, %cst_102) {dilation_h_factor = 1 : i32, dilation_w_factor = 1 : i32, fused_activation_function = \"RELU6\", padding = \"SAME\", stride_h = 1 : i32, stride_w = 1 : i32} : (tensor<1x40x40x256xf32>, tensor<256x3x3x256xf32>, tensor<256xf32>) -> tensor<1x40x40x256xf32>\r\n  %113 = \"tfl.conv_2d\"(%108, %cst_203, %cst_103) {dilation_h_factor = 1 : i32, dilation_w_factor = 1 : i32, fused_activation_function = \"RELU6\", padding = \"SAME\", stride_h = 1 : i32, stride_w = 1 : i32} : (tensor<1x20x20x256xf32>, tensor<256x3x3x256xf32>, tensor<256xf32>) -> tensor<1x20x20x256xf32>\r\n  %114 = \"tfl.conv_2d\"(%109, %cst_204, %cst_104) {dilation_h_factor = 1 : i32, dilation_w_factor = 1 : i32, fused_activation_function = \"RELU6\", padding = \"SAME\", stride_h = 1 : i32, stride_w = 1 : i32} : (tensor<1x10x10x256xf32>, tensor<256x3x3x256xf32>, tensor<256xf32>) -> tensor<1x10x10x256xf32>\r\n  %115 = \"tfl.conv_2d\"(%110, %cst_205, %cst_105) {dilation_h_factor = 1 : i32, dilation_w_factor = 1 : i32, fused_activation_function = \"RELU6\", padding = \"SAME\", stride_h = 1 : i32, stride_w = 1 : i32} : (tensor<1x5x5x256xf32>, tensor<256x3x3x256xf32>, tensor<256xf32>) -> tensor<1x5x5x256xf32>\r\n  %116 = \"tfl.conv_2d\"(%93, %cst_206, %cst_106) {dilation_h_factor = 1 : i32, dilation_w_factor = 1 : i32, fused_activation_function = \"RELU6\", padding = \"SAME\", stride_h = 1 : i32, stride_w = 1 : i32} : (tensor<1x80x80x256xf32>, tensor<256x3x3x256xf32>, tensor<256xf32>) -> tensor<1x80x80x256xf32>\r\n  %117 = \"tfl.conv_2d\"(%88, %cst_207, %cst_107) {dilation_h_factor = 1 : i32, dilation_w_factor = 1 : i32, fused_activation_function = \"RELU6\", padding = \"SAME\", stride_h = 1 : i32, stride_w = 1 : i32} : (tensor<1x40x40x256xf32>, tensor<256x3x3x256xf32>, tensor<256xf32>) -> tensor<1x40x40x256xf32>\r\n  %118 = \"tfl.conv_2d\"(%83, %cst_208, %cst_108) {dilation_h_factor = 1 : i32, dilation_w_factor = 1 : i32, fused_activation_function = \"RELU6\", padding = \"SAME\", stride_h = 1 : i32, stride_w = 1 : i32} : (tensor<1x20x20x256xf32>, tensor<256x3x3x256xf32>, tensor<256xf32>) -> tensor<1x20x20x256xf32>\r\n  %119 = \"tfl.conv_2d\"(%94, %cst_209, %cst_109) {dilation_h_factor = 1 : i32, dilation_w_factor = 1 : i32, fused_activation_function = \"RELU6\", padding = \"SAME\", stride_h = 1 : i32, stride_w = 1 : i32} : (tensor<1x10x10x256xf32>, tensor<256x3x3x256xf32>, tensor<256xf32>) -> tensor<1x10x10x256xf32>\r\n  %120 = \"tfl.conv_2d\"(%95, %cst_210, %cst_110) {dilation_h_factor = 1 : i32, dilation_w_factor = 1 : i32, fused_activation_function = \"RELU6\", padding = \"SAME\", stride_h = 1 : i32, stride_w = 1 : i32} : (tensor<1x5x5x256xf32>, tensor<256x3x3x256xf32>, tensor<256xf32>) -> tensor<1x5x5x256xf32>\r\n  %121 = \"tfl.conv_2d\"(%116, %cst_211, %cst_111) {dilation_h_factor = 1 : i32, dilation_w_factor = 1 : i32, fused_activation_function = \"RELU6\", padding = \"SAME\", stride_h = 1 : i32, stride_w = 1 : i32} : (tensor<1x80x80x256xf32>, tensor<256x3x3x256xf32>, tensor<256xf32>) -> tensor<1x80x80x256xf32>\r\n  %122 = \"tfl.conv_2d\"(%117, %cst_212, %cst_112) {dilation_h_factor = 1 : i32, dilation_w_factor = 1 : i32, fused_activation_function = \"RELU6\", padding = \"SAME\", stride_h = 1 : i32, stride_w = 1 : i32} : (tensor<1x40x40x256xf32>, tensor<256x3x3x256xf32>, tensor<256xf32>) -> tensor<1x40x40x256xf32>\r\n  %123 = \"tfl.conv_2d\"(%118, %cst_213, %cst_113) {dilation_h_factor = 1 : i32, dilation_w_factor = 1 : i32, fused_activation_function = \"RELU6\", padding = \"SAME\", stride_h = 1 : i32, stride_w = 1 : i32} : (tensor<1x20x20x256xf32>, tensor<256x3x3x256xf32>, tensor<256xf32>) -> tensor<1x20x20x256xf32>\r\n  %124 = \"tfl.conv_2d\"(%119, %cst_214, %cst_114) {dilation_h_factor = 1 : i32, dilation_w_factor = 1 : i32, fused_activation_function = \"RELU6\", padding = \"SAME\", stride_h = 1 : i32, stride_w = 1 : i32} : (tensor<1x10x10x256xf32>, tensor<256x3x3x256xf32>, tensor<256xf32>) -> tensor<1x10x10x256xf32>\r\n  %125 = \"tfl.conv_2d\"(%120, %cst_215, %cst_115) {dilation_h_factor = 1 : i32, dilation_w_factor = 1 : i32, fused_activation_function = \"RELU6\", padding = \"SAME\", stride_h = 1 : i32, stride_w = 1 : i32} : (tensor<1x5x5x256xf32>, tensor<256x3x3x256xf32>, tensor<256xf32>) -> tensor<1x5x5x256xf32>\r\n  %126 = \"tfl.conv_2d\"(%121, %cst_216, %cst_116) {dilation_h_factor = 1 : i32, dilation_w_factor = 1 : i32, fused_activation_function = \"RELU6\", padding = \"SAME\", stride_h = 1 : i32, stride_w = 1 : i32} : (tensor<1x80x80x256xf32>, tensor<256x3x3x256xf32>, tensor<256xf32>) -> tensor<1x80x80x256xf32>\r\n  %127 = \"tfl.conv_2d\"(%122, %cst_217, %cst_117) {dilation_h_factor = 1 : i32, dilation_w_factor = 1 : i32, fused_activation_function = \"RELU6\", padding = \"SAME\", stride_h = 1 : i32, stride_w = 1 : i32} : (tensor<1x40x40x256xf32>, tensor<256x3x3x256xf32>, tensor<256xf32>) -> tensor<1x40x40x256xf32>\r\n  %128 = \"tfl.conv_2d\"(%123, %cst_218, %cst_118) {dilation_h_factor = 1 : i32, dilation_w_factor = 1 : i32, fused_activation_function = \"RELU6\", padding = \"SAME\", stride_h = 1 : i32, stride_w = 1 : i32} : (tensor<1x20x20x256xf32>, tensor<256x3x3x256xf32>, tensor<256xf32>) -> tensor<1x20x20x256xf32>\r\n  %129 = \"tfl.conv_2d\"(%124, %cst_219, %cst_119) {dilation_h_factor = 1 : i32, dilation_w_factor = 1 : i32, fused_activation_function = \"RELU6\", padding = \"SAME\", stride_h = 1 : i32, stride_w = 1 : i32} : (tensor<1x10x10x256xf32>, tensor<256x3x3x256xf32>, tensor<256xf32>) -> tensor<1x10x10x256xf32>\r\n  %130 = \"tfl.conv_2d\"(%125, %cst_220, %cst_120) {dilation_h_factor = 1 : i32, dilation_w_factor = 1 : i32, fused_activation_function = \"RELU6\", padding = \"SAME\", stride_h = 1 : i32, stride_w = 1 : i32} : (tensor<1x5x5x256xf32>, tensor<256x3x3x256xf32>, tensor<256xf32>) -> tensor<1x5x5x256xf32>\r\n  %131 = \"tfl.conv_2d\"(%126, %cst_221, %cst_121) {dilation_h_factor = 1 : i32, dilation_w_factor = 1 : i32, fused_activation_function = \"RELU6\", padding = \"SAME\", stride_h = 1 : i32, stride_w = 1 : i32} : (tensor<1x80x80x256xf32>, tensor<256x3x3x256xf32>, tensor<256xf32>) -> tensor<1x80x80x256xf32>\r\n  %132 = \"tfl.conv_2d\"(%127, %cst_222, %cst_122) {dilation_h_factor = 1 : i32, dilation_w_factor = 1 : i32, fused_activation_function = \"RELU6\", padding = \"SAME\", stride_h = 1 : i32, stride_w = 1 : i32} : (tensor<1x40x40x256xf32>, tensor<256x3x3x256xf32>, tensor<256xf32>) -> tensor<1x40x40x256xf32>\r\n  %133 = \"tfl.conv_2d\"(%128, %cst_223, %cst_123) {dilation_h_factor = 1 : i32, dilation_w_factor = 1 : i32, fused_activation_function = \"RELU6\", padding = \"SAME\", stride_h = 1 : i32, stride_w = 1 : i32} : (tensor<1x20x20x256xf32>, tensor<256x3x3x256xf32>, tensor<256xf32>) -> tensor<1x20x20x256xf32>\r\n  %134 = \"tfl.conv_2d\"(%129, %cst_224, %cst_124) {dilation_h_factor = 1 : i32, dilation_w_factor = 1 : i32, fused_activation_function = \"RELU6\", padding = \"SAME\", stride_h = 1 : i32, stride_w = 1 : i32} : (tensor<1x10x10x256xf32>, tensor<256x3x3x256xf32>, tensor<256xf32>) -> tensor<1x10x10x256xf32>\r\n  %135 = \"tfl.conv_2d\"(%130, %cst_225, %cst_125) {dilation_h_factor = 1 : i32, dilation_w_factor = 1 : i32, fused_activation_function = \"RELU6\", padding = \"SAME\", stride_h = 1 : i32, stride_w = 1 : i32} : (tensor<1x5x5x256xf32>, tensor<256x3x3x256xf32>, tensor<256xf32>) -> tensor<1x5x5x256xf32>\r\n  %136 = \"tfl.conv_2d\"(%111, %cst_226, %cst_253) {dilation_h_factor = 1 : i32, dilation_w_factor = 1 : i32, fused_activation_function = \"NONE\", padding = \"SAME\", stride_h = 1 : i32, stride_w = 1 : i32} : (tensor<1x80x80x256xf32>, tensor<40x3x3x256xf32>, tensor<40xf32>) -> tensor<1x80x80x40xf32>\r\n  %137 = \"tfl.reshape\"(%136, %cst_38) : (tensor<1x80x80x40xf32>, tensor<3xi32>) -> tensor<1x64000x4xf32>\r\n  %138 = \"tfl.conv_2d\"(%112, %cst_226, %cst_253) {dilation_h_factor = 1 : i32, dilation_w_factor = 1 : i32, fused_activation_function = \"NONE\", padding = \"SAME\", stride_h = 1 : i32, stride_w = 1 : i32} : (tensor<1x40x40x256xf32>, tensor<40x3x3x256xf32>, tensor<40xf32>) -> tensor<1x40x40x40xf32>\r\n  %139 = \"tfl.reshape\"(%138, %cst_38) : (tensor<1x40x40x40xf32>, tensor<3xi32>) -> tensor<1x16000x4xf32>\r\n  %140 = \"tfl.conv_2d\"(%113, %cst_226, %cst_253) {dilation_h_factor = 1 : i32, dilation_w_factor = 1 : i32, fused_activation_function = \"NONE\", padding = \"SAME\", stride_h = 1 : i32, stride_w = 1 : i32} : (tensor<1x20x20x256xf32>, tensor<40x3x3x256xf32>, tensor<40xf32>) -> tensor<1x20x20x40xf32>\r\n  %141 = \"tfl.reshape\"(%140, %cst_38) : (tensor<1x20x20x40xf32>, tensor<3xi32>) -> tensor<1x4000x4xf32>\r\n  %142 = \"tfl.conv_2d\"(%114, %cst_226, %cst_253) {dilation_h_factor = 1 : i32, dilation_w_factor = 1 : i32, fused_activation_function = \"NONE\", padding = \"SAME\", stride_h = 1 : i32, stride_w = 1 : i32} : (tensor<1x10x10x256xf32>, tensor<40x3x3x256xf32>, tensor<40xf32>) -> tensor<1x10x10x40xf32>\r\n  %143 = \"tfl.reshape\"(%142, %cst_38) : (tensor<1x10x10x40xf32>, tensor<3xi32>) -> tensor<1x1000x4xf32>\r\n  %144 = \"tfl.conv_2d\"(%115, %cst_226, %cst_253) {dilation_h_factor = 1 : i32, dilation_w_factor = 1 : i32, fused_activation_function = \"NONE\", padding = \"SAME\", stride_h = 1 : i32, stride_w = 1 : i32} : (tensor<1x5x5x256xf32>, tensor<40x3x3x256xf32>, tensor<40xf32>) -> tensor<1x5x5x40xf32>\r\n  %145 = \"tfl.reshape\"(%144, %cst_38) : (tensor<1x5x5x40xf32>, tensor<3xi32>) -> tensor<1x250x4xf32>\r\n  %146 = \"tfl.concatenation\"(%137, %139, %141, %143, %145) {axis = 1 : i32, fused_activation_function = \"NONE\"} : (tensor<1x64000x4xf32>, tensor<1x16000x4xf32>, tensor<1x4000x4xf32>, tensor<1x1000x4xf32>, tensor<1x250x4xf32>) -> tensor<1x85250x4xf32>\r\n  %147 = \"tfl.reshape\"(%146, %cst_29) : (tensor<1x85250x4xf32>, tensor<2xi32>) -> tensor<85250x4xf32>\r\n  %148 = \"tfl.transpose\"(%147, %cst_28) : (tensor<85250x4xf32>, tensor<2xi32>) -> tensor<4x85250xf32>\r\n  %149:4 = \"tfl.unpack\"(%148) {axis = 0 : i32, num = 4 : i32} : (tensor<4x85250xf32>) -> (tensor<85250xf32>, tensor<85250xf32>, tensor<85250xf32>, tensor<85250xf32>)\r\n  %150 = \"tfl.mul\"(%149#0, %cst_42) {fused_activation_function = \"NONE\"} : (tensor<85250xf32>, tensor<f32>) -> tensor<85250xf32>\r\n  %151 = \"tfl.mul\"(%150, %cst_45) {fused_activation_function = \"NONE\"} : (tensor<85250xf32>, tensor<85250xf32>) -> tensor<85250xf32>\r\n  %152 = \"tfl.add\"(%151, %cst_46) {fused_activation_function = \"NONE\"} : (tensor<85250xf32>, tensor<85250xf32>) -> tensor<85250xf32>\r\n  %153 = \"tfl.mul\"(%149#1, %cst_42) {fused_activation_function = \"NONE\"} : (tensor<85250xf32>, tensor<f32>) -> tensor<85250xf32>\r\n  %154 = \"tfl.mul\"(%153, %cst_47) {fused_activation_function = \"NONE\"} : (tensor<85250xf32>, tensor<85250xf32>) -> tensor<85250xf32>\r\n  %155 = \"tfl.add\"(%154, %cst_48) {fused_activation_function = \"NONE\"} : (tensor<85250xf32>, tensor<85250xf32>) -> tensor<85250xf32>\r\n  %156 = \"tfl.mul\"(%149#2, %cst_43) {fused_activation_function = \"NONE\"} : (tensor<85250xf32>, tensor<f32>) -> tensor<85250xf32>\r\n  %157 = \"tfl.exp\"(%156) : (tensor<85250xf32>) -> tensor<85250xf32>\r\n  %158 = \"tfl.mul\"(%157, %cst_45) {fused_activation_function = \"NONE\"} : (tensor<85250xf32>, tensor<85250xf32>) -> tensor<85250xf32>\r\n  %159 = \"tfl.mul\"(%158, %cst_44) {fused_activation_function = \"NONE\"} : (tensor<85250xf32>, tensor<f32>) -> tensor<85250xf32>\r\n  %160 = \"tfl.sub\"(%152, %159) {fused_activation_function = \"NONE\"} : (tensor<85250xf32>, tensor<85250xf32>) -> tensor<85250xf32>\r\n  %161 = \"tfl.add\"(%152, %159) {fused_activation_function = \"NONE\"} : (tensor<85250xf32>, tensor<85250xf32>) -> tensor<85250xf32>\r\n  %162 = \"tfl.mul\"(%149#3, %cst_43) {fused_activation_function = \"NONE\"} : (tensor<85250xf32>, tensor<f32>) -> tensor<85250xf32>\r\n  %163 = \"tfl.exp\"(%162) : (tensor<85250xf32>) -> tensor<85250xf32>\r\n  %164 = \"tfl.mul\"(%163, %cst_47) {fused_activation_function = \"NONE\"} : (tensor<85250xf32>, tensor<85250xf32>) -> tensor<85250xf32>\r\n  %165 = \"tfl.mul\"(%164, %cst_44) {fused_activation_function = \"NONE\"} : (tensor<85250xf32>, tensor<f32>) -> tensor<85250xf32>\r\n  %166 = \"tfl.sub\"(%155, %165) {fused_activation_function = \"NONE\"} : (tensor<85250xf32>, tensor<85250xf32>) -> tensor<85250xf32>\r\n  %167 = \"tfl.add\"(%155, %165) {fused_activation_function = \"NONE\"} : (tensor<85250xf32>, tensor<85250xf32>) -> tensor<85250xf32>\r\n  %168 = \"tfl.pack\"(%160, %166, %161, %167) {axis = 0 : i32, values_count = 4 : i32} : (tensor<85250xf32>, tensor<85250xf32>, tensor<85250xf32>, tensor<85250xf32>) -> tensor<4x85250xf32>\r\n  %169 = \"tfl.transpose\"(%168, %cst_28) : (tensor<4x85250xf32>, tensor<2xi32>) -> tensor<85250x4xf32>\r\n  %170 = \"tfl.reshape\"(%169, %cst_255) : (tensor<85250x4xf32>, tensor<3xi32>) -> tensor<1x85250x4xf32>\r\n  %171 = \"tfl.reshape\"(%169, %cst_254) : (tensor<85250x4xf32>, tensor<4xi32>) -> tensor<1x85250x1x4xf32>\r\n  %172 = \"tfl.unpack\"(%171) {axis = 0 : i32, num = 1 : i32} : (tensor<1x85250x1x4xf32>) -> tensor<85250x1x4xf32>\r\n  %173 = \"tfl.slice\"(%172, %cst_20, %cst_22) : (tensor<85250x1x4xf32>, tensor<3xi32>, tensor<3xi32>) -> tensor<85250x1x4xf32>\r\n  %174 = \"tfl.unpack\"(%173) {axis = 1 : i32, num = 1 : i32} : (tensor<85250x1x4xf32>) -> tensor<85250x4xf32>\r\n  %175 = \"tfl.conv_2d\"(%131, %cst_227, %cst_256) {dilation_h_factor = 1 : i32, dilation_w_factor = 1 : i32, fused_activation_function = \"NONE\", padding = \"SAME\", stride_h = 1 : i32, stride_w = 1 : i32} : (tensor<1x80x80x256xf32>, tensor<120x3x3x256xf32>, tensor<120xf32>) -> tensor<1x80x80x120xf32>\r\n  %176 = \"tfl.reshape\"(%175, %cst_39) : (tensor<1x80x80x120xf32>, tensor<3xi32>) -> tensor<1x64000x12xf32>\r\n  %177 = \"tfl.conv_2d\"(%132, %cst_227, %cst_256) {dilation_h_factor = 1 : i32, dilation_w_factor = 1 : i32, fused_activation_function = \"NONE\", padding = \"SAME\", stride_h = 1 : i32, stride_w = 1 : i32} : (tensor<1x40x40x256xf32>, tensor<120x3x3x256xf32>, tensor<120xf32>) -> tensor<1x40x40x120xf32>\r\n  %178 = \"tfl.reshape\"(%177, %cst_39) : (tensor<1x40x40x120xf32>, tensor<3xi32>) -> tensor<1x16000x12xf32>\r\n  %179 = \"tfl.conv_2d\"(%133, %cst_227, %cst_256) {dilation_h_factor = 1 : i32, dilation_w_factor = 1 : i32, fused_activation_function = \"NONE\", padding = \"SAME\", stride_h = 1 : i32, stride_w = 1 : i32} : (tensor<1x20x20x256xf32>, tensor<120x3x3x256xf32>, tensor<120xf32>) -> tensor<1x20x20x120xf32>\r\n  %180 = \"tfl.reshape\"(%179, %cst_39) : (tensor<1x20x20x120xf32>, tensor<3xi32>) -> tensor<1x4000x12xf32>\r\n  %181 = \"tfl.conv_2d\"(%134, %cst_227, %cst_256) {dilation_h_factor = 1 : i32, dilation_w_factor = 1 : i32, fused_activation_function = \"NONE\", padding = \"SAME\", stride_h = 1 : i32, stride_w = 1 : i32} : (tensor<1x10x10x256xf32>, tensor<120x3x3x256xf32>, tensor<120xf32>) -> tensor<1x10x10x120xf32>\r\n  %182 = \"tfl.reshape\"(%181, %cst_39) : (tensor<1x10x10x120xf32>, tensor<3xi32>) -> tensor<1x1000x12xf32>\r\n  %183 = \"tfl.conv_2d\"(%135, %cst_227, %cst_256) {dilation_h_factor = 1 : i32, dilation_w_factor = 1 : i32, fused_activation_function = \"NONE\", padding = \"SAME\", stride_h = 1 : i32, stride_w = 1 : i32} : (tensor<1x5x5x256xf32>, tensor<120x3x3x256xf32>, tensor<120xf32>) -> tensor<1x5x5x120xf32>\r\n  %184 = \"tfl.reshape\"(%183, %cst_39) : (tensor<1x5x5x120xf32>, tensor<3xi32>) -> tensor<1x250x12xf32>\r\n  %185 = \"tfl.concatenation\"(%176, %178, %180, %182, %184) {axis = 1 : i32, fused_activation_function = \"NONE\"} : (tensor<1x64000x12xf32>, tensor<1x16000x12xf32>, tensor<1x4000x12xf32>, tensor<1x1000x12xf32>, tensor<1x250x12xf32>) -> tensor<1x85250x12xf32>\r\n  %186 = \"tfl.logistic\"(%185) : (tensor<1x85250x12xf32>) -> tensor<1x85250x12xf32>\r\n  %187 = \"tfl.unpack\"(%186) {axis = 0 : i32, num = 1 : i32} : (tensor<1x85250x12xf32>) -> tensor<85250x12xf32>\r\n  %188 = \"tfl.slice\"(%187, %cst_21, %cst_23) : (tensor<85250x12xf32>, tensor<2xi32>, tensor<2xi32>) -> tensor<85250x12xf32>\r\n  %189 = \"tfl.slice\"(%186, %cst_30, %cst_31) : (tensor<1x85250x12xf32>, tensor<3xi32>, tensor<3xi32>) -> tensor<1x85250x11xf32>\r\n  %190 = \"tfl.unpack\"(%189) {axis = 0 : i32, num = 1 : i32} : (tensor<1x85250x11xf32>) -> tensor<85250x11xf32>\r\n  %191 = \"tfl.slice\"(%190, %cst_21, %cst_23) : (tensor<85250x11xf32>, tensor<2xi32>, tensor<2xi32>) -> tensor<85250x11xf32>\r\n  %192 = \"tfl.slice\"(%191, %cst_21, %cst_13) : (tensor<85250x11xf32>, tensor<2xi32>, tensor<2xi32>) -> tensor<85250x1xf32>\r\n  %193 = \"tfl.reshape\"(%192, %cst_257) : (tensor<85250x1xf32>, tensor<1xi32>) -> tensor<85250xf32>\r\n  %selected_indices, %selected_scores, %valid_outputs = \"tfl.non_max_suppression_v5\"(%174, %193, %cst_19, %cst_11, %cst_12, %cst_27) : (tensor<85250x4xf32>, tensor<85250xf32>, tensor<i32>, tensor<f32>, tensor<f32>, tensor<f32>) -> (tensor<?xi32>, tensor<?xf32>, tensor<i32>)\r\n  %194 = \"tfl.shape\"(%selected_indices) : (tensor<?xi32>) -> tensor<1xi32>\r\n  %195 = \"tfl.strided_slice\"(%194, %cst_258, %cst_260, %cst_260) {begin_mask = 0 : i32, ellipsis_mask = 0 : i32, end_mask = 0 : i32, new_axis_mask = 0 : i32, shrink_axis_mask = 1 : i32} : (tensor<1xi32>, tensor<1xi32>, tensor<1xi32>, tensor<1xi32>) -> tensor<i32>\r\n  %196 = \"tfl.less\"(%cst_14, %195) : (tensor<100xi32>, tensor<i32>) -> tensor<100xi1>\r\n  %197 = \"tfl.sub\"(%cst_19, %195) {fused_activation_function = \"NONE\"} : (tensor<i32>, tensor<i32>) -> tensor<i32>\r\n  %198 = \"tfl.reshape\"(%197, %cst_257) : (tensor<i32>, tensor<1xi32>) -> tensor<1xi32>\r\n  %199 = \"tfl.fill\"(%198, %cst_32) : (tensor<1xi32>, tensor<i32>) -> tensor<?xi32>\r\n  %200 = \"tfl.fill\"(%198, %cst_27) : (tensor<1xi32>, tensor<f32>) -> tensor<?xf32>\r\n  %201 = \"tfl.concatenation\"(%selected_indices, %199) {axis = 0 : i32, fused_activation_function = \"NONE\"} : (tensor<?xi32>, tensor<?xi32>) -> tensor<?xi32>\r\n  %202 = \"tfl.gather\"(%2, %201) {axis = 0 : i32} : (tensor<85250xf32>, tensor<?xi32>) -> tensor<?xf32>\r\n  %203 = \"tfl.gather\"(%188, %201) {axis = 0 : i32} : (tensor<85250x12xf32>, tensor<?xi32>) -> tensor<?x12xf32>\r\n  %204 = \"tfl.gather\"(%174, %201) {axis = 0 : i32} : (tensor<85250x4xf32>, tensor<?xi32>) -> tensor<?x4xf32>\r\n  %205 = \"tfl.concatenation\"(%selected_scores, %200) {axis = -1 : i32, fused_activation_function = \"NONE\"} : (tensor<?xf32>, tensor<?xf32>) -> tensor<?xf32>\r\n  %206 = \"tfl.select\"(%196, %205, %cst_15) : (tensor<100xi1>, tensor<?xf32>, tensor<100xf32>) -> tensor<100xf32>\r\n  %207 = \"tfl.slice\"(%191, %cst, %cst_13) : (tensor<85250x11xf32>, tensor<2xi32>, tensor<2xi32>) -> tensor<85250x1xf32>\r\n  %208 = \"tfl.reshape\"(%207, %cst_257) : (tensor<85250x1xf32>, tensor<1xi32>) -> tensor<85250xf32>\r\n  %selected_indices_261, %selected_scores_262, %valid_outputs_263 = \"tfl.non_max_suppression_v5\"(%174, %208, %cst_19, %cst_11, %cst_12, %cst_27) : (tensor<85250x4xf32>, tensor<85250xf32>, tensor<i32>, tensor<f32>, tensor<f32>, tensor<f32>) -> (tensor<?xi32>, tensor<?xf32>, tensor<i32>)\r\n  %209 = \"tfl.shape\"(%selected_indices_261) : (tensor<?xi32>) -> tensor<1xi32>\r\n  %210 = \"tfl.strided_slice\"(%209, %cst_258, %cst_260, %cst_260) {begin_mask = 0 : i32, ellipsis_mask = 0 : i32, end_mask = 0 : i32, new_axis_mask = 0 : i32, shrink_axis_mask = 1 : i32} : (tensor<1xi32>, tensor<1xi32>, tensor<1xi32>, tensor<1xi32>) -> tensor<i32>\r\n  %211 = \"tfl.less\"(%cst_14, %210) : (tensor<100xi32>, tensor<i32>) -> tensor<100xi1>\r\n  %212 = \"tfl.sub\"(%cst_19, %210) {fused_activation_function = \"NONE\"} : (tensor<i32>, tensor<i32>) -> tensor<i32>\r\n  %213 = \"tfl.reshape\"(%212, %cst_257) : (tensor<i32>, tensor<1xi32>) -> tensor<1xi32>\r\n  %214 = \"tfl.fill\"(%213, %cst_32) : (tensor<1xi32>, tensor<i32>) -> tensor<?xi32>\r\n  %215 = \"tfl.fill\"(%213, %cst_27) : (tensor<1xi32>, tensor<f32>) -> tensor<?xf32>\r\n  %216 = \"tfl.concatenation\"(%selected_indices_261, %214) {axis = 0 : i32, fused_activation_function = \"NONE\"} : (tensor<?xi32>, tensor<?xi32>) -> tensor<?xi32>\r\n  %217 = \"tfl.gather\"(%2, %216) {axis = 0 : i32} : (tensor<85250xf32>, tensor<?xi32>) -> tensor<?xf32>\r\n  %218 = \"tfl.gather\"(%188, %216) {axis = 0 : i32} : (tensor<85250x12xf32>, tensor<?xi32>) -> tensor<?x12xf32>\r\n  %219 = \"tfl.gather\"(%174, %216) {axis = 0 : i32} : (tensor<85250x4xf32>, tensor<?xi32>) -> tensor<?x4xf32>\r\n  %220 = \"tfl.concatenation\"(%selected_scores_262, %215) {axis = -1 : i32, fused_activation_function = \"NONE\"} : (tensor<?xf32>, tensor<?xf32>) -> tensor<?xf32>\r\n  %221 = \"tfl.select\"(%211, %220, %cst_15) : (tensor<100xi1>, tensor<?xf32>, tensor<100xf32>) -> tensor<100xf32>\r\n  %222 = \"tfl.slice\"(%191, %cst_0, %cst_13) : (tensor<85250x11xf32>, tensor<2xi32>, tensor<2xi32>) -> tensor<85250x1xf32>\r\n  %223 = \"tfl.reshape\"(%222, %cst_257) : (tensor<85250x1xf32>, tensor<1xi32>) -> tensor<85250xf32>\r\n  %selected_indices_264, %selected_scores_265, %valid_outputs_266 = \"tfl.non_max_suppression_v5\"(%174, %223, %cst_19, %cst_11, %cst_12, %cst_27) : (tensor<85250x4xf32>, tensor<85250xf32>, tensor<i32>, tensor<f32>, tensor<f32>, tensor<f32>) -> (tensor<?xi32>, tensor<?xf32>, tensor<i32>)\r\n  %224 = \"tfl.shape\"(%selected_indices_264) : (tensor<?xi32>) -> tensor<1xi32>\r\n  %225 = \"tfl.strided_slice\"(%224, %cst_258, %cst_260, %cst_260) {begin_mask = 0 : i32, ellipsis_mask = 0 : i32, end_mask = 0 : i32, new_axis_mask = 0 : i32, shrink_axis_mask = 1 : i32} : (tensor<1xi32>, tensor<1xi32>, tensor<1xi32>, tensor<1xi32>) -> tensor<i32>\r\n  %226 = \"tfl.less\"(%cst_14, %225) : (tensor<100xi32>, tensor<i32>) -> tensor<100xi1>\r\n  %227 = \"tfl.sub\"(%cst_19, %225) {fused_activation_function = \"NONE\"} : (tensor<i32>, tensor<i32>) -> tensor<i32>\r\n  %228 = \"tfl.reshape\"(%227, %cst_257) : (tensor<i32>, tensor<1xi32>) -> tensor<1xi32>\r\n  %229 = \"tfl.fill\"(%228, %cst_32) : (tensor<1xi32>, tensor<i32>) -> tensor<?xi32>\r\n  %230 = \"tfl.fill\"(%228, %cst_27) : (tensor<1xi32>, tensor<f32>) -> tensor<?xf32>\r\n  %231 = \"tfl.concatenation\"(%selected_indices_264, %229) {axis = 0 : i32, fused_activation_function = \"NONE\"} : (tensor<?xi32>, tensor<?xi32>) -> tensor<?xi32>\r\n  %232 = \"tfl.gather\"(%2, %231) {axis = 0 : i32} : (tensor<85250xf32>, tensor<?xi32>) -> tensor<?xf32>\r\n  %233 = \"tfl.gather\"(%188, %231) {axis = 0 : i32} : (tensor<85250x12xf32>, tensor<?xi32>) -> tensor<?x12xf32>\r\n  %234 = \"tfl.gather\"(%174, %231) {axis = 0 : i32} : (tensor<85250x4xf32>, tensor<?xi32>) -> tensor<?x4xf32>\r\n  %235 = \"tfl.concatenation\"(%selected_scores_265, %230) {axis = -1 : i32, fused_activation_function = \"NONE\"} : (tensor<?xf32>, tensor<?xf32>) -> tensor<?xf32>\r\n  %236 = \"tfl.select\"(%226, %235, %cst_15) : (tensor<100xi1>, tensor<?xf32>, tensor<100xf32>) -> tensor<100xf32>\r\n  %237 = \"tfl.slice\"(%191, %cst_1, %cst_13) : (tensor<85250x11xf32>, tensor<2xi32>, tensor<2xi32>) -> tensor<85250x1xf32>\r\n  %238 = \"tfl.reshape\"(%237, %cst_257) : (tensor<85250x1xf32>, tensor<1xi32>) -> tensor<85250xf32>\r\n  %selected_indices_267, %selected_scores_268, %valid_outputs_269 = \"tfl.non_max_suppression_v5\"(%174, %238, %cst_19, %cst_11, %cst_12, %cst_27) : (tensor<85250x4xf32>, tensor<85250xf32>, tensor<i32>, tensor<f32>, tensor<f32>, tensor<f32>) -> (tensor<?xi32>, tensor<?xf32>, tensor<i32>)\r\n  %239 = \"tfl.shape\"(%selected_indices_267) : (tensor<?xi32>) -> tensor<1xi32>\r\n  %240 = \"tfl.strided_slice\"(%239, %cst_258, %cst_260, %cst_260) {begin_mask = 0 : i32, ellipsis_mask = 0 : i32, end_mask = 0 : i32, new_axis_mask = 0 : i32, shrink_axis_mask = 1 : i32} : (tensor<1xi32>, tensor<1xi32>, tensor<1xi32>, tensor<1xi32>) -> tensor<i32>\r\n  %241 = \"tfl.less\"(%cst_14, %240) : (tensor<100xi32>, tensor<i32>) -> tensor<100xi1>\r\n  %242 = \"tfl.sub\"(%cst_19, %240) {fused_activation_function = \"NONE\"} : (tensor<i32>, tensor<i32>) -> tensor<i32>\r\n  %243 = \"tfl.reshape\"(%242, %cst_257) : (tensor<i32>, tensor<1xi32>) -> tensor<1xi32>\r\n  %244 = \"tfl.fill\"(%243, %cst_32) : (tensor<1xi32>, tensor<i32>) -> tensor<?xi32>\r\n  %245 = \"tfl.fill\"(%243, %cst_27) : (tensor<1xi32>, tensor<f32>) -> tensor<?xf32>\r\n  %246 = \"tfl.concatenation\"(%selected_indices_267, %244) {axis = 0 : i32, fused_activation_function = \"NONE\"} : (tensor<?xi32>, tensor<?xi32>) -> tensor<?xi32>\r\n  %247 = \"tfl.gather\"(%2, %246) {axis = 0 : i32} : (tensor<85250xf32>, tensor<?xi32>) -> tensor<?xf32>\r\n  %248 = \"tfl.gather\"(%188, %246) {axis = 0 : i32} : (tensor<85250x12xf32>, tensor<?xi32>) -> tensor<?x12xf32>\r\n  %249 = \"tfl.gather\"(%174, %246) {axis = 0 : i32} : (tensor<85250x4xf32>, tensor<?xi32>) -> tensor<?x4xf32>\r\n  %250 = \"tfl.concatenation\"(%selected_scores_268, %245) {axis = -1 : i32, fused_activation_function = \"NONE\"} : (tensor<?xf32>, tensor<?xf32>) -> tensor<?xf32>\r\n  %251 = \"tfl.select\"(%241, %250, %cst_15) : (tensor<100xi1>, tensor<?xf32>, tensor<100xf32>) -> tensor<100xf32>\r\n  %252 = \"tfl.slice\"(%191, %cst_2, %cst_13) : (tensor<85250x11xf32>, tensor<2xi32>, tensor<2xi32>) -> tensor<85250x1xf32>\r\n  %253 = \"tfl.reshape\"(%252, %cst_257) : (tensor<85250x1xf32>, tensor<1xi32>) -> tensor<85250xf32>\r\n  %selected_indices_270, %selected_scores_271, %valid_outputs_272 = \"tfl.non_max_suppression_v5\"(%174, %253, %cst_19, %cst_11, %cst_12, %cst_27) : (tensor<85250x4xf32>, tensor<85250xf32>, tensor<i32>, tensor<f32>, tensor<f32>, tensor<f32>) -> (tensor<?xi32>, tensor<?xf32>, tensor<i32>)\r\n  %254 = \"tfl.shape\"(%selected_indices_270) : (tensor<?xi32>) -> tensor<1xi32>\r\n  %255 = \"tfl.strided_slice\"(%254, %cst_258, %cst_260, %cst_260) {begin_mask = 0 : i32, ellipsis_mask = 0 : i32, end_mask = 0 : i32, new_axis_mask = 0 : i32, shrink_axis_mask = 1 : i32} : (tensor<1xi32>, tensor<1xi32>, tensor<1xi32>, tensor<1xi32>) -> tensor<i32>\r\n  %256 = \"tfl.less\"(%cst_14, %255) : (tensor<100xi32>, tensor<i32>) -> tensor<100xi1>\r\n  %257 = \"tfl.sub\"(%cst_19, %255) {fused_activation_function = \"NONE\"} : (tensor<i32>, tensor<i32>) -> tensor<i32>\r\n  %258 = \"tfl.reshape\"(%257, %cst_257) : (tensor<i32>, tensor<1xi32>) -> tensor<1xi32>\r\n  %259 = \"tfl.fill\"(%258, %cst_32) : (tensor<1xi32>, tensor<i32>) -> tensor<?xi32>\r\n  %260 = \"tfl.fill\"(%258, %cst_27) : (tensor<1xi32>, tensor<f32>) -> tensor<?xf32>\r\n  %261 = \"tfl.concatenation\"(%selected_indices_270, %259) {axis = 0 : i32, fused_activation_function = \"NONE\"} : (tensor<?xi32>, tensor<?xi32>) -> tensor<?xi32>\r\n  %262 = \"tfl.gather\"(%2, %261) {axis = 0 : i32} : (tensor<85250xf32>, tensor<?xi32>) -> tensor<?xf32>\r\n  %263 = \"tfl.gather\"(%188, %261) {axis = 0 : i32} : (tensor<85250x12xf32>, tensor<?xi32>) -> tensor<?x12xf32>\r\n  %264 = \"tfl.gather\"(%174, %261) {axis = 0 : i32} : (tensor<85250x4xf32>, tensor<?xi32>) -> tensor<?x4xf32>\r\n  %265 = \"tfl.concatenation\"(%selected_scores_271, %260) {axis = -1 : i32, fused_activation_function = \"NONE\"} : (tensor<?xf32>, tensor<?xf32>) -> tensor<?xf32>\r\n  %266 = \"tfl.select\"(%256, %265, %cst_15) : (tensor<100xi1>, tensor<?xf32>, tensor<100xf32>) -> tensor<100xf32>\r\n  %267 = \"tfl.slice\"(%191, %cst_3, %cst_13) : (tensor<85250x11xf32>, tensor<2xi32>, tensor<2xi32>) -> tensor<85250x1xf32>\r\n  %268 = \"tfl.reshape\"(%267, %cst_257) : (tensor<85250x1xf32>, tensor<1xi32>) -> tensor<85250xf32>\r\n  %selected_indices_273, %selected_scores_274, %valid_outputs_275 = \"tfl.non_max_suppression_v5\"(%174, %268, %cst_19, %cst_11, %cst_12, %cst_27) : (tensor<85250x4xf32>, tensor<85250xf32>, tensor<i32>, tensor<f32>, tensor<f32>, tensor<f32>) -> (tensor<?xi32>, tensor<?xf32>, tensor<i32>)\r\n  %269 = \"tfl.shape\"(%selected_indices_273) : (tensor<?xi32>) -> tensor<1xi32>\r\n  %270 = \"tfl.strided_slice\"(%269, %cst_258, %cst_260, %cst_260) {begin_mask = 0 : i32, ellipsis_mask = 0 : i32, end_mask = 0 : i32, new_axis_mask = 0 : i32, shrink_axis_mask = 1 : i32} : (tensor<1xi32>, tensor<1xi32>, tensor<1xi32>, tensor<1xi32>) -> tensor<i32>\r\n  %271 = \"tfl.less\"(%cst_14, %270) : (tensor<100xi32>, tensor<i32>) -> tensor<100xi1>\r\n  %272 = \"tfl.sub\"(%cst_19, %270) {fused_activation_function = \"NONE\"} : (tensor<i32>, tensor<i32>) -> tensor<i32>\r\n  %273 = \"tfl.reshape\"(%272, %cst_257) : (tensor<i32>, tensor<1xi32>) -> tensor<1xi32>\r\n  %274 = \"tfl.fill\"(%273, %cst_32) : (tensor<1xi32>, tensor<i32>) -> tensor<?xi32>\r\n  %275 = \"tfl.fill\"(%273, %cst_27) : (tensor<1xi32>, tensor<f32>) -> tensor<?xf32>\r\n  %276 = \"tfl.concatenation\"(%selected_indices_273, %274) {axis = 0 : i32, fused_activation_function = \"NONE\"} : (tensor<?xi32>, tensor<?xi32>) -> tensor<?xi32>\r\n  %277 = \"tfl.gather\"(%2, %276) {axis = 0 : i32} : (tensor<85250xf32>, tensor<?xi32>) -> tensor<?xf32>\r\n  %278 = \"tfl.gather\"(%188, %276) {axis = 0 : i32} : (tensor<85250x12xf32>, tensor<?xi32>) -> tensor<?x12xf32>\r\n  %279 = \"tfl.gather\"(%174, %276) {axis = 0 : i32} : (tensor<85250x4xf32>, tensor<?xi32>) -> tensor<?x4xf32>\r\n  %280 = \"tfl.concatenation\"(%selected_scores_274, %275) {axis = -1 : i32, fused_activation_function = \"NONE\"} : (tensor<?xf32>, tensor<?xf32>) -> tensor<?xf32>\r\n  %281 = \"tfl.select\"(%271, %280, %cst_15) : (tensor<100xi1>, tensor<?xf32>, tensor<100xf32>) -> tensor<100xf32>\r\n  %282 = \"tfl.slice\"(%191, %cst_4, %cst_13) : (tensor<85250x11xf32>, tensor<2xi32>, tensor<2xi32>) -> tensor<85250x1xf32>\r\n  %283 = \"tfl.reshape\"(%282, %cst_257) : (tensor<85250x1xf32>, tensor<1xi32>) -> tensor<85250xf32>\r\n  %selected_indices_276, %selected_scores_277, %valid_outputs_278 = \"tfl.non_max_suppression_v5\"(%174, %283, %cst_19, %cst_11, %cst_12, %cst_27) : (tensor<85250x4xf32>, tensor<85250xf32>, tensor<i32>, tensor<f32>, tensor<f32>, tensor<f32>) -> (tensor<?xi32>, tensor<?xf32>, tensor<i32>)\r\n  %284 = \"tfl.shape\"(%selected_indices_276) : (tensor<?xi32>) -> tensor<1xi32>\r\n  %285 = \"tfl.strided_slice\"(%284, %cst_258, %cst_260, %cst_260) {begin_mask = 0 : i32, ellipsis_mask = 0 : i32, end_mask = 0 : i32, new_axis_mask = 0 : i32, shrink_axis_mask = 1 : i32} : (tensor<1xi32>, tensor<1xi32>, tensor<1xi32>, tensor<1xi32>) -> tensor<i32>\r\n  %286 = \"tfl.less\"(%cst_14, %285) : (tensor<100xi32>, tensor<i32>) -> tensor<100xi1>\r\n  %287 = \"tfl.sub\"(%cst_19, %285) {fused_activation_function = \"NONE\"} : (tensor<i32>, tensor<i32>) -> tensor<i32>\r\n  %288 = \"tfl.reshape\"(%287, %cst_257) : (tensor<i32>, tensor<1xi32>) -> tensor<1xi32>\r\n  %289 = \"tfl.fill\"(%288, %cst_32) : (tensor<1xi32>, tensor<i32>) -> tensor<?xi32>\r\n  %290 = \"tfl.fill\"(%288, %cst_27) : (tensor<1xi32>, tensor<f32>) -> tensor<?xf32>\r\n  %291 = \"tfl.concatenation\"(%selected_indices_276, %289) {axis = 0 : i32, fused_activation_function = \"NONE\"} : (tensor<?xi32>, tensor<?xi32>) -> tensor<?xi32>\r\n  %292 = \"tfl.gather\"(%2, %291) {axis = 0 : i32} : (tensor<85250xf32>, tensor<?xi32>) -> tensor<?xf32>\r\n  %293 = \"tfl.gather\"(%188, %291) {axis = 0 : i32} : (tensor<85250x12xf32>, tensor<?xi32>) -> tensor<?x12xf32>\r\n  %294 = \"tfl.gather\"(%174, %291) {axis = 0 : i32} : (tensor<85250x4xf32>, tensor<?xi32>) -> tensor<?x4xf32>\r\n  %295 = \"tfl.concatenation\"(%selected_scores_277, %290) {axis = -1 : i32, fused_activation_function = \"NONE\"} : (tensor<?xf32>, tensor<?xf32>) -> tensor<?xf32>\r\n  %296 = \"tfl.select\"(%286, %295, %cst_15) : (tensor<100xi1>, tensor<?xf32>, tensor<100xf32>) -> tensor<100xf32>\r\n  %297 = \"tfl.slice\"(%191, %cst_5, %cst_13) : (tensor<85250x11xf32>, tensor<2xi32>, tensor<2xi32>) -> tensor<85250x1xf32>\r\n  %298 = \"tfl.reshape\"(%297, %cst_257) : (tensor<85250x1xf32>, tensor<1xi32>) -> tensor<85250xf32>\r\n  %selected_indices_279, %selected_scores_280, %valid_outputs_281 = \"tfl.non_max_suppression_v5\"(%174, %298, %cst_19, %cst_11, %cst_12, %cst_27) : (tensor<85250x4xf32>, tensor<85250xf32>, tensor<i32>, tensor<f32>, tensor<f32>, tensor<f32>) -> (tensor<?xi32>, tensor<?xf32>, tensor<i32>)\r\n  %299 = \"tfl.shape\"(%selected_indices_279) : (tensor<?xi32>) -> tensor<1xi32>\r\n  %300 = \"tfl.strided_slice\"(%299, %cst_258, %cst_260, %cst_260) {begin_mask = 0 : i32, ellipsis_mask = 0 : i32, end_mask = 0 : i32, new_axis_mask = 0 : i32, shrink_axis_mask = 1 : i32} : (tensor<1xi32>, tensor<1xi32>, tensor<1xi32>, tensor<1xi32>) -> tensor<i32>\r\n  %301 = \"tfl.less\"(%cst_14, %300) : (tensor<100xi32>, tensor<i32>) -> tensor<100xi1>\r\n  %302 = \"tfl.sub\"(%cst_19, %300) {fused_activation_function = \"NONE\"} : (tensor<i32>, tensor<i32>) -> tensor<i32>\r\n  %303 = \"tfl.reshape\"(%302, %cst_257) : (tensor<i32>, tensor<1xi32>) -> tensor<1xi32>\r\n  %304 = \"tfl.fill\"(%303, %cst_32) : (tensor<1xi32>, tensor<i32>) -> tensor<?xi32>\r\n  %305 = \"tfl.fill\"(%303, %cst_27) : (tensor<1xi32>, tensor<f32>) -> tensor<?xf32>\r\n  %306 = \"tfl.concatenation\"(%selected_indices_279, %304) {axis = 0 : i32, fused_activation_function = \"NONE\"} : (tensor<?xi32>, tensor<?xi32>) -> tensor<?xi32>\r\n  %307 = \"tfl.gather\"(%2, %306) {axis = 0 : i32} : (tensor<85250xf32>, tensor<?xi32>) -> tensor<?xf32>\r\n  %308 = \"tfl.gather\"(%188, %306) {axis = 0 : i32} : (tensor<85250x12xf32>, tensor<?xi32>) -> tensor<?x12xf32>\r\n  %309 = \"tfl.gather\"(%174, %306) {axis = 0 : i32} : (tensor<85250x4xf32>, tensor<?xi32>) -> tensor<?x4xf32>\r\n  %310 = \"tfl.concatenation\"(%selected_scores_280, %305) {axis = -1 : i32, fused_activation_function = \"NONE\"} : (tensor<?xf32>, tensor<?xf32>) -> tensor<?xf32>\r\n  %311 = \"tfl.select\"(%301, %310, %cst_15) : (tensor<100xi1>, tensor<?xf32>, tensor<100xf32>) -> tensor<100xf32>\r\n  %312 = \"tfl.slice\"(%191, %cst_6, %cst_13) : (tensor<85250x11xf32>, tensor<2xi32>, tensor<2xi32>) -> tensor<85250x1xf32>\r\n  %313 = \"tfl.reshape\"(%312, %cst_257) : (tensor<85250x1xf32>, tensor<1xi32>) -> tensor<85250xf32>\r\n  %selected_indices_282, %selected_scores_283, %valid_outputs_284 = \"tfl.non_max_suppression_v5\"(%174, %313, %cst_19, %cst_11, %cst_12, %cst_27) : (tensor<85250x4xf32>, tensor<85250xf32>, tensor<i32>, tensor<f32>, tensor<f32>, tensor<f32>) -> (tensor<?xi32>, tensor<?xf32>, tensor<i32>)\r\n  %314 = \"tfl.shape\"(%selected_indices_282) : (tensor<?xi32>) -> tensor<1xi32>\r\n  %315 = \"tfl.strided_slice\"(%314, %cst_258, %cst_260, %cst_260) {begin_mask = 0 : i32, ellipsis_mask = 0 : i32, end_mask = 0 : i32, new_axis_mask = 0 : i32, shrink_axis_mask = 1 : i32} : (tensor<1xi32>, tensor<1xi32>, tensor<1xi32>, tensor<1xi32>) -> tensor<i32>\r\n  %316 = \"tfl.less\"(%cst_14, %315) : (tensor<100xi32>, tensor<i32>) -> tensor<100xi1>\r\n  %317 = \"tfl.sub\"(%cst_19, %315) {fused_activation_function = \"NONE\"} : (tensor<i32>, tensor<i32>) -> tensor<i32>\r\n  %318 = \"tfl.reshape\"(%317, %cst_257) : (tensor<i32>, tensor<1xi32>) -> tensor<1xi32>\r\n  %319 = \"tfl.fill\"(%318, %cst_32) : (tensor<1xi32>, tensor<i32>) -> tensor<?xi32>\r\n  %320 = \"tfl.fill\"(%318, %cst_27) : (tensor<1xi32>, tensor<f32>) -> tensor<?xf32>\r\n  %321 = \"tfl.concatenation\"(%selected_indices_282, %319) {axis = 0 : i32, fused_activation_function = \"NONE\"} : (tensor<?xi32>, tensor<?xi32>) -> tensor<?xi32>\r\n  %322 = \"tfl.gather\"(%2, %321) {axis = 0 : i32} : (tensor<85250xf32>, tensor<?xi32>) -> tensor<?xf32>\r\n  %323 = \"tfl.gather\"(%188, %321) {axis = 0 : i32} : (tensor<85250x12xf32>, tensor<?xi32>) -> tensor<?x12xf32>\r\n  %324 = \"tfl.gather\"(%174, %321) {axis = 0 : i32} : (tensor<85250x4xf32>, tensor<?xi32>) -> tensor<?x4xf32>\r\n  %325 = \"tfl.concatenation\"(%selected_scores_283, %320) {axis = -1 : i32, fused_activation_function = \"NONE\"} : (tensor<?xf32>, tensor<?xf32>) -> tensor<?xf32>\r\n  %326 = \"tfl.select\"(%316, %325, %cst_15) : (tensor<100xi1>, tensor<?xf32>, tensor<100xf32>) -> tensor<100xf32>\r\n  %327 = \"tfl.slice\"(%191, %cst_7, %cst_13) : (tensor<85250x11xf32>, tensor<2xi32>, tensor<2xi32>) -> tensor<85250x1xf32>\r\n  %328 = \"tfl.reshape\"(%327, %cst_257) : (tensor<85250x1xf32>, tensor<1xi32>) -> tensor<85250xf32>\r\n  %selected_indices_285, %selected_scores_286, %valid_outputs_287 = \"tfl.non_max_suppression_v5\"(%174, %328, %cst_19, %cst_11, %cst_12, %cst_27) : (tensor<85250x4xf32>, tensor<85250xf32>, tensor<i32>, tensor<f32>, tensor<f32>, tensor<f32>) -> (tensor<?xi32>, tensor<?xf32>, tensor<i32>)\r\n  %329 = \"tfl.shape\"(%selected_indices_285) : (tensor<?xi32>) -> tensor<1xi32>\r\n  %330 = \"tfl.strided_slice\"(%329, %cst_258, %cst_260, %cst_260) {begin_mask = 0 : i32, ellipsis_mask = 0 : i32, end_mask = 0 : i32, new_axis_mask = 0 : i32, shrink_axis_mask = 1 : i32} : (tensor<1xi32>, tensor<1xi32>, tensor<1xi32>, tensor<1xi32>) -> tensor<i32>\r\n  %331 = \"tfl.less\"(%cst_14, %330) : (tensor<100xi32>, tensor<i32>) -> tensor<100xi1>\r\n  %332 = \"tfl.sub\"(%cst_19, %330) {fused_activation_function = \"NONE\"} : (tensor<i32>, tensor<i32>) -> tensor<i32>\r\n  %333 = \"tfl.reshape\"(%332, %cst_257) : (tensor<i32>, tensor<1xi32>) -> tensor<1xi32>\r\n  %334 = \"tfl.fill\"(%333, %cst_32) : (tensor<1xi32>, tensor<i32>) -> tensor<?xi32>\r\n  %335 = \"tfl.fill\"(%333, %cst_27) : (tensor<1xi32>, tensor<f32>) -> tensor<?xf32>\r\n  %336 = \"tfl.concatenation\"(%selected_indices_285, %334) {axis = 0 : i32, fused_activation_function = \"NONE\"} : (tensor<?xi32>, tensor<?xi32>) -> tensor<?xi32>\r\n  %337 = \"tfl.gather\"(%2, %336) {axis = 0 : i32} : (tensor<85250xf32>, tensor<?xi32>) -> tensor<?xf32>\r\n  %338 = \"tfl.gather\"(%188, %336) {axis = 0 : i32} : (tensor<85250x12xf32>, tensor<?xi32>) -> tensor<?x12xf32>\r\n  %339 = \"tfl.gather\"(%174, %336) {axis = 0 : i32} : (tensor<85250x4xf32>, tensor<?xi32>) -> tensor<?x4xf32>\r\n  %340 = \"tfl.concatenation\"(%selected_scores_286, %335) {axis = -1 : i32, fused_activation_function = \"NONE\"} : (tensor<?xf32>, tensor<?xf32>) -> tensor<?xf32>\r\n  %341 = \"tfl.select\"(%331, %340, %cst_15) : (tensor<100xi1>, tensor<?xf32>, tensor<100xf32>) -> tensor<100xf32>\r\n  %342 = \"tfl.slice\"(%191, %cst_8, %cst_13) : (tensor<85250x11xf32>, tensor<2xi32>, tensor<2xi32>) -> tensor<85250x1xf32>\r\n  %343 = \"tfl.reshape\"(%342, %cst_257) : (tensor<85250x1xf32>, tensor<1xi32>) -> tensor<85250xf32>\r\n  %selected_indices_288, %selected_scores_289, %valid_outputs_290 = \"tfl.non_max_suppression_v5\"(%174, %343, %cst_19, %cst_11, %cst_12, %cst_27) : (tensor<85250x4xf32>, tensor<85250xf32>, tensor<i32>, tensor<f32>, tensor<f32>, tensor<f32>) -> (tensor<?xi32>, tensor<?xf32>, tensor<i32>)\r\n  %344 = \"tfl.shape\"(%selected_indices_288) : (tensor<?xi32>) -> tensor<1xi32>\r\n  %345 = \"tfl.strided_slice\"(%344, %cst_258, %cst_260, %cst_260) {begin_mask = 0 : i32, ellipsis_mask = 0 : i32, end_mask = 0 : i32, new_axis_mask = 0 : i32, shrink_axis_mask = 1 : i32} : (tensor<1xi32>, tensor<1xi32>, tensor<1xi32>, tensor<1xi32>) -> tensor<i32>\r\n  %346 = \"tfl.less\"(%cst_14, %345) : (tensor<100xi32>, tensor<i32>) -> tensor<100xi1>\r\n  %347 = \"tfl.sub\"(%cst_19, %345) {fused_activation_function = \"NONE\"} : (tensor<i32>, tensor<i32>) -> tensor<i32>\r\n  %348 = \"tfl.reshape\"(%347, %cst_257) : (tensor<i32>, tensor<1xi32>) -> tensor<1xi32>\r\n  %349 = \"tfl.fill\"(%348, %cst_32) : (tensor<1xi32>, tensor<i32>) -> tensor<?xi32>\r\n  %350 = \"tfl.fill\"(%348, %cst_27) : (tensor<1xi32>, tensor<f32>) -> tensor<?xf32>\r\n  %351 = \"tfl.concatenation\"(%selected_indices_288, %349) {axis = 0 : i32, fused_activation_function = \"NONE\"} : (tensor<?xi32>, tensor<?xi32>) -> tensor<?xi32>\r\n  %352 = \"tfl.gather\"(%2, %351) {axis = 0 : i32} : (tensor<85250xf32>, tensor<?xi32>) -> tensor<?xf32>\r\n  %353 = \"tfl.concatenation\"(%202, %217, %247, %262, %277, %292, %307, %322, %337, %352, %232) {axis = 0 : i32, fused_activation_function = \"NONE\"} : (tensor<?xf32>, tensor<?xf32>, tensor<?xf32>, tensor<?xf32>, tensor<?xf32>, tensor<?xf32>, tensor<?xf32>, tensor<?xf32>, tensor<?xf32>, tensor<?xf32>, tensor<?xf32>) -> tensor<?xf32>\r\n  %354 = \"tfl.gather\"(%188, %351) {axis = 0 : i32} : (tensor<85250x12xf32>, tensor<?xi32>) -> tensor<?x12xf32>\r\n  %355 = \"tfl.concatenation\"(%203, %218, %248, %263, %278, %293, %308, %323, %338, %354, %233) {axis = 0 : i32, fused_activation_function = \"NONE\"} : (tensor<?x12xf32>, tensor<?x12xf32>, tensor<?x12xf32>, tensor<?x12xf32>, tensor<?x12xf32>, tensor<?x12xf32>, tensor<?x12xf32>, tensor<?x12xf32>, tensor<?x12xf32>, tensor<?x12xf32>, tensor<?x12xf32>) -> tensor<?x12xf32>\r\n  %356 = \"tfl.gather\"(%174, %351) {axis = 0 : i32} : (tensor<85250x4xf32>, tensor<?xi32>) -> tensor<?x4xf32>\r\n  %357 = \"tfl.concatenation\"(%204, %219, %249, %264, %279, %294, %309, %324, %339, %356, %234) {axis = 0 : i32, fused_activation_function = \"NONE\"} : (tensor<?x4xf32>, tensor<?x4xf32>, tensor<?x4xf32>, tensor<?x4xf32>, tensor<?x4xf32>, tensor<?x4xf32>, tensor<?x4xf32>, tensor<?x4xf32>, tensor<?x4xf32>, tensor<?x4xf32>, tensor<?x4xf32>) -> tensor<?x4xf32>\r\n  %358 = \"tfl.shape\"(%357) : (tensor<?x4xf32>) -> tensor<2xi32>\r\n  %359 = \"tfl.strided_slice\"(%358, %cst_258, %cst_260, %cst_260) {begin_mask = 0 : i32, ellipsis_mask = 0 : i32, end_mask = 0 : i32, new_axis_mask = 0 : i32, shrink_axis_mask = 1 : i32} : (tensor<2xi32>, tensor<1xi32>, tensor<1xi32>, tensor<1xi32>) -> tensor<i32>\r\n  %360 = \"tfl.equal\"(%359, %cst_9) : (tensor<i32>, tensor<i32>) -> tensor<i1>\r\n  %361 = \"tfl.concatenation\"(%selected_scores_289, %350) {axis = -1 : i32, fused_activation_function = \"NONE\"} : (tensor<?xf32>, tensor<?xf32>) -> tensor<?xf32>\r\n  %362 = \"tfl.select\"(%346, %361, %cst_15) : (tensor<100xi1>, tensor<?xf32>, tensor<100xf32>) -> tensor<100xf32>\r\n  %363 = \"tfl.concatenation\"(%206, %221, %251, %266, %281, %296, %311, %326, %341, %362, %236) {axis = 0 : i32, fused_activation_function = \"NONE\"} : (tensor<100xf32>, tensor<100xf32>, tensor<100xf32>, tensor<100xf32>, tensor<100xf32>, tensor<100xf32>, tensor<100xf32>, tensor<100xf32>, tensor<100xf32>, tensor<100xf32>, tensor<100xf32>) -> tensor<1100xf32>\r\n  %values, %indices = \"tfl.topk_v2\"(%363, %359) : (tensor<1100xf32>, tensor<i32>) -> (tensor<?xf32>, tensor<?xi32>)\r\n  %364 = \"tfl.gather\"(%363, %indices) {axis = 0 : i32} : (tensor<1100xf32>, tensor<?xi32>) -> tensor<?xf32>\r\n  %365 = \"tfl.gather\"(%353, %indices) {axis = 0 : i32} : (tensor<?xf32>, tensor<?xi32>) -> tensor<?xf32>\r\n  %366 = \"tfl.gather\"(%355, %indices) {axis = 0 : i32} : (tensor<?x12xf32>, tensor<?xi32>) -> tensor<?x12xf32>\r\n  %367 = \"tfl.gather\"(%cst_16, %indices) {axis = 0 : i32} : (tensor<1100xf32>, tensor<?xi32>) -> tensor<?xf32>\r\n  %368 = \"tfl.gather\"(%357, %indices) {axis = 0 : i32} : (tensor<?x4xf32>, tensor<?xi32>) -> tensor<?x4xf32>\r\n  %369:4 = \"tfl.split\"(%cst_41, %368) {num_splits = 4 : i32} : (tensor<i32>, tensor<?x4xf32>) -> (tensor<?x1xf32>, tensor<?x1xf32>, tensor<?x1xf32>, tensor<?x1xf32>)\r\n  %370 = \"tfl.minimum\"(%369#0, %cst_40) : (tensor<?x1xf32>, tensor<f32>) -> tensor<?x1xf32>\r\n  %371 = \"tfl.relu\"(%370) : (tensor<?x1xf32>) -> tensor<?x1xf32>\r\n  %372 = \"tfl.minimum\"(%369#2, %cst_40) : (tensor<?x1xf32>, tensor<f32>) -> tensor<?x1xf32>\r\n  %373 = \"tfl.relu\"(%372) : (tensor<?x1xf32>) -> tensor<?x1xf32>\r\n  %374 = \"tfl.minimum\"(%369#1, %cst_40) : (tensor<?x1xf32>, tensor<f32>) -> tensor<?x1xf32>\r\n  %375 = \"tfl.relu\"(%374) : (tensor<?x1xf32>) -> tensor<?x1xf32>\r\n  %376 = \"tfl.minimum\"(%369#3, %cst_40) : (tensor<?x1xf32>, tensor<f32>) -> tensor<?x1xf32>\r\n  %377 = \"tfl.relu\"(%376) : (tensor<?x1xf32>) -> tensor<?x1xf32>\r\n  %378 = \"tfl.concatenation\"(%371, %375, %373, %377) {axis = 1 : i32, fused_activation_function = \"NONE\"} : (tensor<?x1xf32>, tensor<?x1xf32>, tensor<?x1xf32>, tensor<?x1xf32>) -> tensor<?x4xf32>\r\n  %379:4 = \"tfl.split\"(%cst_41, %378) {num_splits = 4 : i32} : (tensor<i32>, tensor<?x4xf32>) -> (tensor<?x1xf32>, tensor<?x1xf32>, tensor<?x1xf32>, tensor<?x1xf32>)\r\n  %380 = \"tfl.sub\"(%379#2, %379#0) {fused_activation_function = \"NONE\"} : (tensor<?x1xf32>, tensor<?x1xf32>) -> tensor<?x1xf32>\r\n  %381 = \"tfl.sub\"(%379#3, %379#1) {fused_activation_function = \"NONE\"} : (tensor<?x1xf32>, tensor<?x1xf32>) -> tensor<?x1xf32>\r\n  %382 = \"tfl.mul\"(%380, %381) {fused_activation_function = \"NONE\"} : (tensor<?x1xf32>, tensor<?x1xf32>) -> tensor<?x1xf32>\r\n  %383 = \"tfl.greater\"(%382, %cst_27) : (tensor<?x1xf32>, tensor<f32>) -> tensor<?x1xi1>\r\n  %384 = \"tfl.reshape\"(%383, %cst_257) : (tensor<?x1xi1>, tensor<1xi32>) -> tensor<?xi1>\r\n  %385 = \"tfl.where\"(%384) : (tensor<?xi1>) -> tensor<?x1xi64>\r\n  %386 = \"tfl.reshape\"(%385, %cst_257) : (tensor<?x1xi64>, tensor<1xi32>) -> tensor<?xi64>\r\n  %387 = \"tfl.cast\"(%386) : (tensor<?xi64>) -> tensor<?xi32>\r\n  %388 = \"tfl.gather\"(%364, %387) {axis = 0 : i32} : (tensor<?xf32>, tensor<?xi32>) -> tensor<?xf32>\r\n  %389 = \"tfl.gather\"(%365, %387) {axis = 0 : i32} : (tensor<?xf32>, tensor<?xi32>) -> tensor<?xf32>\r\n  %390 = \"tfl.gather\"(%366, %387) {axis = 0 : i32} : (tensor<?x12xf32>, tensor<?xi32>) -> tensor<?x12xf32>\r\n  %391 = \"tfl.gather\"(%367, %387) {axis = 0 : i32} : (tensor<?xf32>, tensor<?xi32>) -> tensor<?xf32>\r\n  %392 = \"tfl.gather\"(%378, %387) {axis = 0 : i32} : (tensor<?x4xf32>, tensor<?xi32>) -> tensor<?x4xf32>\r\n  %393:4 = \"tfl.split\"(%cst_41, %392) {num_splits = 4 : i32} : (tensor<i32>, tensor<?x4xf32>) -> (tensor<?x1xf32>, tensor<?x1xf32>, tensor<?x1xf32>, tensor<?x1xf32>)\r\n  %394 = \"tfl.sub\"(%393#2, %393#0) {fused_activation_function = \"NONE\"} : (tensor<?x1xf32>, tensor<?x1xf32>) -> tensor<?x1xf32>\r\n  %395 = \"tfl.sub\"(%393#3, %393#1) {fused_activation_function = \"NONE\"} : (tensor<?x1xf32>, tensor<?x1xf32>) -> tensor<?x1xf32>\r\n  %396 = \"tfl.mul\"(%394, %395) {fused_activation_function = \"NONE\"} : (tensor<?x1xf32>, tensor<?x1xf32>) -> tensor<?x1xf32>\r\n  %397 = \"tfl.reshape\"(%396, %cst_257) : (tensor<?x1xf32>, tensor<1xi32>) -> tensor<?xf32>\r\n  %398 = \"tfl.cast\"(%397) : (tensor<?xf32>) -> tensor<?xi1>\r\n  %399 = \"tfl.shape\"(%392) : (tensor<?x4xf32>) -> tensor<2xi32>\r\n  %400 = \"tfl.strided_slice\"(%399, %cst_258, %cst_260, %cst_260) {begin_mask = 0 : i32, ellipsis_mask = 0 : i32, end_mask = 0 : i32, new_axis_mask = 0 : i32, shrink_axis_mask = 1 : i32} : (tensor<2xi32>, tensor<1xi32>, tensor<1xi32>, tensor<1xi32>) -> tensor<i32>\r\n  %401 = \"tfl.reshape\"(%400, %cst_257) : (tensor<i32>, tensor<1xi32>) -> tensor<1xi32>\r\n  %402 = \"tfl.fill\"(%401, %cst_40) : (tensor<1xi32>, tensor<f32>) -> tensor<?xf32>\r\n  %403 = \"tfl.mul\"(%402, %cst_10) {fused_activation_function = \"NONE\"} : (tensor<?xf32>, tensor<f32>) -> tensor<?xf32>\r\n  %404 = \"tfl.select\"(%398, %388, %403) : (tensor<?xi1>, tensor<?xf32>, tensor<?xf32>) -> tensor<?xf32>\r\n  %405 = \"tfl.greater_equal\"(%404, %cst_27) : (tensor<?xf32>, tensor<f32>) -> tensor<?xi1>\r\n  %406 = \"tfl.cast\"(%405) : (tensor<?xi1>) -> tensor<?xi32>\r\n  %407 = \"tfl.sum\"(%406, %cst_258) {keep_dims = false} : (tensor<?xi32>, tensor<1xi32>) -> tensor<i32>\r\n  %408 = \"tf.Size\"(%404) {device = \"\"} : (tensor<?xf32>) -> tensor<i32>\r\n  %409 = \"tfl.equal\"(%400, %408) : (tensor<i32>, tensor<i32>) -> tensor<i1>\r\n  %values_291, %indices_292 = \"tfl.topk_v2\"(%404, %400) : (tensor<?xf32>, tensor<i32>) -> (tensor<?xf32>, tensor<?xi32>)\r\n  %410 = \"tfl.gather\"(%404, %indices_292) {axis = 0 : i32} : (tensor<?xf32>, tensor<?xi32>) -> tensor<?xf32>\r\n  %411 = \"tfl.gather\"(%389, %indices_292) {axis = 0 : i32} : (tensor<?xf32>, tensor<?xi32>) -> tensor<?xf32>\r\n  %412 = \"tfl.gather\"(%390, %indices_292) {axis = 0 : i32} : (tensor<?x12xf32>, tensor<?xi32>) -> tensor<?x12xf32>\r\n  %413 = \"tfl.gather\"(%391, %indices_292) {axis = 0 : i32} : (tensor<?xf32>, tensor<?xi32>) -> tensor<?xf32>\r\n  %414 = \"tfl.gather\"(%392, %indices_292) {axis = 0 : i32} : (tensor<?x4xf32>, tensor<?xi32>) -> tensor<?x4xf32>\r\n  %415 = \"tfl.sub\"(%414, %cst_26) {fused_activation_function = \"NONE\"} : (tensor<?x4xf32>, tensor<4xf32>) -> tensor<?x4xf32>\r\n  %416:4 = \"tfl.split\"(%cst_41, %415) {num_splits = 4 : i32} : (tensor<i32>, tensor<?x4xf32>) -> (tensor<?x1xf32>, tensor<?x1xf32>, tensor<?x1xf32>, tensor<?x1xf32>)\r\n  %417 = \"tfl.concatenation\"(%416#0, %416#1, %416#2, %416#3) {axis = 1 : i32, fused_activation_function = \"NONE\"} : (tensor<?x1xf32>, tensor<?x1xf32>, tensor<?x1xf32>, tensor<?x1xf32>) -> tensor<?x4xf32>\r\n  %418 = \"tfl.shape\"(%417) : (tensor<?x4xf32>) -> tensor<2xi32>\r\n  %419 = \"tfl.strided_slice\"(%418, %cst_258, %cst_260, %cst_260) {begin_mask = 0 : i32, ellipsis_mask = 0 : i32, end_mask = 0 : i32, new_axis_mask = 0 : i32, shrink_axis_mask = 1 : i32} : (tensor<2xi32>, tensor<1xi32>, tensor<1xi32>, tensor<1xi32>) -> tensor<i32>\r\n  %420 = \"tfl.minimum\"(%419, %cst_19) : (tensor<i32>, tensor<i32>) -> tensor<i32>\r\n  %421 = \"tfl.greater\"(%420, %407) : (tensor<i32>, tensor<i32>) -> tensor<i1>\r\n  %422 = \"tfl.select\"(%421, %407, %420) : (tensor<i1>, tensor<i32>, tensor<i32>) -> tensor<i32>\r\n  %423 = \"tfl.range\"(%cst_32, %422, %cst_41) : (tensor<i32>, tensor<i32>, tensor<i32>) -> tensor<?xi32>\r\n  %424 = \"tfl.pack\"(%422) {axis = 0 : i32, values_count = 1 : i32} : (tensor<i32>) -> tensor<1xi32>\r\n  %425 = \"tfl.cast\"(%424) : (tensor<1xi32>) -> tensor<1xf32>\r\n  %426 = \"tfl.range\"(%cst_32, %420, %cst_41) : (tensor<i32>, tensor<i32>, tensor<i32>) -> tensor<?xi32>\r\n  %427 = \"tfl.gather\"(%410, %426) {axis = 0 : i32} : (tensor<?xf32>, tensor<?xi32>) -> tensor<?xf32>\r\n  %428 = \"tfl.gather\"(%427, %423) {axis = 0 : i32} : (tensor<?xf32>, tensor<?xi32>) -> tensor<?xf32>\r\n  %429 = \"tfl.shape\"(%428) : (tensor<?xf32>) -> tensor<1xi32>\r\n  %430 = \"tfl.strided_slice\"(%429, %cst_258, %cst_260, %cst_260) {begin_mask = 0 : i32, ellipsis_mask = 0 : i32, end_mask = 0 : i32, new_axis_mask = 0 : i32, shrink_axis_mask = 1 : i32} : (tensor<1xi32>, tensor<1xi32>, tensor<1xi32>, tensor<1xi32>) -> tensor<i32>\r\n  %431 = \"tfl.sub\"(%430, %cst_19) {fused_activation_function = \"NONE\"} : (tensor<i32>, tensor<i32>) -> tensor<i32>\r\n  %432 = \"tfl.greater\"(%431, %cst_32) : (tensor<i32>, tensor<i32>) -> tensor<i1>\r\n  %433 = \"tfl.select\"(%432, %cst_19, %cst_25) : (tensor<i1>, tensor<i32>, tensor<i32>) -> tensor<i32>\r\n  %434 = \"tfl.pack\"(%433) {axis = 0 : i32, values_count = 1 : i32} : (tensor<i32>) -> tensor<1xi32>\r\n  %435 = \"tfl.slice\"(%428, %cst_258, %434) : (tensor<?xf32>, tensor<1xi32>, tensor<1xi32>) -> tensor<?xf32>\r\n  %436 = \"tfl.shape\"(%435) : (tensor<?xf32>) -> tensor<1xi32>\r\n  %437 = \"tfl.strided_slice\"(%436, %cst_258, %cst_260, %cst_260) {begin_mask = 0 : i32, ellipsis_mask = 0 : i32, end_mask = 0 : i32, new_axis_mask = 0 : i32, shrink_axis_mask = 1 : i32} : (tensor<1xi32>, tensor<1xi32>, tensor<1xi32>, tensor<1xi32>) -> tensor<i32>\r\n  %438 = \"tfl.sub\"(%cst_19, %437) {fused_activation_function = \"NONE\"} : (tensor<i32>, tensor<i32>) -> tensor<i32>\r\n  %439 = \"tfl.pack\"(%438) {axis = 0 : i32, values_count = 1 : i32} : (tensor<i32>) -> tensor<1xi32>\r\n  %440 = \"tfl.pack\"(%cst_258, %439) {axis = 1 : i32, values_count = 2 : i32} : (tensor<1xi32>, tensor<1xi32>) -> tensor<1x2xi32>\r\n  %441 = \"tfl.pad\"(%435, %440) : (tensor<?xf32>, tensor<1x2xi32>) -> tensor<?xf32>\r\n  %442 = \"tfl.pack\"(%441) {axis = 0 : i32, values_count = 1 : i32} : (tensor<?xf32>) -> tensor<1x?xf32>\r\n  %443 = \"tfl.gather\"(%411, %426) {axis = 0 : i32} : (tensor<?xf32>, tensor<?xi32>) -> tensor<?xf32>\r\n  %444 = \"tfl.gather\"(%443, %423) {axis = 0 : i32} : (tensor<?xf32>, tensor<?xi32>) -> tensor<?xf32>\r\n  %445 = \"tfl.shape\"(%444) : (tensor<?xf32>) -> tensor<1xi32>\r\n  %446 = \"tfl.strided_slice\"(%445, %cst_258, %cst_260, %cst_260) {begin_mask = 0 : i32, ellipsis_mask = 0 : i32, end_mask = 0 : i32, new_axis_mask = 0 : i32, shrink_axis_mask = 1 : i32} : (tensor<1xi32>, tensor<1xi32>, tensor<1xi32>, tensor<1xi32>) -> tensor<i32>\r\n  %447 = \"tfl.sub\"(%446, %cst_19) {fused_activation_function = \"NONE\"} : (tensor<i32>, tensor<i32>) -> tensor<i32>\r\n  %448 = \"tfl.greater\"(%447, %cst_32) : (tensor<i32>, tensor<i32>) -> tensor<i1>\r\n  %449 = \"tfl.select\"(%448, %cst_19, %cst_25) : (tensor<i1>, tensor<i32>, tensor<i32>) -> tensor<i32>\r\n  %450 = \"tfl.pack\"(%449) {axis = 0 : i32, values_count = 1 : i32} : (tensor<i32>) -> tensor<1xi32>\r\n  %451 = \"tfl.slice\"(%444, %cst_258, %450) : (tensor<?xf32>, tensor<1xi32>, tensor<1xi32>) -> tensor<?xf32>\r\n  %452 = \"tfl.shape\"(%451) : (tensor<?xf32>) -> tensor<1xi32>\r\n  %453 = \"tfl.strided_slice\"(%452, %cst_258, %cst_260, %cst_260) {begin_mask = 0 : i32, ellipsis_mask = 0 : i32, end_mask = 0 : i32, new_axis_mask = 0 : i32, shrink_axis_mask = 1 : i32} : (tensor<1xi32>, tensor<1xi32>, tensor<1xi32>, tensor<1xi32>) -> tensor<i32>\r\n  %454 = \"tfl.sub\"(%cst_19, %453) {fused_activation_function = \"NONE\"} : (tensor<i32>, tensor<i32>) -> tensor<i32>\r\n  %455 = \"tfl.pack\"(%454) {axis = 0 : i32, values_count = 1 : i32} : (tensor<i32>) -> tensor<1xi32>\r\n  %456 = \"tfl.pack\"(%cst_258, %455) {axis = 1 : i32, values_count = 2 : i32} : (tensor<1xi32>, tensor<1xi32>) -> tensor<1x2xi32>\r\n  %457 = \"tfl.pad\"(%451, %456) : (tensor<?xf32>, tensor<1x2xi32>) -> tensor<?xf32>\r\n  %458 = \"tfl.pack\"(%457) {axis = 0 : i32, values_count = 1 : i32} : (tensor<?xf32>) -> tensor<1x?xf32>\r\n  %459 = \"tfl.cast\"(%458) : (tensor<1x?xf32>) -> tensor<1x?xi32>\r\n  %460 = \"tfl.cast\"(%459) : (tensor<1x?xi32>) -> tensor<1x?xf32>\r\n  %461 = \"tfl.gather\"(%412, %426) {axis = 0 : i32} : (tensor<?x12xf32>, tensor<?xi32>) -> tensor<?x12xf32>\r\n  %462 = \"tfl.gather\"(%461, %423) {axis = 0 : i32} : (tensor<?x12xf32>, tensor<?xi32>) -> tensor<?x12xf32>\r\n  %463 = \"tfl.shape\"(%462) : (tensor<?x12xf32>) -> tensor<2xi32>\r\n  %464 = \"tfl.strided_slice\"(%463, %cst_258, %cst_260, %cst_260) {begin_mask = 0 : i32, ellipsis_mask = 0 : i32, end_mask = 0 : i32, new_axis_mask = 0 : i32, shrink_axis_mask = 1 : i32} : (tensor<2xi32>, tensor<1xi32>, tensor<1xi32>, tensor<1xi32>) -> tensor<i32>\r\n  %465 = \"tfl.sub\"(%464, %cst_19) {fused_activation_function = \"NONE\"} : (tensor<i32>, tensor<i32>) -> tensor<i32>\r\n  %466 = \"tfl.greater\"(%465, %cst_32) : (tensor<i32>, tensor<i32>) -> tensor<i1>\r\n  %467 = \"tfl.select\"(%466, %cst_19, %cst_25) : (tensor<i1>, tensor<i32>, tensor<i32>) -> tensor<i32>\r\n  %468 = \"tfl.strided_slice\"(%463, %cst_260, %cst_259, %cst_260) {begin_mask = 0 : i32, ellipsis_mask = 0 : i32, end_mask = 0 : i32, new_axis_mask = 0 : i32, shrink_axis_mask = 1 : i32} : (tensor<2xi32>, tensor<1xi32>, tensor<1xi32>, tensor<1xi32>) -> tensor<i32>\r\n  %469 = \"tfl.sub\"(%468, %cst_17) {fused_activation_function = \"NONE\"} : (tensor<i32>, tensor<i32>) -> tensor<i32>\r\n  %470 = \"tfl.greater\"(%469, %cst_32) : (tensor<i32>, tensor<i32>) -> tensor<i1>\r\n  %471 = \"tfl.select\"(%470, %cst_17, %cst_25) : (tensor<i1>, tensor<i32>, tensor<i32>) -> tensor<i32>\r\n  %472 = \"tfl.pack\"(%467, %471) {axis = 0 : i32, values_count = 2 : i32} : (tensor<i32>, tensor<i32>) -> tensor<2xi32>\r\n  %473 = \"tfl.slice\"(%462, %cst_21, %472) : (tensor<?x12xf32>, tensor<2xi32>, tensor<2xi32>) -> tensor<?x?xf32>\r\n  %474 = \"tfl.shape\"(%473) : (tensor<?x?xf32>) -> tensor<2xi32>\r\n  %475 = \"tfl.strided_slice\"(%474, %cst_258, %cst_260, %cst_260) {begin_mask = 0 : i32, ellipsis_mask = 0 : i32, end_mask = 0 : i32, new_axis_mask = 0 : i32, shrink_axis_mask = 1 : i32} : (tensor<2xi32>, tensor<1xi32>, tensor<1xi32>, tensor<1xi32>) -> tensor<i32>\r\n  %476 = \"tfl.sub\"(%cst_19, %475) {fused_activation_function = \"NONE\"} : (tensor<i32>, tensor<i32>) -> tensor<i32>\r\n  %477 = \"tfl.strided_slice\"(%474, %cst_260, %cst_259, %cst_260) {begin_mask = 0 : i32, ellipsis_mask = 0 : i32, end_mask = 0 : i32, new_axis_mask = 0 : i32, shrink_axis_mask = 1 : i32} : (tensor<2xi32>, tensor<1xi32>, tensor<1xi32>, tensor<1xi32>) -> tensor<i32>\r\n  %478 = \"tfl.sub\"(%cst_17, %477) {fused_activation_function = \"NONE\"} : (tensor<i32>, tensor<i32>) -> tensor<i32>\r\n  %479 = \"tfl.pack\"(%476, %478) {axis = 0 : i32, values_count = 2 : i32} : (tensor<i32>, tensor<i32>) -> tensor<2xi32>\r\n  %480 = \"tfl.pack\"(%cst_21, %479) {axis = 1 : i32, values_count = 2 : i32} : (tensor<2xi32>, tensor<2xi32>) -> tensor<2x2xi32>\r\n  %481 = \"tfl.pad\"(%473, %480) : (tensor<?x?xf32>, tensor<2x2xi32>) -> tensor<?x?xf32>\r\n  %482 = \"tfl.pack\"(%481) {axis = 0 : i32, values_count = 1 : i32} : (tensor<?x?xf32>) -> tensor<1x?x?xf32>\r\n  %483 = \"tfl.gather\"(%413, %426) {axis = 0 : i32} : (tensor<?xf32>, tensor<?xi32>) -> tensor<?xf32>\r\n  %484 = \"tfl.gather\"(%483, %423) {axis = 0 : i32} : (tensor<?xf32>, tensor<?xi32>) -> tensor<?xf32>\r\n  %485 = \"tfl.shape\"(%484) : (tensor<?xf32>) -> tensor<1xi32>\r\n  %486 = \"tfl.strided_slice\"(%485, %cst_258, %cst_260, %cst_260) {begin_mask = 0 : i32, ellipsis_mask = 0 : i32, end_mask = 0 : i32, new_axis_mask = 0 : i32, shrink_axis_mask = 1 : i32} : (tensor<1xi32>, tensor<1xi32>, tensor<1xi32>, tensor<1xi32>) -> tensor<i32>\r\n  %487 = \"tfl.sub\"(%486, %cst_19) {fused_activation_function = \"NONE\"} : (tensor<i32>, tensor<i32>) -> tensor<i32>\r\n  %488 = \"tfl.greater\"(%487, %cst_32) : (tensor<i32>, tensor<i32>) -> tensor<i1>\r\n  %489 = \"tfl.select\"(%488, %cst_19, %cst_25) : (tensor<i1>, tensor<i32>, tensor<i32>) -> tensor<i32>\r\n  %490 = \"tfl.pack\"(%489) {axis = 0 : i32, values_count = 1 : i32} : (tensor<i32>) -> tensor<1xi32>\r\n  %491 = \"tfl.slice\"(%484, %cst_258, %490) : (tensor<?xf32>, tensor<1xi32>, tensor<1xi32>) -> tensor<?xf32>\r\n  %492 = \"tfl.shape\"(%491) : (tensor<?xf32>) -> tensor<1xi32>\r\n  %493 = \"tfl.strided_slice\"(%492, %cst_258, %cst_260, %cst_260) {begin_mask = 0 : i32, ellipsis_mask = 0 : i32, end_mask = 0 : i32, new_axis_mask = 0 : i32, shrink_axis_mask = 1 : i32} : (tensor<1xi32>, tensor<1xi32>, tensor<1xi32>, tensor<1xi32>) -> tensor<i32>\r\n  %494 = \"tfl.sub\"(%cst_19, %493) {fused_activation_function = \"NONE\"} : (tensor<i32>, tensor<i32>) -> tensor<i32>\r\n  %495 = \"tfl.pack\"(%494) {axis = 0 : i32, values_count = 1 : i32} : (tensor<i32>) -> tensor<1xi32>\r\n  %496 = \"tfl.pack\"(%cst_258, %495) {axis = 1 : i32, values_count = 2 : i32} : (tensor<1xi32>, tensor<1xi32>) -> tensor<1x2xi32>\r\n  %497 = \"tfl.pad\"(%491, %496) : (tensor<?xf32>, tensor<1x2xi32>) -> tensor<?xf32>\r\n  %498 = \"tfl.pack\"(%497) {axis = 0 : i32, values_count = 1 : i32} : (tensor<?xf32>) -> tensor<1x?xf32>\r\n  %499 = \"tfl.add\"(%498, %cst_40) {fused_activation_function = \"NONE\"} : (tensor<1x?xf32>, tensor<f32>) -> tensor<1x?xf32>\r\n  %500 = \"tfl.gather\"(%417, %426) {axis = 0 : i32} : (tensor<?x4xf32>, tensor<?xi32>) -> tensor<?x4xf32>\r\n  %501 = \"tfl.gather\"(%500, %423) {axis = 0 : i32} : (tensor<?x4xf32>, tensor<?xi32>) -> tensor<?x4xf32>\r\n  %502 = \"tfl.shape\"(%501) : (tensor<?x4xf32>) -> tensor<2xi32>\r\n  %503 = \"tfl.strided_slice\"(%502, %cst_258, %cst_260, %cst_260) {begin_mask = 0 : i32, ellipsis_mask = 0 : i32, end_mask = 0 : i32, new_axis_mask = 0 : i32, shrink_axis_mask = 1 : i32} : (tensor<2xi32>, tensor<1xi32>, tensor<1xi32>, tensor<1xi32>) -> tensor<i32>\r\n  %504 = \"tfl.sub\"(%503, %cst_19) {fused_activation_function = \"NONE\"} : (tensor<i32>, tensor<i32>) -> tensor<i32>\r\n  %505 = \"tfl.greater\"(%504, %cst_32) : (tensor<i32>, tensor<i32>) -> tensor<i1>\r\n  %506 = \"tfl.select\"(%505, %cst_19, %cst_25) : (tensor<i1>, tensor<i32>, tensor<i32>) -> tensor<i32>\r\n  %507 = \"tfl.strided_slice\"(%502, %cst_260, %cst_259, %cst_260) {begin_mask = 0 : i32, ellipsis_mask = 0 : i32, end_mask = 0 : i32, new_axis_mask = 0 : i32, shrink_axis_mask = 1 : i32} : (tensor<2xi32>, tensor<1xi32>, tensor<1xi32>, tensor<1xi32>) -> tensor<i32>\r\n  %508 = \"tfl.sub\"(%507, %cst_18) {fused_activation_function = \"NONE\"} : (tensor<i32>, tensor<i32>) -> tensor<i32>\r\n  %509 = \"tfl.greater\"(%508, %cst_32) : (tensor<i32>, tensor<i32>) -> tensor<i1>\r\n  %510 = \"tfl.select\"(%509, %cst_18, %cst_25) : (tensor<i1>, tensor<i32>, tensor<i32>) -> tensor<i32>\r\n  %511 = \"tfl.pack\"(%506, %510) {axis = 0 : i32, values_count = 2 : i32} : (tensor<i32>, tensor<i32>) -> tensor<2xi32>\r\n  %512 = \"tfl.slice\"(%501, %cst_21, %511) : (tensor<?x4xf32>, tensor<2xi32>, tensor<2xi32>) -> tensor<?x?xf32>\r\n  %513 = \"tfl.shape\"(%512) : (tensor<?x?xf32>) -> tensor<2xi32>\r\n  %514 = \"tfl.strided_slice\"(%513, %cst_258, %cst_260, %cst_260) {begin_mask = 0 : i32, ellipsis_mask = 0 : i32, end_mask = 0 : i32, new_axis_mask = 0 : i32, shrink_axis_mask = 1 : i32} : (tensor<2xi32>, tensor<1xi32>, tensor<1xi32>, tensor<1xi32>) -> tensor<i32>\r\n  %515 = \"tfl.sub\"(%cst_19, %514) {fused_activation_function = \"NONE\"} : (tensor<i32>, tensor<i32>) -> tensor<i32>\r\n  %516 = \"tfl.strided_slice\"(%513, %cst_260, %cst_259, %cst_260) {begin_mask = 0 : i32, ellipsis_mask = 0 : i32, end_mask = 0 : i32, new_axis_mask = 0 : i32, shrink_axis_mask = 1 : i32} : (tensor<2xi32>, tensor<1xi32>, tensor<1xi32>, tensor<1xi32>) -> tensor<i32>\r\n  %517 = \"tfl.sub\"(%cst_18, %516) {fused_activation_function = \"NONE\"} : (tensor<i32>, tensor<i32>) -> tensor<i32>\r\n  %518 = \"tfl.pack\"(%515, %517) {axis = 0 : i32, values_count = 2 : i32} : (tensor<i32>, tensor<i32>) -> tensor<2xi32>\r\n  %519 = \"tfl.pack\"(%cst_21, %518) {axis = 1 : i32, values_count = 2 : i32} : (tensor<2xi32>, tensor<2xi32>) -> tensor<2x2xi32>\r\n  %520 = \"tfl.pad\"(%512, %519) : (tensor<?x?xf32>, tensor<2x2xi32>) -> tensor<?x?xf32>\r\n  %521 = \"tfl.pack\"(%520) {axis = 0 : i32, values_count = 1 : i32} : (tensor<?x?xf32>) -> tensor<1x?x?xf32>\r\n  \"std.return\"(%425, %521, %499, %186, %442, %170, %482, %460) : (tensor<1xf32>, tensor<1x?x?xf32>, tensor<1x?xf32>, tensor<1x85250x12xf32>, tensor<1x?xf32>, tensor<1x85250x4xf32>, tensor<1x?x?xf32>, tensor<1x?xf32>) -> ()\r\n}) {arg0 = {tf_saved_model.index_path = [\"input_tensor\"]}, result0 = {tf_saved_model.index_path = [\"num_detections\"]}, result1 = {tf_saved_model.index_path = [\"detection_boxes\"]}, result2 = {tf_saved_model.index_path = [\"detection_classes\"]}, result3 = {tf_saved_model.index_path = [\"raw_detection_scores\"]}, result4 = {tf_saved_model.index_path = [\"detection_scores\"]}, result5 = {tf_saved_model.index_path = [\"raw_detection_boxes\"]}, result6 = {tf_saved_model.index_path = [\"detection_multiclass_scores\"]}, result7 = {tf_saved_model.index_path = [\"detection_anchor_indices\"]}, sym_name = \"main\", tf.entry_function = {control_outputs = \"\", inputs = \"serving_default_input_tensor:0\", outputs = \"StatefulPartitionedCall:5,StatefulPartitionedCall:1,StatefulPartitionedCall:2,StatefulPartitionedCall:7,StatefulPartitionedCall:4,StatefulPartitionedCall:6,StatefulPartitionedCall:3,StatefulPartitionedCall:0\"}, tf_saved_model.exported_names = [\"serving_default\"], type = (tensor<1x?x?x3xui8>) -> (tensor<1xf32>, tensor<1x?x?xf32>, tensor<1x?xf32>, tensor<1x85250x12xf32>, tensor<1x?xf32>, tensor<1x85250x4xf32>, tensor<1x?x?xf32>, tensor<1x?xf32>)} : () -> ()\r\n\r\n\r\n(tf24_nightly) C:\\Users\\alfarok\\Desktop>\r\n```\r\n", "comments": ["@alfarok Currently, we do not support input shape overriding from TFLite Converter V2 API. If you want to use input shape overriding, you need to stick with TFLite Converter V1 API instead. For example,\r\n\r\n```\r\nconverter = tf.compat.v1.lite.TFLiteConverter.from_saved_model(\r\n        saved_model_dir, input_arrays=['inputA'], input_shapes={'inputA': [1, 640, 640, 1]})\r\n```", "@abattery I see, so if my original TensorFlow Core model expects an input shape of `(1, None, None, 3)`, the TFLite model will always return an input shape of `(1, 1, 1, 3)`.  Updating the Core model to a fixed size should fix the issue and allow me to use the V2 API?  \r\n\r\nAlso, I was under the impression that the new TFLite converter was required to convert SSD models due to improved operator support.  Is this not the case?", "I keep running into issues with either conversion method, probably because the base model which is my input layer has dynamic dimensions (1, None, None, 3).  I believe the TFLite Converter V1 API only supports dynamic values for the first dimension.  \r\nI now have been trying to wrap the model with a new fixed input layer (1, 640, 640, 3) to fix the issue.  [This reply](https://github.com/tensorflow/models/issues/8872#issuecomment-662160081) on a similar issue was helpful in setting that up.\r\n\r\nUnfortunately, I am seeing something similar to what I was seeing before with the CLI, it runs for a while then stops with no output file.  This is the last line of the output:\r\n```\r\n...\r\n%441 = \"tfl.concatenation\"(%436, %440, %438) {axis = 2 : i32, fused_activation_function = \"NONE\"} : (tensor<1x?x?xf32>, tensor<1x?x1xf32>, tensor<1x?x1xf32>) -> tensor<1x?x?xf32>\r\n  \"std.return\"(%441) : (tensor<1x?x?xf32>) -> ()\r\n}) {sym_name = \"main\", tf.entry_function = {control_outputs = \"\", inputs = \"input_1\", outputs = \"Identity\"}, type = (tensor<1x640x640x3xf32>) -> tensor<1x?x?xf32>} : () -> ()\r\n```", "@alfarok Instead of wrapping, is it possible to modify the original model to have a fixed size?", "@abattery The base model I am using is `ssd_resnet50_v1_fpn_640x640_coco17_tpu-8` from the model zoo.  I believe the input shape for this model is (1, None, None, 3).\r\n\r\n![image](https://user-images.githubusercontent.com/13341935/92043349-e777b900-ed49-11ea-96cf-8f3c6f77e3b8.png)\r\n", "Did you enable an option for select TF operators? The above conversion error seems related to operator coverage problem.\r\n\r\nhttps://www.tensorflow.org/lite/guide/ops_select", "I would rather not have to pull in the core TensorFlow runtime at all if possible as I am working with a slim size requirement.  I have a working version using efficientDet as a base instead and is much smaller.  @abattery thanks for your assistance and suggestions!"]}, {"number": 42872, "title": "ValueError: Unable to save the object (Saving a Keras.model)", "body": "**System information**\r\n- Have I written custom code (as opposed to using a stock example script provided in TensorFlow): Yes\r\n- OS Platform and Distribution (e.g., Linux Ubuntu 16.04): Ubuntu 20.04\r\n- TensorFlow installed from (source or binary): pip\r\n- TensorFlow version (use command below): at least 2.2.0 and 2.3.0.\r\n- Python version: 3.7.9\r\n\r\n**Describe the current behavior**\r\nModel saving crashes after `model.fit` is called:\r\n```\r\nValueError: Unable to save the object {'loss': <function f at 0x7fc4e9f5cc20>, 'pred': None, 'acc': None} (a dictionary wrapper constructed automatically on attribute assignment). The wrapped dictionary was modified outside the wrapper (its final value was {'loss': <function f at 0x7fc4e9f5cc20>, 'pred': None, 'acc': None}, its value when a checkpoint dependency was added was None), which breaks restoration on object creation.\r\n```\r\n\r\n**Describe the expected behavior**\r\nModel gets saved without crash (similar to calling `model.save` before first call of `model.fit`)\r\n\r\n**Standalone code to reproduce the issue**\r\n```[python]\r\n# TensorFlow and tf.keras\r\nimport tensorflow as tf\r\nfrom tensorflow import keras\r\nimport tensorflow.keras.backend as K\r\nfrom tensorflow.keras.callbacks import ModelCheckpoint\r\n\r\nprint(tf.__version__)\r\n\r\nfashion_mnist = keras.datasets.fashion_mnist\r\n\r\n\r\n# load data and create inputs\r\n(train_images, train_labels), (test_images, test_labels) = fashion_mnist.load_data()\r\n\r\n\r\ndef group(img, gt):\r\n    return {'img': img}, {'gt': gt}\r\n\r\n\r\ntrain_data = tf.data.Dataset.from_tensor_slices((train_images, train_labels)).batch(1).map(group)\r\ntest_data = tf.data.Dataset.from_tensor_slices((test_images, test_labels)).batch(1).map(group)\r\n\r\nactual_inputs = {'img': keras.layers.Input((28, 28), dtype='int32', name='img')}\r\nactual_targets = {'gt': keras.layers.Input(shape=(1,), dtype='int32', name='gt')}\r\n\r\n# Give access to inputs and targets to the network by joining all available data\r\n# this is required for setting up a loss that requires multiple inputs (e.g. ctc)\r\n# here we just create a cross entropy loss\r\ninputs = {**actual_inputs, **actual_targets}\r\n\r\n# create the actual model\r\nflatten_layer = keras.layers.Flatten()\r\ndense_layer = keras.layers.Dense(10)\r\nflattened = flatten_layer(K.expand_dims(K.cast(inputs['img'], dtype='float32')) / 255)\r\noutputs = {'pred': dense_layer(flattened)}\r\n\r\n# create losses and metric as 'outputs' of the network\r\nlosses = {'loss': tf.keras.layers.Lambda(lambda x: tf.keras.metrics.sparse_categorical_crossentropy(*x, from_logits=True),\r\n                                       name='loss')((inputs['gt'], outputs['pred']))}\r\nmetrics = {'acc': tf.keras.layers.Lambda(lambda x: tf.keras.metrics.sparse_categorical_crossentropy(*x), name='acc')(\r\n        (inputs['gt'], outputs['pred']))}\r\noutputs = {**outputs, **losses, **metrics}\r\n\r\n# create the model\r\nmodel = keras.Model(inputs=inputs, outputs=outputs)\r\n\r\n\r\n# compile the model but with a dummy loss that just returns the 'output' loss\r\n# the same goes for the metric\r\ndef f(t, p):\r\n    return p\r\n\r\n# compile the model\r\n# since we already comuted the loss as output, we can just forward the loss (function f)\r\nmodel.compile(optimizer='Adam', loss={k: f for k, _ in losses.items()}, metrics={k: f for k, _ in metrics.items()})\r\n\r\n\r\n# Saving the model before calling fit works\r\nmodel.save('test')\r\n\r\n\r\n# regroup adds a dummy output for every loss/metric so that they get mapped and called correctly\r\ndef regroup(inputs, outputs):\r\n    return {**inputs, **outputs}, \\\r\n           {l: [0] for l, v in {**losses, **metrics}.items()}\r\n\r\n\r\n# the model is training, but saving is not possible, e.g. in a ModelCheckpoint\r\nmodel.fit(train_data.map(regroup), validation_data=test_data.map(regroup), steps_per_epoch=1, callbacks=[ModelCheckpoint('model')])\r\n```\r\n\r\n**Other info / logs** Include any logs or source code that would be helpful to\r\nI digged a bit deeper into the code. The problem is, that `model.loss` gets changed during `model.fit` here:\r\n(line 64: `struct = map_missing_dict_keys(outputs, struct)`)\r\n\r\nStacktrace\r\n```\r\n_conform_to_outputs, compile_utils.py:64\r\nbuild, compile_utils.py:139\r\n__call__, compile_utils.py:187\r\ntrain_step, training.py:749\r\nrun_step, training.py:789\r\nwrapper, api.py:275\r\n_call_for_each_replica, distribute_lib.py:2945\r\ncall_for_each_replica, distribute_lib.py:2585\r\nrun, distribute_lib.py:1211\r\nstep_function, training.py:796\r\ntrain_function, training.py:806\r\nfit, training.py:1098\r\n```\r\n\r\n`struct` is the same dict as `model.loss`, `map_to_output_names` returns the identical object (no copy), `map_missing_dict_keys` changes `struct` and thus `model.loss`. If I manually create a copy of `struct` saving works flawlessly (possible fix)\r\n\r\n", "comments": ["I am able to replicate the issue reported, please find the [gist here](https://colab.research.google.com/gist/Saduf2019/9349b1138c40303cd941077f740635c3/untitled405.ipynb)", "The commit that @ChWick has listed here fixes this issue for me. Can we get this pulled in?", "As a workaround, I added the following callback (first callback in list):\r\n```python\r\nimport tensorflow.keras.callbacks as cb\r\n\r\n\r\n# See https://github.com/tensorflow/tensorflow/issues/42872\r\nclass TensorflowFix(cb.Callback):\r\n    def __init__(self):\r\n        super(TensorflowFix, self).__init__()\r\n        self._supports_tf_logs = True\r\n        self._backup_loss = None\r\n\r\n    def on_train_begin(self, logs=None):\r\n        self._backup_loss = {**self.model.loss}\r\n\r\n    def on_train_batch_end(self, batch, logs=None):\r\n        self.model.loss = self._backup_loss\r\n```\r\n\r\nHacky, but works...", "Has there been any update on this? We've been able to get it to work with the workaround above adapted to the `save` step, but even as of 2.4.1 we're still hitting this issue. \r\n\r\nHere's a simple gist reproducing the issue: [code](https://gist.github.com/zachary-jablons-okcupid/b81629945bd930c1a6507633df40088f), [output](https://gist.github.com/zachary-jablons-okcupid/843cfbaa888bb20385fdbae00571e019) in TF 2.1 (works fine) and [output](https://gist.github.com/560df2201b5a3b1fe6c03989c60b9b08) in TF 2.4 (fails at the `save` step). \r\n\r\nThis is a common usecase for us and while the workarounds work, we'd prefer not to need them.", "I'm able to run your code successfully and the model is getting saved in Tf Nightly 2.6 version, please find the gist [here](https://colab.research.google.com/gist/sachinprasadhs/891b835fb809b5151f2adc3fc467480d/42872.ipynb). Thanks!", "Closing this issue since the error is resolved in Tf Nightly version, feel free to reopen. Thanks!", "Are you satisfied with the resolution of your issue?\n<a href=\"https://docs.google.com/forms/d/e/1FAIpQLSfaP12TRhd9xSxjXZjcZFNXPGk4kc1-qMdv3gc6bEP90vY1ew/viewform?entry.85265664=Yes&entry.2137816233=https://github.com/tensorflow/tensorflow/issues/42872\">Yes</a>\n<a href=\"https://docs.google.com/forms/d/e/1FAIpQLSfaP12TRhd9xSxjXZjcZFNXPGk4kc1-qMdv3gc6bEP90vY1ew/viewform?entry.85265664=No&entry.2137816233=https://github.com/tensorflow/tensorflow/issues/42872\">No</a>\n"]}, {"number": 42871, "title": "Add ImageProjectiveTransform XLA kernel", "body": "As per comment https://github.com/tensorflow/tensorflow/pull/41365#issuecomment-658818273, cc @tanzhenyu for visibility.", "comments": ["@tanzhenyu I think we need an XLA expert to review this. Can you find one? Also, I find the speed does not improve (or even slower) for XLA ops. So maybe there might be some improvement for my handcrafted kernel. Another thought is that, we can probably turn this op into pure Python. I can do further performance profile if you think this is a choice. Thank you!", "From XLA discussion: seems this is not desired given the gathering logic would be expensive.", "@WindQAQ  Can you please check @tanzhenyu's comments and keep us posted ? Thanks!", "@tanzhenyu Do I have to do something specific on the implementation? Thank you!", "> @tanzhenyu Do I have to do something specific on the implementation? Thank you!\r\n\r\nWe can close this if you don't mind. The main reason is that gather takes too much cycles.", "Yep, sure. As it doesn't improve the performance, let me close it."]}, {"number": 42870, "title": "[INTEL MKL] Remove nGraph build support", "body": "This PR removes now-deprecated direct integration of nGraph in TensorFlow. nGraph integration is still available via the external ngraph-bridge at:\r\nhttps://github.com/tensorflow/ngraph-bridge/\r\n\r\nor via `pip install ngraph-tensorflow-bridge`.\r\n\r\nSigned-off-by: Abhishek Kulkarni <abhishek.kulkarni@intel.com>", "comments": ["@adk9  Can you please resolve conflicts? Thanks!", "Just for future reference, would you mind posting the error log that says `nlohmann_json_lib dep` is  needed by `google-cloud-cpp` (in d2a19ace23da5732796886b3f9020eae199cfb1)? Thank you very much! ", "@adk9 can you please check ubuntu sanity failures ?", "> @adk9 can you please check ubuntu sanity failures ?\r\n\r\nSorry about that! I pushed a fix to address the CI sanity failures.\r\n\r\n> Just for future reference, would you mind posting the error log that says nlohmann_json_lib dep is needed by google-cloud-cpp (in d2a19ac)? Thank you very much!\r\n\r\nI noticed that google-cloud-cpp was bumped to 1.17.1 (0a5e847646) after I opened this PR, and it seems to have a dependency now on `nlohmann_json_lib` which was originally an nGraph dependency. I hoisted it out preemptively but didn't actually run into any errors or have an error log handy.", "@adk9  Can you please resolve conflicts? Thanks!", "@adk9 Can you please resolve conflicts? Thanks!", "@adk9 Can you please resolve conflicts? Thanks!", "@adk9 So sorry for the inconvenience. We have had problems with our automatic code import for this PR. After the merge conflicts are resolved, I'll try to pull this PR in manually this time.", "> @adk9 So sorry for the inconvenience. We have had problems with our automatic code import for this PR. After the merge conflicts are resolved, I'll try to pull this PR in manually this time.\r\n\r\nNo worries, I've fixed the conflicts. \ud83d\udc4d "]}, {"number": 42869, "title": "Tensorflow warmup dataset is not used by tensorflow serving", "body": "We have 2 models in production in dockers with tensorflow serving. We have generated a warmup dataset for one of the models. Here are the docker logs:\r\n\r\n```\r\ntensorflow_serving/servables/tensorflow/saved_model_warmup.cc:117] Starting to read warmup data for model at /models/model2/5/assets.extra/tf_serving_warmup_requests with model-warmup-options\r\n\r\n2020-08-12 02:27:51.998915: I tensorflow_serving/servables/tensorflow/saved_model_warmup.cc:166] Finished reading warmup data for model at /models/model2/5/assets.extra/tf_serving_warmup_requests. Number of warmup records read: 1000. Elapsed time (microseconds): 1293140.\r\n\r\n2020-08-12 02:27:52.003127: I tensorflow_serving/core/loader_harness.cc:87] Successfully loaded servable version {name: model2 version: 5}\r\n\r\n2020-08-12 02:27:52.005692: I tensorflow_serving/model_servers/server_core.cc:462] Adding/updating models.\r\n\r\n2020-08-12 02:27:52.005711: I tensorflow_serving/model_servers/server_core.cc:573] (Re-)adding model: model1\r\n\r\n2020-08-12 02:27:52.005734: I tensorflow_serving/model_servers/server_core.cc:573] (Re-)adding model: model2\r\n\r\n2020-08-12 02:27:52.008151: I tensorflow_serving/model_servers/server.cc:353] Running gRPC ModelServer at 0.0.0.0:8500 ...\r\n\r\n[warn] getaddrinfo: address family for nodename not supported\r\n\r\n2020-08-12 02:27:52.012942: I tensorflow_serving/model_servers/server.cc:373] Exporting HTTP/REST API at:localhost:8501 ...\r\n\r\n[evhttp_server.cc : 238] NET_LOG: Entering the event loop ...\r\n```\r\n\r\nHowever, when I look in prometheus logs (http://localhost:8501/monitoring/prometheus/metrics) I see the following:\r\n\r\n```\r\n# TYPE :tensorflow:serving:model_warmup_latency histogram\r\n:tensorflow:serving:model_warmup_latency_bucket{model_path=\"/models/model2/5\",status=\"Out of range: Read less bytes than requested\",le=\"10\"} 0\r\n:tensorflow:serving:model_warmup_latency_bucket{model_path=\"/models/model2/5\",status=\"Out of range: Read less bytes than requested\",le=\"18\"} 0\r\n:tensorflow:serving:model_warmup_latency_bucket{model_path=\"/models/model2/5\",status=\"Out of range: Read less bytes than requested\",le=\"32.4\"} 0\r\n:tensorflow:serving:model_warmup_latency_bucket{model_path=\"/models/model2/5\",status=\"Out of range: Read less bytes than requested\",le=\"58.32\"} 0\r\n:tensorflow:serving:model_warmup_latency_bucket{model_path=\"/models/model2/5\",status=\"Out of range: Read less bytes than requested\",le=\"104.976\"} 0\r\n:tensorflow:serving:model_warmup_latency_bucket{model_path=\"/models/model2/5\",status=\"Out of range: Read less bytes than requested\",le=\"188.957\"} 0\r\n:tensorflow:serving:model_warmup_latency_bucket{model_path=\"/models/model2/5\",status=\"Out of range: Read less bytes than requested\",le=\"340.122\"} 0\r\n:tensorflow:serving:model_warmup_latency_bucket{model_path=\"/models/model2/5\",status=\"Out of range: Read less bytes than requested\",le=\"612.22\"} 0\r\n:tensorflow:serving:model_warmup_latency_bucket{model_path=\"/models/model2/5\",status=\"Out of range: Read less bytes than requested\",le=\"1102\"} 0\r\n:tensorflow:serving:model_warmup_latency_bucket{model_path=\"/models/model2/5\",status=\"Out of range: Read less bytes than requested\",le=\"1983.59\"} 0\r\n:tensorflow:serving:model_warmup_latency_bucket{model_path=\"/models/model2/5\",status=\"Out of range: Read less bytes than requested\",le=\"3570.47\"} 0\r\n:tensorflow:serving:model_warmup_latency_bucket{model_path=\"/models/model2/5\",status=\"Out of range: Read less bytes than requested\",le=\"6426.84\"} 0\r\n:tensorflow:serving:model_warmup_latency_bucket{model_path=\"/models/model2/5\",status=\"Out of range: Read less bytes than requested\",le=\"11568.3\"} 0\r\n:tensorflow:serving:model_warmup_latency_bucket{model_path=\"/models/model2/5\",status=\"Out of range: Read less bytes than requested\",le=\"20823\"} 0\r\n:tensorflow:serving:model_warmup_latency_bucket{model_path=\"/models/model2/5\",status=\"Out of range: Read less bytes than requested\",le=\"37481.3\"} 0\r\n:tensorflow:serving:model_warmup_latency_bucket{model_path=\"/models/model2/5\",status=\"Out of range: Read less bytes than requested\",le=\"67466.4\"} 0\r\n:tensorflow:serving:model_warmup_latency_bucket{model_path=\"/models/model2/5\",status=\"Out of range: Read less bytes than requested\",le=\"121440\"} 0\r\n:tensorflow:serving:model_warmup_latency_bucket{model_path=\"/models/model2/5\",status=\"Out of range: Read less bytes than requested\",le=\"218591\"} 0\r\n:tensorflow:serving:model_warmup_latency_bucket{model_path=\"/models/model2/5\",status=\"Out of range: Read less bytes than requested\",le=\"393464\"} 0\r\n:tensorflow:serving:model_warmup_latency_bucket{model_path=\"/models/model2/5\",status=\"Out of range: Read less bytes than requested\",le=\"708235\"} 0\r\n:tensorflow:serving:model_warmup_latency_bucket{model_path=\"/models/model2/5\",status=\"Out of range: Read less bytes than requested\",le=\"1.27482e+06\"} 0\r\n:tensorflow:serving:model_warmup_latency_bucket{model_path=\"/models/model2/5\",status=\"Out of range: Read less bytes than requested\",le=\"2.29468e+06\"} 1\r\n:tensorflow:serving:model_warmup_latency_bucket{model_path=\"/models/model2/5\",status=\"Out of range: Read less bytes than requested\",le=\"4.13043e+06\"} 1\r\n:tensorflow:serving:model_warmup_latency_bucket{model_path=\"/models/model2/5\",status=\"Out of range: Read less bytes than requested\",le=\"7.43477e+06\"} 1\r\n:tensorflow:serving:model_warmup_latency_bucket{model_path=\"/models/model2/5\",status=\"Out of range: Read less bytes than requested\",le=\"1.33826e+07\"} 1\r\n:tensorflow:serving:model_warmup_latency_bucket{model_path=\"/models/model2/5\",status=\"Out of range: Read less bytes than requested\",le=\"2.40887e+07\"} 1\r\n:tensorflow:serving:model_warmup_latency_bucket{model_path=\"/models/model2/5\",status=\"Out of range: Read less bytes than requested\",le=\"4.33596e+07\"} 1\r\n:tensorflow:serving:model_warmup_latency_bucket{model_path=\"/models/model2/5\",status=\"Out of range: Read less bytes than requested\",le=\"7.80473e+07\"} 1\r\n:tensorflow:serving:model_warmup_latency_bucket{model_path=\"/models/model2/5\",status=\"Out of range: Read less bytes than requested\",le=\"1.40485e+08\"} 1\r\n:tensorflow:serving:model_warmup_latency_bucket{model_path=\"/models/model2/5\",status=\"Out of range: Read less bytes than requested\",le=\"2.52873e+08\"} 1\r\n:tensorflow:serving:model_warmup_latency_bucket{model_path=\"/models/model2/5\",status=\"Out of range: Read less bytes than requested\",le=\"4.55172e+08\"} 1\r\n:tensorflow:serving:model_warmup_latency_bucket{model_path=\"/models/model2/5\",status=\"Out of range: Read less bytes than requested\",le=\"8.19309e+08\"} 1\r\n:tensorflow:serving:model_warmup_latency_bucket{model_path=\"/models/model2/5\",status=\"Out of range: Read less bytes than requested\",le=\"1.47476e+09\"} 1\r\n:tensorflow:serving:model_warmup_latency_bucket{model_path=\"/models/model2/5\",status=\"Out of range: Read less bytes than requested\",le=\"+Inf\"} 1\r\n:tensorflow:serving:model_warmup_latency_sum{model_path=\"/models/model2/5\",status=\"Out of range: Read less bytes than requested\"} 1.29314e+06\r\n:tensorflow:serving:model_warmup_latency_count{model_path=\"/models/model2/5\",status=\"Out of range: Read less bytes than requested\"} 1\r\n```\r\n\r\nThe question is: can I conclude that the warmup dataset was successfully consumed by tensorflow-serving? It does not seem so if I understand the Prometheus logs correctly.\r\n\r\nThank you!\r\n\r\n\r\n**System information**\r\n- Windows 10 (1909)\r\n- Docker desktop: 2.3.0.4\r\n- TensorFlow installed from binary\r\n- TensorFlow version: v2.2.0-rc4-8-g2b96f3662b 2.2.0\r\n- Tensorflow serving: tensorflow/serving:2.2.0\r\n- Python version: 3.7.7\r\n- CUDA/cuDNN version: Cuda compilation tools, release 10.1, V10.1.105", "comments": ["https://stackoverflow.com/questions/63411261/how-to-ensure-that-tensorflow-warmup-dataset-for-successfully-consumed-by-tensor", "@evodopyanov \r\n\r\nCan you please go through the[ link1](https://stackoverflow.com/questions/63411261/how-to-ensure-that-tensorflow-warmup-dataset-for-successfully-consumed-by-tensor), [link2](https://www.tensorflow.org/tfx/serving/saved_model_warmup) and see if it helps you. Thanks!", "> @evodopyanov\r\n> \r\n> Can you please go through the[ link1](https://stackoverflow.com/questions/63411261/how-to-ensure-that-tensorflow-warmup-dataset-for-successfully-consumed-by-tensor), [link2](https://www.tensorflow.org/tfx/serving/saved_model_warmup) and see if it helps you. Thanks!\r\n\r\nThank you for your answer @ravikyram.\r\n\r\nThe first link is my own post on stackoverflow (no answers yet).\r\nThe second link is a TF doc that I have already followed to create this warmup dataset.", "@evodopyanov \r\n\r\nThis issue is more suitable for TensorFlow Serving repo. Please post it on Serving repo from [here.](https://github.com/tensorflow/serving/issues) Thanks!", "> @evodopyanov\r\n> \r\n> This issue is more suitable for TensorFlow Serving repo. Please post it on Serving repo from [here.](https://github.com/tensorflow/serving/issues) Thanks!\r\n\r\n[Done](https://github.com/tensorflow/serving/issues/1728)\r\n\r\nThanks!", "@evodopyanov \r\n\r\nCan we track the issue in Tensorflow Serving repo and close here. Thanks!"]}, {"number": 42868, "title": "Delete ADOPTERS.md", "body": "", "comments": []}, {"number": 42867, "title": "Converting keras (`.h5`) models to `.tflite` fails with error `Windows fatal exception: access violation`", "body": "**System information**\r\n- OS Platform and Distribution: Windows 10, Version 1909\r\n- TensorFlow installed from: binary\r\n- TensorFlow version (or github SHA if from source): 2.2.0\r\n\r\n\r\n**Command used to run the converter or code if you\u2019re using the Python API**\r\n\r\nBasically I just modified the example from https://www.tensorflow.org/lite/convert/python_api#converting_a_keras_model_.\r\n\r\n```\r\nimport tensorflow as tf\r\n\r\n# Load the model.\r\nmodel = tf.keras.models.load_model(\"model.h5\")\r\n\r\n# Convert the model.\r\nconverter = tf.lite.TFLiteConverter.from_keras_model(model)\r\ntflite_model = converter.convert()\r\n\r\n# Save the TF Lite model.\r\nwith tf.io.gfile.GFile('model.tflite', 'wb') as f:\r\n  f.write(tflite_model)\r\n```\r\n\r\n**The output from the converter invocation**\r\n\r\n```\r\n2020-09-01 17:24:41.539597: I tensorflow/stream_executor/platform/default/dso_loader.cc:44] Successfully opened dynamic library cudart64_101.dll\r\n2020-09-01 17:24:43.716706: I tensorflow/stream_executor/platform/default/dso_loader.cc:44] Successfully opened dynamic library nvcuda.dll\r\n2020-09-01 17:24:44.420857: I tensorflow/core/common_runtime/gpu/gpu_device.cc:1561] Found device 0 with properties:\r\npciBusID: 0000:01:00.0 name: GeForce GTX 860M computeCapability: 5.0\r\ncoreClock: 1.0195GHz coreCount: 5 deviceMemorySize: 2.00GiB deviceMemoryBandwidth: 74.65GiB/s\r\n2020-09-01 17:24:44.427385: I tensorflow/stream_executor/platform/default/dso_loader.cc:44] Successfully opened dynamic library cudart64_101.dll\r\n2020-09-01 17:24:44.433460: I tensorflow/stream_executor/platform/default/dso_loader.cc:44] Successfully opened dynamic library cublas64_10.dll\r\n2020-09-01 17:24:44.444426: I tensorflow/stream_executor/platform/default/dso_loader.cc:44] Successfully opened dynamic library cufft64_10.dll\r\n2020-09-01 17:24:44.448774: I tensorflow/stream_executor/platform/default/dso_loader.cc:44] Successfully opened dynamic library curand64_10.dll\r\n2020-09-01 17:24:44.463120: I tensorflow/stream_executor/platform/default/dso_loader.cc:44] Successfully opened dynamic library cusolver64_10.dll\r\n2020-09-01 17:24:44.468504: I tensorflow/stream_executor/platform/default/dso_loader.cc:44] Successfully opened dynamic library cusparse64_10.dll\r\n2020-09-01 17:24:44.482707: I tensorflow/stream_executor/platform/default/dso_loader.cc:44] Successfully opened dynamic library cudnn64_7.dll\r\n2020-09-01 17:24:44.486066: I tensorflow/core/common_runtime/gpu/gpu_device.cc:1703] Adding visible gpu devices: 0\r\n2020-09-01 17:24:44.489318: I tensorflow/core/platform/cpu_feature_guard.cc:143] Your CPU supports instructions that this TensorFlow binary was not compiled to use: AVX2\r\n2020-09-01 17:24:44.502237: I tensorflow/compiler/xla/service…
s=2.2.4-tf, tensorflow=2.1.0, python=3.7.4 on windows 10**\r\n\r\nand\r\n\r\n**keras=2.2.0, tensorflow-gpu=1.9.0, python=3.5.2 on Ubuntu 16.04**\r\n\r\n\r\n\r\nI hope one could help me. Thank you. ", "comments": ["@bit-scientist \r\nI ran the code shared and face different issue, please find [gist here](https://colab.research.google.com/gist/Saduf2019/bd987d4a6628500bb61d66951acb4a35/untitled402.ipynb).\r\nPlease share complete code to replicate the issue reported or is possible share a colab gist with the error faced.", "that error is saying that it cannot find a filelist `more_56_fold_1_train.txt`, it's obvious, because this is on my local machine. And its content is like below:\r\n```\r\nmore_Abnormal_05\t1001\tD:path/to/images/v05/train/abnormal/1001_8_Rel_A_05_TB10.png\tD:path/to/images/train/u06/train/abnormal/1001_8 Rel A_06_TB10.png\r\nmore_Abnormal_05\t1001\tD:path/to/images/v05/train/abnormal/1001_8_Rel_A_05_TB10_center.png\tD:path/to/images/u06/train/abnormal/1001_8 Rel A_06_TB10_center.png\r\nmore_Abnormal_05\t1001\tD:path/to/images/v05/train/abnormal/1001_8_Rel_A_05_TB10_left_bottom.png\tD:path/to/images/u06/train/abnormal/1001_8 Rel A_06_TB10_left_bottom.png\r\n...\r\nmore_Normal_05\t99\tD:path/to/images/v05/train/normal/99_7_Rel_Z_05_TB10_left_top.png\tD:path/to/images/u06/train/normal/99_7 Rel Z_06_TB10_left_top.png\r\nmore_Normal_05\t99\tD:path/to/images/v05/train/normal/99_7_Rel_Z_05_TB10_right_bottom.png\tD:path/to/images/u06/train/normal/99_7 Rel Z_06_TB10_right_bottom.png\r\nmore_Normal_05\t99\tD:path/to/images/v05/train/normal/99_7_Rel_Z_05_TB10_right_top.png\tD:path/to/images/u06/train/normal/99_7 Rel Z_06_TB10_right_top.png\r\n```\r\nThere are over 13.9k images for each `train_filelist` and around ~0.5k images for `val_filelist`. The number of images are all different but almost equal to the amount mentioned (~13.9k, ~0.5k)", "@bit-scientist Can you please share a simple standalone code to reproduce the error? Standalone code results in faster resolution of your issue. Also, try with recent TF version and let us know whether the issue persists with recent TF version. Thanks!", "This issue has been automatically marked as stale because it has not had recent activity. It will be closed if no further activity occurs. Thank you.\n", "Closing as stale. Please reopen if you'd like to work on this further.\n"]}, {"number": 42854, "title": "Try running", "body": "==> I try pip install tensorflow==1.5.0 \r\nit was not working, and then I tried pip install tensorflow-gpu==1.5.0 \r\nit was working. Thanks.\r\nTry running\r\npip uninstall tensorflow\r\nAnd then\r\npip install tensorflow==1.5\r\n\r\nEDIT\r\njust to give credit, solution is from here:\r\nhttps://stackoverflow.com/questions/49094597/illegal-instruction-core-dumped-after-running-import-tensorflow\r\n\r\n_Originally posted by @konnerthg in https://github.com/tensorflow/tensorflow/issues/17411#issuecomment-370393493_", "comments": ["@kosohae \r\n\r\nThis may be due to conflicts in dependencies.Always it would be better to create an virtual environment and install tensorflow .\r\nTensorflow 1.5 version is too old. It will be advisable to use latest TF versions like 2.3. There were lots of performance improvements in the latest versions. Please, close this issue as i do not see any issue now.Thanks!", "This issue has been automatically marked as stale because it has not had recent activity. It will be closed if no further activity occurs. Thank you.\n", "Closing as stale. Please reopen if you'd like to work on this further.\n", "Are you satisfied with the resolution of your issue?\n<a href=\"https://docs.google.com/forms/d/e/1FAIpQLSfaP12TRhd9xSxjXZjcZFNXPGk4kc1-qMdv3gc6bEP90vY1ew/viewform?entry.85265664=Yes&entry.2137816233=https://github.com/tensorflow/tensorflow/issues/42854\">Yes</a>\n<a href=\"https://docs.google.com/forms/d/e/1FAIpQLSfaP12TRhd9xSxjXZjcZFNXPGk4kc1-qMdv3gc6bEP90vY1ew/viewform?entry.85265664=No&entry.2137816233=https://github.com/tensorflow/tensorflow/issues/42854\">No</a>\n"]}, {"number": 42853, "title": "Group Conv3D malloc abort trap 6 ", "body": "I am experiencing the following error on MacOS 10.15 (on two different machines). The same code executes without a problem in Colab.\r\n```\r\npython(19819,0x111fa9dc0) malloc: Incorrect checksum for freed object 0x7fbfe429a5e0: probably modified after being freed.\r\nCorrupt value: 0xbd67c765bd67c765\r\npython(19819,0x111fa9dc0) malloc: *** set a breakpoint in malloc_error_break to debug\r\nAbort trap: 6\r\n```\r\n\r\n\r\n**System information**\r\n- Python 3.6.9\r\n- Tensorflow 2.3.0 (tf.version.GIT_VERSION = v2.3.0-rc2-23-gb36436b087)\r\n- MacOS 10.15.6\r\n\r\n**Describe the current behavior**\r\nScript causes seg fault or abort with malloc error whenever `group`. > 1 in the Conv3D args. The issue seems to arise at the first call of `tape.gradient`. Forward calls `model(x)` cause no issues.\r\n\r\n**Describe the expected behavior**\r\nExpect gradients computation. \r\n\r\n**Standalone code to reproduce the issue**\r\n```\r\nimport tensorflow as tf\r\nimport numpy as np\r\n\r\n\r\ninput_shape = (4,12,12,12,4)\r\nfilters = 4\r\ngroups = 2\r\n\r\nmodel = tf.keras.layers.Conv3D(filters, kernel_size=3, strides=1, use_bias=False, groups=groups, padding='same')\r\n\r\n\r\nfor i in range(3):\r\n    with tf.GradientTape() as tape:\r\n        x = np.random.rand(*input_shape).astype(np.float32)\r\n        y = np.random.randint(2, size=(input_shape[0])).astype(np.int32)\r\n\r\n        out = model(x)\r\n        out = tf.reduce_mean(out, [1,2,3,4])\r\n\r\n        loss = tf.keras.losses.binary_crossentropy(y, out, from_logits=True)\r\n\r\n    grads = tape.gradient(loss, model.trainable_variables)\r\n    # raises error here\r\n\r\n```\r\n", "comments": ["can confirm. one week of searching for errors in my code, just to find exactly that.\r\n\r\nerrors can wildly vary. but all seem to occur on the c-level. \r\n", "System Information:\r\ndebian buster\r\npython 3.7.3\r\ntensorflow 2.3.1", "bump.\r\ncan we get an update on this?", "@kamenbliznashki It looks like you are using an older Version of Tensorflow. Many bugs have been fixed in the latest version. Could you please execute your code using Latest Version 2.6.0 and let us know if the issue still persists? I tried to run the code on colab and faced ` InvalidArgumentError ` please find the gist [here](https://colab.research.google.com/gist/sushreebarsa/286ec3311b59efb400c2cd326be3f3de/untitled206.ipynb) for reference. Thanks!", "This issue has been automatically marked as stale because it has no recent activity. It will be closed if no further activity occurs. Thank you.\n", "Closing as stale. Please reopen if you'd like to work on this further.\n", "Are you satisfied with the resolution of your issue?\n<a href=\"https://docs.google.com/forms/d/e/1FAIpQLSfaP12TRhd9xSxjXZjcZFNXPGk4kc1-qMdv3gc6bEP90vY1ew/viewform?entry.85265664=Yes&entry.2137816233=https://github.com/tensorflow/tensorflow/issues/42853\">Yes</a>\n<a href=\"https://docs.google.com/forms/d/e/1FAIpQLSfaP12TRhd9xSxjXZjcZFNXPGk4kc1-qMdv3gc6bEP90vY1ew/viewform?entry.85265664=No&entry.2137816233=https://github.com/tensorflow/tensorflow/issues/42853\">No</a>\n"]}, {"number": 42852, "title": "Save checkpoints and continue to training", "body": "https://www.tensorflow.org/tutorials/keras/save_and_load\r\n\r\nI read this doc to  save checkpionts by tf.keras.callbacks.ModelCheckpoint. \r\n\r\nI want to continue to training from last checkpiont but I don't know how to do . I use these code\r\n```\r\ncheckpoint_dir = 'training'\r\ncheckpoint_path = os.path.join(checkpoint_dir,\"cp-{epoch:04d}.ckpt\")\r\ncheckpoint_path = os.path.join(checkpoint_path)\r\ncp_callback = tf.keras.callbacks.ModelCheckpoint(\r\n    filepath=checkpoint_path,\r\n    verbose=1,\r\n    save_weights_only=True,\r\n    save_freq=500,\r\n    myModel=tinydarknet)\r\n\r\nmodel.load_weights(tf.train.latest_checkpoint(checkpoint_dir))\r\nmodel.fit(\r\n    train_ds,\r\n    steps_per_epoch=TRAIN_STEPS_PER_EPOCH,\r\n    epochs=epochs,\r\n    validation_data=valid_ds,\r\n    validation_steps=VAL_STEPS_PER_EPOCH,\r\n    workers=NUM_WORKERS,\r\n    callbacks = [tboard_callback,cp_callback]\r\n)\r\n```\r\nThere is a error:\r\n```\r\nMake sure the slot variables are created under the same strategy scope. This may happen if you're restoring from a checkpoint outside the scope\r\nWARNING:tensorflow:Unresolved object in checkpoint: (root).layer_with_weights-0.bias\r\nWARNING:tensorflow:Unresolved object in checkpoint: (root).layer_with_weights-1.axis\r\nWARNING:tensorflow:Unresolved object in checkpoint: (root).layer_with_weights-1.gamma\r\nWARNING:tensorflow:Unresolved object in checkpoint: (root).layer_with_weights-1.beta\r\nWARNING:tensorflow:Unresolved object in checkpoint: (root).layer_with_weights-1.moving_mean\r\nWARNING:tensorflow:Unresolved object in checkpoint: (root).layer_with_weights-1.moving_variance\r\nWARNING:tensorflow:Unresolved object in checkpoint: (root).layer_with_weights-2.kernel\r\nWARNING:tensorflow:Unresolved object in checkpoint: (root).layer_with_weights-2.bias\r\nWARNING:tensorflow:Unresolved object in checkpoint: (root).layer_with_weights-3.axis\r\nWARNING:tensorflow:Unresolved object in checkpoint: (root).layer_with_weights-3.gamma\r\nWARNING:tensorflow:Unresolved object in checkpoint: (root).layer_with_weights-3.beta\r\nWARNING:tensorflow:Unresolved object in checkpoint: (root).layer_with_weights-3.moving_mean\r\nWARNING:tensorflow:Unresolved object in checkpoint: (root).layer_with_weights-3.moving_variance\r\nWARNING:tensorflow:Unresolved object in checkpoint: (root).layer_with_weights-4.kernel\r\nWARNING:tensorflow:Unresolved object in checkpoint: (root).layer_with_weights-4.bias\r\nWARNING:tensorflow:Unresolved object in checkpoint: (root).layer_with_weights-5.axis\r\nWARNING:tensorflow:Unresolved object in checkpoint: (root).layer_with_weights-5.gamma\r\nWARNING:tensorflow:Unresolved object in checkpoint: (root).layer_with_weights-5.beta\r\nWARNING:tensorflow:Unresolved object in checkpoint: (root).layer_with_weights-5.moving_mean\r\nWARNING:tensorflow:Unresolved object in checkpoint: (root).layer_with_weights-5.moving_variance\r\nWARNING:tensorflow:Unresolved object in checkpoint: (root).layer_with_weights-6.kernel\r\nWARNING:tensorflow:Unresolved object in checkpoint: (root).layer_with_weights-6.bias\r\nWARNING:tensorflow:Unresolved object in checkpoint: (root).layer_with_weights-7.axis\r\nWARNING:tensorflow:Unresolved object in checkpoint: (root).layer_with_weights-7.gamma\r\nWARNING:tensorflow:Unresolved object in checkpoint: (root).layer_with_weights-7.beta\r\nWARNING:tensorflow:Unresolved object in checkpoint: (root).layer_with_weights-7.moving_mean\r\nWARNING:tensorflow:Unresolved object in checkpoint: (root).layer_with_weights-7.moving_variance\r\nWARNING:tensorflow:Unresolved object in checkpoint: (root).layer_with_weights-8.kernel\r\nWARNING:tensorflow:Unresolved object in checkpoint: (root).layer_with_weights-8.bias\r\nWARNING:tensorflow:Unresolved object in checkpoint: (root).layer_with_weights-9.axis\r\nWARNING:tensorflow:Unresolved object in checkpoint: (root).layer_with_weights-9.gamma\r\nWARNING:tensorflow:Unresolved object in checkpoint: (root).layer_with_weights-9.beta\r\nWARNING:tensorflow:Unresolved object in checkpoint: (root).layer_with_weights-9.moving_mean\r\nWARNING:tensorflow:Unresolved object in checkpoint: (root).layer_with_weights-9.moving_variance\r\nWARNING:tensorflow:Unresolved object in checkpoint: (root).layer_with_weights-10.kernel\r\nWARNING:tensorflow:Unresolved object in checkpoint: (root).layer_with_weights-10.bias\r\nWARNING:tensorflow:Unresolved object in checkpoint: (root).layer_with_weights-11.axis\r\nWARNING:tensorflow:Unresolved object in checkpoint: (root).layer_with_weights-11.gamma\r\nWARNING:tensorflow:Unresolved object in checkpoint: (root).layer_with_weights-11.beta\r\nWARNING:tensorflow:Unresolved object in checkpoint: (root).layer_with_weights-11.moving_mean\r\nWARNING:tensorflow:Unresolved object in checkpoint: (root).layer_with_weights-11.moving_variance\r\nWARNING:tensorflow:Unresolved object in checkpoint: (root).layer_with_weights-12.kernel\r\nWARNING:tensorflow:Unresolved object in checkpoint: (root).layer_with_weights-12.bias\r\nWARNING:tensorflow:Unresolved object in checkpoint: (root).layer_with_weights-13.axis\r\nWARNING:tensorflow:Unresolved object in checkpoint: (root).layer_with_weights-13.gamma\r\nWARNING:tensorflow:Unresolved object in checkpoint: (root).layer_with_weights-13.beta\r\nWARNING:tensorflow:Unresolved object in checkpoint: (root).layer_with_weights-13.moving_mean\r\nWARNING:tensorflow:Unresolved object in checkpoint: (root).layer_with_weights-13.moving_variance\r\nWARNING:tensorflow:Unresolved object in checkpoint: (root).layer_with_weights-14.kernel\r\nWARNING:tensorflow:Unresolved object in checkpoint: (root).layer_with_weights-14.bias\r\nWARNING:tensorflow:Unresolved object in checkpoint: (root).layer_with_weights-15.axis\r\nWARNING:tensorflow:Unresolved object in checkpoint: (root).layer_with_weights-15.gamma\r\nWARNING:tensorflow:Unresolved object in checkpoint: (root).layer_with_weights-15.beta\r\nWARNING:tensorflow:Unresolved object in checkpoint: (root).layer_with_weights-15.moving_mean\r\nWARNING:tensorflow:Unresolved object in checkpoint: (root).layer_with_weights-15.moving_variance\r\nWARNING:tensorflow:Unresolved object in checkpoint: (root).layer_with_weights-16.kernel\r\nWARNING:tensorflow:Unresolved object in checkpoint: (root).layer_with_weights-16.bias\r\nWARNING:tensorflow:Unresolved object in checkpoint: (root).layer_with_weights-17.axis\r\nWARNING:tensorflow:Unresolved object in checkpoint: (root).layer_with_weights-17.gamma\r\nWARNING:tensorflow:Unresolved object in checkpoint: (root).layer_with_weights-17.beta\r\nWARNING:tensorflow:Unresolved object in checkpoint: (root).layer_with_weights-17.moving_mean\r\nWARNING:tensorflow:Unresolved object in checkpoint: (root).layer_with_weights-17.moving_variance\r\nWARNING:tensorflow:Unresolved object in checkpoint: (root).layer_with_weights-18.kernel\r\nWARNING:tensorflow:Unresolved object in checkpoint: (root).layer_with_weights-18.bias\r\nWARNING:tensorflow:Unresolved object in checkpoint: (root).layer_with_weights-19.axis\r\nWARNING:tensorflow:Unresolved object in checkpoint: (root).layer_with_weights-19.gamma\r\nWARNING:tensorflow:Unresolved object in checkpoint: (root).layer_with_weights-19.beta\r\nWARNING:tensorflow:Unresolved object in checkpoint: (root).layer_with_weights-19.moving_mean\r\nWARNING:tensorflow:Unresolved object in checkpoint: (root).layer_with_weights-19.moving_variance\r\nWARNING:tensorflow:Unresolved object in checkpoint: (root).layer_with_weights-20.kernel\r\nWARNING:tensorflow:Unresolved object in checkpoint: (root).layer_with_weights-20.bias\r\nWARNING:tensorflow:Unresolved object in checkpoint: (root).layer_with_weights-21.axis\r\nWARNING:tensorflow:Unresolved object in checkpoint: (root).layer_with_weights-21.gamma\r\nWARNING:tensorflow:Unresolved object in checkpoint: (root).layer_with_weights-21.beta\r\nWARNING:tensorflow:Unresolved object in checkpoint: (root).layer_with_weights-21.moving_mean\r\nWARNING:tensorflow:Unresolved object in checkpoint: (root).layer_with_weights-21.moving_variance\r\nWARNING:tensorflow:Unresolved object in checkpoint: (root).layer_with_weights-22.kernel\r\nWARNING:tensorflow:Unresolved object in checkpoint: (root).layer_with_weights-22.bias\r\nWARNING:tensorflow:Unresolved object in checkpoint: (root).layer_with_weights-23.axis\r\nWARNING:tensorflow:Unresolved object in checkpoint: (root).layer_with_weights-23.gamma\r\nWARNING:tensorflow:Unresolved object in checkpoint: (root).layer_with_weights-23.beta\r\nWARNING:tensorflow:Unresolved object in checkpoint: (root).layer_with_weights-23.moving_mean\r\nWARNING:tensorflow:Unresolved object in checkpoint: (root).layer_with_weights-23.moving_variance\r\nWARNING:tensorflow:Unresolved object in checkpoint: (root).layer_with_weights-24.kernel\r\nWARNING:tensorflow:Unresolved object in checkpoint: (root).layer_with_weights-24.bias\r\nWARNING:tensorflow:Unresolved object in checkpoint: (root).layer_with_weights-25.axis\r\nWARNING:tensorflow:Unresolved object in checkpoint: (root).layer_with_weights-25.gamma\r\nWARNING:tensorflow:Unresolved object in checkpoint: (root).layer_with_weights-25.beta\r\nWARNING:tensorflow:Unresolved object in checkpoint: (root).layer_with_weights-25.moving_mean\r\nWARNING:tensorflow:Unresolved object in checkpoint: (root).layer_with_weights-25.moving_variance\r\nWARNING:tensorflow:Unresolved object in checkpoint: (root).layer_with_weights-26.kernel\r\nWARNING:tensorflow:Unresolved object in checkpoint: (root).layer_with_weights-26.bias\r\nWARNING:tensorflow:Unresolved object in checkpoint: (root).layer_with_weights-27.axis\r\nWARNING:tensorflow:Unresolved object in checkpoint: (root).layer_with_weights-27.gamma\r\nWARNING:tensorflow:Unresolved object in checkpoint: (root).layer_with_weights-27.beta\r\nWARNING:tensorflow:Unresolved object in checkpoint: (root).layer_with_weights-27.moving_mean\r\nWARNING:tensorflow:Unresolved object in checkpoint: (root).layer_with_weights-27.moving_variance\r\nWARNING:tensorflow:Unresolved object in checkpoint: (root).layer_with_weights-28.kernel\r\nWARNING:tensorflow:Unresolved object in checkpoint: (root).layer_with_weights-28.bias\r\nWARNING:tensorflow:Unresolved object in checkpoint: (root).layer_with_weights-29.axis\r\nWARNING:tensorflow:Unresolved object in checkpoint: (root).layer_with_weights-29.gamma\r\nWARNING:tensorflow:Unresolved object in checkpoint: (root).layer_with_weights-29.beta\r\nWARNING:tensorflow:Unresolved object in checkpoint: (root).layer_with_weights-29.moving_mean\r\nWARNING:tensorflow:Unresolved object in checkpoint: (root).layer_with_weights-29.moving_variance\r\nWARNING:tensorflow:Unresolved object in checkpoint: (root).layer_with_weights-30.kernel\r\nWARNING:tensorflow:Unresolved object in checkpoint: (root).layer_with_weights-30.bias\r\nWARNING:tensorflow:Unresolved object in checkpoint: (root).layer_with_weights-31.axis\r\nWARNING:tensorflow:Unresolved object in checkpoint: (root).layer_with_weights-31.gamma\r\nWARNING:tensorflow:Unresolved object in checkpoint: (root).layer_with_weights-31.beta\r\nWARNING:tensorflow:Unresolved object in checkpoint: (root).layer_with_weights-31.moving_mean\r\nWARNING:tensorflow:Unresolved object in checkpoint: (root).layer_with_weights-31.moving_variance\r\nWARNING:tensorflow:Unresolved object in checkpoint: (root).layer_with_weights-32.kernel\r\nWARNING:tensorflow:Unresolved object in checkpoint: (root).layer_with_weights-32.bias\r\nWARNING:tensorflow:Unresolved object in checkpoint: (root).optimizer.iter\r\nWARNING:tensorflow:Unresolved object in checkpoint: (root).optimizer.beta_1\r\nWARNING:tensorflow:Unresolved object in checkpoint: (root).optimizer.beta_2\r\nWARNING:tensorflow:Unresolved object in checkpoint: (root).optimizer.decay\r\nWARNING:tensorflow:Unresolved object in checkpoint: (root).optimizer.learning_rate\r\nWARNING:tensorflow:Unresolved object in checkpoint: (root).optimizer's state 'm' for (root).layer_with_weights-0.kernel\r\nWARNING:tensorflow:Unresolved object in checkpoint: (root).optimizer's state 'm' for (root).layer_with_weights-0.bias\r\nWARNING:tensorflow:Unresolved object in checkpoint: (root).optimizer's state 'm' for (root).layer_with_weights-1.gamma\r\nWARNING:tensorflow:Unresolved object in checkpoint: (root).optimizer's state 'm' for (root).layer_with_weights-1.beta\r\nWARNING:tensorflow:Unresolved object in checkpoint: (root).optimizer's state 'm' for (root).layer_with_weights-2.kernel\r\nWARNING:tensorflow:Unresolved object in checkpoint: (root).optimizer's state 'm' for (root).layer_with_weights-2.bias\r\nWARNING:tensorflow:Unresolved object in checkpoint: (root).optimizer's state 'm' for (root).layer_with_weights-3.gamma\r\nWARNING:tensorflow:Unresolved object in checkpoint: (root).optimizer's state 'm' for (root).layer_with_weights-3.beta\r\nWARNING:tensorflow:Unresolved object in checkpoint: (root).optimizer's state 'm' for (root).layer_with_weights-4.kernel\r\nWARNING:tensorflow:Unresolved object in checkpoint: (root).optimizer's state 'm' for (root).layer_with_weights-4.bias\r\nWARNING:tensorflow:Unresolved object in checkpoint: (root).optimizer's state 'm' for (root).layer_with_weights-5.gamma\r\nWARNING:tensorflow:Unresolved object in checkpoint: (root).optimizer's state 'm' for (root).layer_with_weights-5.beta\r\nWARNING:tensorflow:Unresolved object in checkpoint: (root).optimizer's state 'm' for (root).layer_with_weights-6.kernel\r\nWARNING:tensorflow:Unresolved object in checkpoint: (root).optimizer's state 'm' for (root).layer_with_weights-6.bias\r\nWARNING:tensorflow:Unresolved object in checkpoint: (root).optimizer's state 'm' for (root).layer_with_weights-7.gamma\r\nWARNING:tensorflow:Unresolved object in checkpoint: (root).optimizer's state 'm' for (root).layer_with_weights-7.beta\r\nWARNING:tensorflow:Unresolved object in checkpoint: (root).optimizer's state 'm' for (root).layer_with_weights-8.kernel\r\nWARNING:tensorflow:Unresolved object in checkpoint: (root).optimizer's state 'm' for (root).layer_with_weights-8.bias\r\nWARNING:tensorflow:Unresolved object in checkpoint: (root).optimizer's state 'm' for (root).layer_with_weights-9.gamma\r\nWARNING:tensorflow:Unresolved object in checkpoint: (root).optimizer's state 'm' for (root).layer_with_weights-9.beta\r\nWARNING:tensorflow:Unresolved object in checkpoint: (root).optimizer's state 'm' for (root).layer_with_weights-10.kernel\r\nWARNING:tensorflow:Unresolved object in checkpoint: (root).optimizer's state 'm' for (root).layer_with_weights-10.bias\r\nWARNING:tensorflow:Unresolved object in checkpoint: (root).optimizer's state 'm' for (root).layer_with_weights-11.gamma\r\nWARNING:tensorflow:Unresolved object in checkpoint: (root).optimizer's state 'm' for (root).layer_with_weights-11.beta\r\nWARNING:tensorflow:Unresolved object in checkpoint: (root).optimizer's state 'm' for (root).layer_with_weights-12.kernel\r\nWARNING:tensorflow:Unresolved object in checkpoint: (root).optimizer's state 'm' for (root).layer_with_weights-12.bias\r\nWARNING:tensorflow:Unresolved object in checkpoint: (root).optimizer's state 'm' for (root).layer_with_weights-13.gamma\r\nWARNING:tensorflow:Unresolved object in checkpoint: (root).optimizer's state 'm' for (root).layer_with_weights-13.beta\r\nWARNING:tensorflow:Unresolved object in checkpoint: (root).optimizer's state 'm' for (root).layer_with_weights-14.kernel\r\nWARNING:tensorflow:Unresolved object in checkpoint: (root).optimizer's state 'm' for (root).layer_with_weights-14.bias\r\nWARNING:tensorflow:Unresolved object in checkpoint: (root).optimizer's state 'm' for (root).layer_with_weights-15.gamma\r\nWARNING:tensorflow:Unresolved object in checkpoint: (root).optimizer's state 'm' for (root).layer_with_weights-15.beta\r\nWARNING:tensorflow:Unresolved object in checkpoint: (root).optimizer's state 'm' for (root).layer_with_weights-16.kernel\r\nWARNING:tensorflow:Unresolved object in checkpoint: (root).optimizer's state 'm' for (root).layer_with_weights-16.bias\r\nWARNING:tensorflow:Unresolved object in checkpoint: (root).optimizer's state 'm' for (root).layer_with_weights-17.gamma\r\nWARNING:tensorflow:Unresolved object in checkpoint: (root).optimizer's state 'm' for (root).layer_with_weights-17.beta\r\nWARNING:tensorflow:Unresolved object in checkpoint: (root).optimizer's state 'm' for (root).layer_with_weights-18.kernel\r\nWARNING:tensorflow:Unresolved object in checkpoint: (root).optimizer's state 'm' for (root).layer_with_weights-18.bias\r\nWARNING:tensorflow:Unresolved object in checkpoint: (root).optimizer's state 'm' for (root).layer_with_weights-19.gamma\r\nWARNING:tensorflow:Unresolved object in checkpoint: (root).optimizer's state 'm' for (root).layer_with_weights-19.beta\r\nWARNING:tensorflow:Unresolved object in checkpoint: (root).optimizer's state 'm' for (root).layer_with_weights-20.kernel\r\nWARNING:tensorflow:Unresolved object in checkpoint: (root).optimizer's state 'm' for (root).layer_with_weights-20.bias\r\nWARNING:tensorflow:Unresolved object in checkpoint: (root).optimizer's state 'm' for (root).layer_with_weights-21.gamma\r\nWARNING:tensorflow:Unresolved object in checkpoint: (root).optimizer's state 'm' for (root).layer_with_weights-21.beta\r\nWARNING:tensorflow:Unresolved object in checkpoint: (root).optimizer's state 'm' for (root).layer_with_weights-22.kernel\r\nWARNING:tensorflow:Unresolved object in checkpoint: (root).optimizer's state 'm' for (root).layer_with_weights-22.bias\r\nWARNING:tensorflow:Unresolved object in checkpoint: (root).optimizer's state 'm' for (root).layer_with_weights-23.gamma\r\nWARNING:tensorflow:Unresolved object in checkpoint: (root).optimizer's state 'm' for (root).layer_with_weights-23.beta\r\nWARNING:tensorflow:Unresolved object in checkpoint: (root).optimizer's state 'm' for (root).layer_with_weights-24.kernel\r\nWARNING:tensorflow:Unresolved object in checkpoint: (root).optimizer's state 'm' for (root).layer_with_weights-24.bias\r\nWARNING:tensorflow:Unresolved object in checkpoint: (root).optimizer's state 'm' for (root).layer_with_weights-25.gamma\r\nWARNING:tensorflow:Unresolved object in checkpoint: (root).optimizer's state 'm' for (root).layer_with_weights-25.beta\r\nWARNING:tensorflow:Unresolved object in checkpoint: (root).optimizer's state 'm' for (root).layer_with_weights-26.kernel\r\nWARNING:tensorflow:Unresolved object in checkpoint: (root).optimizer's state 'm' for (root).layer_with_weights-26.bias\r\nWARNING:tensorflow:Unresolved object in checkpoint: (root).optimizer's state 'm' for (root).layer_with_weights-27.gamma\r\nWARNING:tensorflow:Unresolved object in checkpoint: (root).optimizer's state 'm' for (root).layer_with_weights-27.beta\r\nWARNING:tensorflow:Unresolved object in checkpoint: (root).optimizer's state 'm' for (root).layer_with_weights-28.kernel\r\nWARNING:tensorflow:Unresolved object in checkpoint: (root).optimizer's state 'm' for (root).layer_with_weights-28.bias\r\nWARNING:tensorflow:Unresolved object in checkpoint: (root).optimizer's state 'm' for (root).layer_with_weights-29.gamma\r\nWARNING:tensorflow:Unresolved object in checkpoint: (root).optimizer's state 'm' for (root).layer_with_weights-29.beta\r\nWARNING:tensorflow:Unresolved object in checkpoint: (root).optimizer's state 'm' for (root).layer_with_weights-30.kernel\r\nWARNING:tensorflow:Unresolved object in checkpoint: (root).optimizer's state 'm' for (root).layer_with_weights-30.bias\r\nWARNING:tensorflow:Unresolved object in checkpoint: (root).optimizer's state 'm' for (root).layer_with_weights-31.gamma\r\nWARNING:tensorflow:Unresolved object in checkpoint: (root).optimizer's state 'm' for (root).layer_with_weights-31.beta\r\nWARNING:tensorflow:Unresolved object in checkpoint: (root).optimizer's state 'm' for (root).layer_with_weights-32.kernel\r\nWARNING:tensorflow:Unresolved object in checkpoint: (root).optimizer's state 'm' for (root).layer_with_weights-32.bias\r\nWARNING:tensorflow:Unresolved object in checkpoint: (root).optimizer's state 'v' for (root).layer_with_weights-0.kernel\r\nWARNING:tensorflow:Unresolved object in checkpoint: (root).optimizer's state 'v' for (root).layer_with_weights-0.bias\r\nWARNING:tensorflow:Unresolved object in checkpoint: (root).optimizer's state 'v' for (root).layer_with_weights-1.gamma\r\nWARNING:tensorflow:Unresolved object in checkpoint: (root).optimizer's state 'v' for (root).layer_with_weights-1.beta\r\nWARNING:tensorflow:Unresolved object in checkpoint: (root).optimizer's state 'v' for (root).layer_with_weights-2.kernel\r\nWARNING:tensorflow:Unresolved object in checkpoint: (root).optimizer's state 'v' for (root).layer_with_weights-2.bias\r\nWARNING:tensorflow:Unresolved object in checkpoint: (root).optimizer's state 'v' for (root).layer_with_weights-3.gamma\r\nWARNING:tensorflow:Unresolved object in checkpoint: (root).optimizer's state 'v' for (root).layer_with_weights-3.beta\r\nWARNING:tensorflow:Unresolved object in checkpoint: (root).optimizer's state 'v' for (root).layer_with_weights-4.kernel\r\nWARNING:tensorflow:Unresolved object in checkpoint: (root).optimizer's state 'v' for (root).layer_with_weights-4.bias\r\nWARNING:tensorflow:Unresolved object in checkpoint: (root).optimizer's state 'v' for (root).layer_with_weights-5.gamma\r\nWARNING:tensorflow:Unresolved object in checkpoint: (root).optimizer's state 'v' for (root).layer_with_weights-5.beta\r\nWARNING:tensorflow:Unresolved object in checkpoint: (root).optimizer's state 'v' for (root).layer_with_weights-6.kernel\r\nWARNING:tensorflow:Unresolved object in checkpoint: (root).optimizer's state 'v' for (root).layer_with_weights-6.bias\r\nWARNING:tensorflow:Unresolved object in checkpoint: (root).optimizer's state 'v' for (root).layer_with_weights-7.gamma\r\nWARNING:tensorflow:Unresolved object in checkpoint: (root).optimizer's state 'v' for (root).layer_with_weights-7.beta\r\nWARNING:tensorflow:Unresolved object in checkpoint: (root).optimizer's state 'v' for (root).layer_with_weights-8.kernel\r\nWARNING:tensorflow:Unresolved object in checkpoint: (root).optimizer's state 'v' for (root).layer_with_weights-8.bias\r\nWARNING:tensorflow:Unresolved object in checkpoint: (root).optimizer's state 'v' for (root).layer_with_weights-9.gamma\r\nWARNING:tensorflow:Unresolved object in checkpoint: (root).optimizer's state 'v' for (root).layer_with_weights-9.beta\r\nWARNING:tensorflow:Unresolved object in checkpoint: (root).optimizer's state 'v' for (root).layer_with_weights-10.kernel\r\nWARNING:tensorflow:Unresolved object in checkpoint: (root).optimizer's state 'v' for (root).layer_with_weights-10.bias\r\nWARNING:tensorflow:Unresolved object in checkpoint: (root).optimizer's state 'v' for (root).layer_with_weights-11.gamma\r\nWARNING:tensorflow:Unresolved object in checkpoint: (root).optimizer's state 'v' for (root).layer_with_weights-11.beta\r\nWARNING:tensorflow:Unresolved object in checkpoint: (root).optimizer's state 'v' for (root).layer_with_weights-12.kernel\r\nWARNING:tensorflow:Unresolved object in checkpoint: (root).optimizer's state 'v' for (root).layer_with_weights-12.bias\r\nWARNING:tensorflow:Unresolved object in checkpoint: (root).optimizer's state 'v' for (root).layer_with_weights-13.gamma\r\nWARNING:tensorflow:Unresolved object in checkpoint: (root).optimizer's state 'v' for (root).layer_with_weights-13.beta\r\nWARNING:tensorflow:Unresolved object in checkpoint: (root).optimizer's state 'v' for (root).layer_with_weights-14.kernel\r\nWARNING:tensorflow:Unresolved object in checkpoint: (root).optimizer's state 'v' for (root).layer_with_weights-14.bias\r\nWARNING:tensorflow:Unresolved object in checkpoint: (root).optimizer's state 'v' for (root).layer_with_weights-15.gamma\r\nWARNING:tensorflow:Unresolved object in checkpoint: (root).optimizer's state 'v' for (root).layer_with_weights-15.beta\r\nWARNING:tensorflow:Unresolved object in checkpoint: (root).optimizer's state 'v' for (root).layer_with_weights-16.kernel\r\nWARNING:tensorflow:Unresolved object in checkpoint: (root).optimizer's state 'v' for (root).layer_with_weights-16.bias\r\nWARNING:tensorflow:Unresolved object in checkpoint: (root).optimizer's state 'v' for (root).layer_with_weights-17.gamma\r\nWARNING:tensorflow:Unresolved object in checkpoint: (root).optimizer's state 'v' for (root).layer_with_weights-17.beta\r\nWARNING:tensorflow:Unresolved object in checkpoint: (root).optimizer's state 'v' for (root).layer_with_weights-18.kernel\r\nWARNING:tensorflow:Unresolved object in checkpoint: (root).optimizer's state 'v' for (root).layer_with_weights-18.bias\r\nWARNING:tensorflow:Unresolved object in checkpoint: (root).optimizer's state 'v' for (root).layer_with_weights-19.gamma\r\nWARNING:tensorflow:Unresolved object in checkpoint: (root).optimizer's state 'v' for (root).layer_with_weights-19.beta\r\nWARNING:tensorflow:Unresolved object in checkpoint: (root).optimizer's state 'v' for (root).layer_with_weights-20.kernel\r\nWARNING:tensorflow:Unresolved object in checkpoint: (root).optimizer's state 'v' for (root).layer_with_weights-20.bias\r\nWARNING:tensorflow:Unresolved object in checkpoint: (root).optimizer's state 'v' for (root).layer_with_weights-21.gamma\r\nWARNING:tensorflow:Unresolved object in checkpoint: (root).optimizer's state 'v' for (root).layer_with_weights-21.beta\r\nWARNING:tensorflow:Unresolved object in checkpoint: (root).optimizer's state 'v' for (root).layer_with_weights-22.kernel\r\nWARNING:tensorflow:Unresolved object in checkpoint: (root).optimizer's state 'v' for (root).layer_with_weights-22.bias\r\nWARNING:tensorflow:Unresolved object in checkpoint: (root).optimizer's state 'v' for (root).layer_with_weights-23.gamma\r\nWARNING:tensorflow:Unresolved object in checkpoint: (root).optimizer's state 'v' for (root).layer_with_weights-23.beta\r\nWARNING:tensorflow:Unresolved object in checkpoint: (root).optimizer's state 'v' for (root).layer_with_weights-24.kernel\r\nWARNING:tensorflow:Unresolved object in checkpoint: (root).optimizer's state 'v' for (root).layer_with_weights-24.bias\r\nWARNING:tensorflow:Unresolved object in checkpoint: (root).optimizer's state 'v' for (root).layer_with_weights-25.gamma\r\nWARNING:tensorflow:Unresolved object in checkpoint: (root).optimizer's state 'v' for (root).layer_with_weights-25.beta\r\nWARNING:tensorflow:Unresolved object in checkpoint: (root).optimizer's state 'v' for (root).layer_with_weights-26.kernel\r\nWARNING:tensorflow:Unresolved object in checkpoint: (root).optimizer's state 'v' for (root).layer_with_weights-26.bias\r\nWARNING:tensorflow:Unresolved object in checkpoint: (root).optimizer's state 'v' for (root).layer_with_weights-27.gamma\r\nWARNING:tensorflow:Unresolved object in checkpoint: (root).optimizer's state 'v' for (root).layer_with_weights-27.beta\r\nWARNING:tensorflow:Unresolved object in checkpoint: (root).optimizer's state 'v' for (root).layer_with_weights-28.kernel\r\nWARNING:tensorflow:Unresolved object in checkpoint: (root).optimizer's state 'v' for (root).layer_with_weights-28.bias\r\nWARNING:tensorflow:Unresolved object in checkpoint: (root).optimizer's state 'v' for (root).layer_with_weights-29.gamma\r\nWARNING:tensorflow:Unresolved object in checkpoint: (root).optimizer's state 'v' for (root).layer_with_weights-29.beta\r\nWARNING:tensorflow:Unresolved object in checkpoint: (root).optimizer's state 'v' for (root).layer_with_weights-30.kernel\r\nWARNING:tensorflow:Unresolved object in checkpoint: (root).optimizer's state 'v' for (root).layer_with_weights-30.bias\r\nWARNING:tensorflow:Unresolved object in checkpoint: (root).optimizer's state 'v' for (root).layer_with_weights-31.gamma\r\nWARNING:tensorflow:Unresolved object in checkpoint: (root).optimizer's state 'v' for (root).layer_with_weights-31.beta\r\nWARNING:tensorflow:Unresolved object in checkpoint: (root).optimizer's state 'v' for (root).layer_with_weights-32.kernel\r\nWARNING:tensorflow:Unresolved object in checkpoint: (root).optimizer's state 'v' for (root).layer_with_weights-32.bias\r\nWARNING:tensorflow:A checkpoint was restored (e.g. tf.train.Checkpoint.restore or tf.keras.Model.load_weights) but not all checkpointed values were used. See above for specific issues. Use expect_partial() on the load status object, e.g. tf.train.Checkpoint.restore(...).expect_partial(), to silence these warnings, or use assert_consumed() to make the check explicit. See https://www.tensorflow.org/guide/checkpoint#loading_mechanics for details.\r\n```", "comments": ["@smallworld-network-wupeng \r\nIt means you are not using all the checkpointed values you have restored.\r\nPlease refer to [this link](https://stackoverflow.com/questions/58289342/tf2-0-translation-model-error-when-restoring-the-saved-model-unresolved-objec) and let us know.", "> @smallworld-network-wupeng\r\n> It means you are not using all the checkpointed values you have restored.\r\n> Please refer to [this link](https://stackoverflow.com/questions/58289342/tf2-0-translation-model-error-when-restoring-the-saved-model-unresolved-objec) and let us know.\r\n\r\nThank you problem solve ", "I find the new issue :\r\nif use \r\n```\r\nmodel..compile(optimizer=\"sgd\",\r\n                 loss=tf.keras.losses.BinaryCrossentropy(from_logits=True),\r\n                 metrics=[\"accuracy\"])\r\n```\r\nthese isn't error, but if use\r\n```\r\nmodel.compile(optimizer=\"adam\",\r\n                 loss=tf.keras.losses.BinaryCrossentropy(from_logits=True),\r\n                 metrics=[\"accuracy\"])\r\n```\r\nthese is still error, why ?", "@smallworld-network-wupeng \r\nPlease create a new issue for this.", "This issue has been automatically marked as stale because it has not had recent activity. It will be closed if no further activity occurs. Thank you.\n", "Closing as stale. Please reopen if you'd like to work on this further.\n", "Are you satisfied with the resolution of your issue?\n<a href=\"https://docs.google.com/forms/d/e/1FAIpQLSfaP12TRhd9xSxjXZjcZFNXPGk4kc1-qMdv3gc6bEP90vY1ew/viewform?entry.85265664=Yes&entry.2137816233=https://github.com/tensorflow/tensorflow/issues/42852\">Yes</a>\n<a href=\"https://docs.google.com/forms/d/e/1FAIpQLSfaP12TRhd9xSxjXZjcZFNXPGk4kc1-qMdv3gc6bEP90vY1ew/viewform?entry.85265664=No&entry.2137816233=https://github.com/tensorflow/tensorflow/issues/42852\">No</a>\n"]}, {"number": 42851, "title": "Is it possible to adjust available GPU during training?", "body": "Is it possible to adjust available GPU during training?\r\n\r\nThink about this scenario, during traing, the user think one GPU card is too slow to training, and want to add another card to speed up the training. So Is it possible to adjust available GPU without breaking the training\uff1f\r\n\r\n", "comments": ["@pokerfaceSad NO you can't, but you can use [distributed training](https://www.tensorflow.org/guide/distributed_training) to train on multiple GPUs but you can't add a gpu in between the training.", "This issue has been automatically marked as stale because it has not had recent activity. It will be closed if no further activity occurs. Thank you.\n", "> @pokerfaceSad NO you can't, but you can use [distributed training](https://www.tensorflow.org/guide/distributed_training) to train on multiple GPUs but you can't add a gpu in between the training.\r\n\r\nThx for your reply."]}, {"number": 42850, "title": "Android app keep crashing when executing `interpreter.run(input, output)`", "body": "**System information** `(for ML model creation and training)`\r\n- Have I written custom code (as opposed to using a stock example script provided in TensorFlow): `yes`\r\n- OS Platform and Distribution (e.g., Linux Ubuntu 16.04): `Linux Ubuntu 20.04`\r\n- TensorFlow installed from (source or binary): `binary`\r\n- TensorFlow version (use command below): `(tf.version.GIT_VERSION: v2.3.0-rc2-23-gb36436b087, tf.version.VERSION: 2.3.0)`\r\n- Python version: `3.8.2`\r\n\r\n**System information** `(for running android app)`\r\n- Have I written custom code (as opposed to using a stock example script provided in TensorFlow): `yes`\r\n- OS Platform and Distribution (e.g., Linux Ubuntu 16.04): `Linux Ubuntu 16.04`\r\n- Mobile device (e.g. iPhone 8, Pixel 2, Samsung Galaxy) if the issue happens on mobile device: `Samsung: Galaxy J7`\r\n- TensorFlow installed from (source or binary): `binary`\r\n- TensorFlow version (use command below): `org.tensorflow:tensorflow-lite:0.0.0-nightly, org.tensorflow:tensorflow-lite-select-tf-ops:0.0.0-nightly`\r\n- Android SDK version: `minSdkVersion = 21`, `targetSdkVersion = 29`, `compileSdkVersion = 29`\r\n- Java version: `1.8`\r\n- Kotlin version: `1.3.72-release-Studio4.0-5`\r\n\r\n\r\n**Describe the current behavior**\r\n- Using Python API: tflite model is able to load and correctly give output\r\n- Using Java API (When used in Android app): tflite model is able to load, gives correct i/p and o/p datatype and shape but it crashes the app when `interpreter.run(input, output)` gets executed\r\n\r\n**Describe the expected behavior**\r\n- Using Java API (When used in Android app): it should give the same response as in the case of python API instead of crashing the app\r\n\r\n\r\n**Standalone code to reproduce the issue** `(tflite model creation and inference using python API)`\r\n```\r\n# tflite model creation:\r\nimport numpy as np\r\nimport tensorflow as tf\r\n\r\ninput_names = [\"my_input\"]\r\noutput_names = [\"my_output\"]\r\ntf_model_path = \"../models/r2plus1d.pb\"\r\n\r\nip_shape = tf.TensorShape([1, 3, 8, 112, 112])\r\n\r\nconverter = tf.compat.v1.lite.TFLiteConverter.from_frozen_graph(tf_model_path, input_names, output_names)\r\nconverter.target_spec.supported_ops = [tf.lite.OpsSet.TFLITE_BUILTINS, tf.lite.OpsSet.SELECT_TF_OPS]\r\ntflite_model = converter.convert()\r\n\r\nr2plus1d_tflite_file = \"../models/r2plus1d.tflite\"\r\nwith open(r2plus1d_tflite_file, \"wb\") as file:\r\n    file.write(tflite_model)\r\n\r\n---------------------------------------------------------------------------------------------\r\n# inference using tflite model:\r\ntflite_model_path = \"../models/r2plus1d.tflite\"\r\n\r\ninterpreter = tf.lite.Interpreter(model_path=tflite_model_path)\r\ninterpreter.allocate_tensors()\r\n\r\ninput_details = interpreter.get_input_details()\r\noutput_details = interpreter.get_output_details()\r\n\r\ninput_shape = input_details[0]['shape']\r\ninput_data = np.array(np.random.random_sample(input_shape), dtype=np.float32)\r\ninterpreter.set_tensor(input_details[0]['index'], input_data)\r\n\r\ninterpreter.invoke()\r\n\r\noutput_data = interpreter.get_tensor(output_details[0]['index'])\r\nprint(output_data)\r\n```\r\n\r\n**Code to reproduce the issue** `(Android app code snippet)` most of its logic has been copied from tensorflow/examples/android\r\n```\r\npackage com.myproject.tensorflow\r\n\r\nimport android.content.res.AssetManager\r\nimport android.graphics.Bitmap\r\nimport com.google.gson.Gson\r\nimport com.myproject.extension.AppLogger\r\nimport org.tensorflow.lite.DataType\r\nimport org.tensorflow.lite.Interpreter\r\nimport java.io.FileInputStream\r\nimport java.io.IOException\r\nimport java.nio.ByteBuffer\r\nimport java.nio.ByteOrder\r\nimport java.nio.MappedByteBuffer\r\nimport java.nio.channels.FileChannel\r\n\r\nclass TensorFlowImageClassifier private constructor() : Classifier {\r\n    private var counter = 0\r\n    private var isRunning: Boolean = false\r\n    private var interpreter: Interpreter? = null\r\n    override fun recognizeImageForObjectDetection(bitmap: Bitmap): Boolean {\r\n        return false\r\n    }\r\n\r\n    if(!isRunning) {\r\n        AppLogger.printLog(\"action isRunning : \"+counter++)\r\n        isRunning = true\r\n        AppLogger.printLog(\" launch recognised\")\r\n        // val byteBuffer = convertBitmapToByteBufferFinal(bitmap)\r\n        val input = Array(1) {Array(3 ) {Array(8) {Array(112) { FloatArray(112) }}}}\r\n        val result = Array(1) { FloatArray(11) }\r\n        try {\r\n            interpreter?.run(byteBuffer, result)\r\n            // interpreter?.run(input, result)\r\n        } catch (e: Exception) {\r\n            e.printStackTrace()\r\n        }\r\n        AppLogger.printLog(\"action output\")\r\n        AppLogger.printLog(\"action recognised output outer \" + Gson().toJson(result))\r\n    }\r\n\r\n    override fun close() {\r\n        interpreter!!.close()\r\n        interpreter = null\r\n    }\r\n\r\n    @Throws(IOException::class)\r\n    private fun loadModelFile(\r\n        assetManager: AssetManager,\r\n        modelPath: String\r\n    ): MappedByteBuffer {\r\n        val fileDescriptor = assetManager.openFd(modelPath)\r\n        val inputStream =  FileInputStream(fileDescriptor.fileDescriptor)\r\n        val fileChannel = inputStream.channel\r\n        val startOffset = fileDescriptor.startOffset\r\n        val declaredLength = fileDescriptor.declaredLength\r\n        return fileChannel.map(  FileChannel.MapMode.READ_ONLY, startOffset, declaredLength)\r\n    }\r\n\r\n    private fun convertBitmapToByteBufferFinal(bitmap: Bitmap): ByteBuffer {\r\n        val byteBuffer: ByteBuffer = ByteBuffer.allocateDirect(4 * 1 * 3 * 8 * 112 * 112) // byte\r\n        byteBuffer.order(ByteOrder.nativeOrder())\r\n        for (m in 0 until 3) {\r\n            for (i in 0 until 8) {\r\n                for (j in 0..111) {\r\n                    for (k in 0..111) {\r\n                        byteBuffer.putFloat(0.5f)\r\n                    }\r\n                }\r\n            }\r\n        }\r\n        return byteBuffer\r\n    }\r\n\r\n    companion object {\r\n        private lateinit var mAassetManager: AssetManager\r\n        private lateinit var mClassifier: TensorFlowImageClassifier\r\n        private lateinit var mModelPath: String\r\n        lateinit var imageShape: IntArray\r\n        var probabilityDataType: DataType? = null\r\n        var inputDataType: DataType? = null\r\n        lateinit var outputShape: IntArray\r\n        var inputBatchSize = 0\r\n        var imageSizeY = 0\r\n        var imageSizeX = 0\r\n        var pixelValue = 0\r\n\r\n        @Throws(IOException::class)\r\n        fun create( assetManager: AssetManager, modelPath: String): Classifier {\r\n            val classifier = TensorFlowImageClassifier()\r\n            classifier.interpreter = getInterpreter(classifier, assetManager, modelPath)\r\n            mAassetManager = assetManager\r\n            mModelPath = modelPath\r\n            mClassifier = classifier\r\n            val probabilityTensorIndex = 0\r\n            val imageTensorIndex = 0\r\n            imageShape = classifier.interpreter!!.getInputTensor(imageTensorIndex).shape() // {1, 3, 8, 112, 112}\r\n            pixelValue = imageShape[1]\r\n            inputBatchSize = imageShape[2]\r\n            imageSizeX = imageShape[3]\r\n            imageSizeY = imageShape[4]\r\n            probabilityDataType = classifier.interpreter!!.getOutputTensor(probabilityTensorIndex).dataType() //FLOAT32\r\n            inputDataType = classifier.interpreter!!.getInputTensor(probabilityTensorIndex).dataType() //FLOAT32\r\n            outputShape = classifier.interpreter!!.getOutputTensor(imageTensorIndex).shape() // {1, 11}\r\n            return classifier\r\n        }\r\n\r\n        private fun getInterpreter(\r\n            classifier: TensorFlowImageClassifier,\r\n            assetManager: AssetManager,\r\n            modelPath: String\r\n        ): Interpreter {\r\n            return Interpreter(\r\n                classifier.loadModelFile(assetManager, modelPath),\r\n                Interpreter.Options()\r\n            )\r\n        }\r\n    }\r\n}\r\n```\r\n\r\n\r\n**Other info / logs**\r\n- [R(2+1)D architecture for action recognition in videos](https://arxiv.org/pdf/1905.00561.pdf)\r\n- [tf model (r2plus1d.pb)](https://drive.google.com/file/d/1in71gffCtQf-eYrx7jz00ZC2IDGbBcVA/view?usp=sharing) - size is around 243MB, used it to convert to tflite\r\n- [tflite model (r2plus1d.tflite)](https://drive.google.com/file/d/1-cUsecwb2HOD0YOFdrhX6BBcRgPHcjUF/view?usp=sharing) - size is around 242MB\r\n- [visualize tflite model (r2plus1d.tflite.svg)](https://drive.google.com/file/d/1Rf8eXHbFH9hGdfwoSI6Jd4xy-KWq64oM/view?usp=sharing) - size is around 1MB\r\n- i/p shape: (1, 3, 8, 112, 112) -> (batch_size, channels, num_of_frames, img_height, img_width)\r\n- o/p shape: (1, 11) -> (num_of_classes)", "comments": ["Hi, could you capture the related error logs when android app is crashing?", "Hi, @abattery I'm unable to capture any error logs or trace the error. App just crashes when it reaches to `interpreter?.run(byteBuffer, result)`. Also, tried debugger with breakpoints on that line, it neither prints anything after that line nor going into `catch block`. ", "I ran your model with model_benchmark_plus_flex tool. No crashing found during execution.\r\n\r\n```\r\nPeak memory footprint (MB): init=13.0977 overall=1989.27\r\n```\r\n\r\nIt might be related to an out-of-memory issue since your model requires almost 2GB to run. If you can confirm it, how about reducing the overall model size through some techniques like post training quantization?\r\nhttps://www.tensorflow.org/lite/performance/post_training_quantization", "@pushpendrapratap Is this still an issue? Were you able to apply model optimization techniques as suggested above? Thanks!", "Hi, the NN architecture had mostly `Conv3D` layers, which (as I saw last time) can't be optimized by the current API. Eventually, I realized that this model can't be run on mobile devices and so I went with the `client-server` architecture.\r\n\r\nI'm closing this issue but if anyone wants to deploy any action recognition model on mobile devices, I have a few suggestions:\r\n1. Make sure all the operators used by your model can be supported on mobile, however, if that is not the case then try to be creative like `Conv3D -> Conv2D + LSTM` or something similar.\r\n2. See if the same objective can be achieved using the combination of simple models (e.g., object detection + pose estimation model), which requires processing a single frame (at a much faster rate) rather than a bunch of frames (as required by 3D CNNs with a much slower rate).", "Are you satisfied with the resolution of your issue?\n<a href=\"https://docs.google.com/forms/d/e/1FAIpQLSfaP12TRhd9xSxjXZjcZFNXPGk4kc1-qMdv3gc6bEP90vY1ew/viewform?entry.85265664=Yes&entry.2137816233=https://github.com/tensorflow/tensorflow/issues/42850\">Yes</a>\n<a href=\"https://docs.google.com/forms/d/e/1FAIpQLSfaP12TRhd9xSxjXZjcZFNXPGk4kc1-qMdv3gc6bEP90vY1ew/viewform?entry.85265664=No&entry.2137816233=https://github.com/tensorflow/tensorflow/issues/42850\">No</a>\n"]}]