…
flow/core/common_runtime/gpu/gpu_device.cc:990] 0:   N \r\n> 2018-11-25 18:59:28.207358: I tensorflow/core/common_runtime/gpu/gpu_device.cc:1103] Created TensorFlow device (/job:localhost/replica:0/task:0/device:GPU:0 with 1493 MB memory) -> physical GPU (device: 0, name: GeForce 940MX, pci bus id: 0000:01:00.0, compute capability: 5.0)\r\n> 2\r\n> 3\r\n> _________________________________________________________________\r\n> Layer (type)                 Output Shape              Param #   \r\n> =================================================================\r\n> input_1 (InputLayer)         (None, 11008, 1, 1)       0         \r\n> _________________________________________________________________\r\n> conv2d (Conv2D)              (None, 11008, 1, 8)       32        \r\n> _________________________________________________________________\r\n> activation (Activation)      (None, 11008, 1, 8)       0         \r\n> _________________________________________________________________\r\n> max_pooling2d (MaxPooling2D) (None, 5504, 1, 8)        0         \r\n> _________________________________________________________________\r\n> conv2d_1 (Conv2D)            (None, 5504, 1, 16)       400       \r\n> _________________________________________________________________\r\n> activation_1 (Activation)    (None, 5504, 1, 16)       0         \r\n> _________________________________________________________________\r\n> max_pooling2d_1 (MaxPooling2 (None, 2752, 1, 16)       0         \r\n> _________________________________________________________________\r\n> conv2d_2 (Conv2D)            (None, 2752, 1, 32)       1568      \r\n> _________________________________________________________________\r\n> activation_2 (Activation)    (None, 2752, 1, 32)       0         \r\n> _________________________________________________________________\r\n> max_pooling2d_2 (MaxPooling2 (None, 1376, 1, 32)       0         \r\n> _________________________________________________________________\r\n> conv2d_3 (Conv2D)            (None, 1376, 1, 64)       6208      \r\n> _________________________________________________________________\r\n> activation_3 (Activation)    (None, 1376, 1, 64)       0         \r\n> _________________________________________________________________\r\n> max_pooling2d_3 (MaxPooling2 (None, 688, 1, 64)        0         \r\n> _________________________________________________________________\r\n> conv2d_4 (Conv2D)            (None, 688, 1, 64)        12352     \r\n> _________________________________________________________________\r\n> activation_4 (Activation)    (None, 688, 1, 64)        0         \r\n> _________________________________________________________________\r\n> max_pooling2d_4 (MaxPooling2 (None, 344, 1, 64)        0         \r\n> _________________________________________________________________\r\n> conv2d_5 (Conv2D)            (None, 344, 1, 64)        12352     \r\n> _________________________________________________________________\r\n> activation_5 (Activation)    (None, 344, 1, 64)        0         \r\n> _________________________________________________________________\r\n> up_sampling2d (UpSampling2D) (None, 688, 1, 64)        0         \r\n> _________________________________________________________________\r\n> conv2d_6 (Conv2D)            (None, 688, 1, 64)        12352     \r\n> _________________________________________________________________\r\n> activation_6 (Activation)    (None, 688, 1, 64)        0         \r\n> _________________________________________________________________\r\n> up_sampling2d_1 (UpSampling2 (None, 1376, 1, 64)       0         \r\n> _________________________________________________________________\r\n> conv2d_7 (Conv2D)            (None, 1376, 1, 32)       6176      \r\n> _________________________________________________________________\r\n> activation_7 (Activation)    (None, 1376, 1, 32)       0         \r\n> _________________________________________________________________\r\n> up_sampling2d_2 (UpSampling2 (None, 2752, 1, 32)       0         \r\n> _________________________________________________________________\r\n> conv2d_8 (Conv2D)            (None, 2752, 1, 16)       1552      \r\n> _________________________________________________________________\r\n> activation_8 (Activation)    (None, 2752, 1, 16)       0         \r\n> _________________________________________________________________\r\n> up_sampling2d_3 (UpSampling2 (None, 5504, 1, 16)       0         \r\n> _________________________________________________________________\r\n> conv2d_9 (Conv2D)            (None, 5504, 1, 8)        392       \r\n> _________________________________________________________________\r\n> activation_9 (Activation)    (None, 5504, 1, 8)        0         \r\n> _________________________________________________________________\r\n> up_sampling2d_4 (UpSampling2 (None, 11008, 1, 8)       0         \r\n> _________________________________________________________________\r\n> conv2d_10 (Conv2D)           (None, 11008, 1, 1)       25        \r\n> =================================================================\r\n> Total params: 53,409\r\n> Trainable params: 53,409\r\n> Non-trainable params: 0\r\n> _________________________________________________________________\r\n> Epoch 1/400\r\n>   1/100 [..............................] - ETA: 3:01 - loss: 5.6426e-08 - binary_accuracy: 0.0614 - mean_squared_error: 5.6426e-08\r\n>   2/10
…
