…
crepe).\r\n\r\nHere is the converted model (from the original Keras model):\r\nhttps://drive.google.com/file/d/16IlycajzJqo5NtXv8N_7PqE3QfDUUDRd/view?usp=sharing\r\n\r\nKeras model summary\r\n```\r\nModel: \"functional_1\"\r\n_________________________________________________________________\r\nLayer (type)                 Output Shape              Param #   \r\n=================================================================\r\ninput (InputLayer)           [(None, 1024)]            0         \r\n_________________________________________________________________\r\ninput-reshape (Reshape)      (None, 1024, 1, 1)        0         \r\n_________________________________________________________________\r\nconv1 (Conv2D)               (None, 256, 1, 128)       65664     \r\n_________________________________________________________________\r\nconv1-BN (BatchNormalization (None, 256, 1, 128)       512       \r\n_________________________________________________________________\r\nconv1-maxpool (MaxPooling2D) (None, 128, 1, 128)       0         \r\n_________________________________________________________________\r\nconv1-dropout (Dropout)      (None, 128, 1, 128)       0         \r\n_________________________________________________________________\r\nconv2 (Conv2D)               (None, 128, 1, 16)        131088    \r\n_________________________________________________________________\r\nconv2-BN (BatchNormalization (None, 128, 1, 16)        64        \r\n_________________________________________________________________\r\nconv2-maxpool (MaxPooling2D) (None, 64, 1, 16)         0         \r\n_________________________________________________________________\r\nconv2-dropout (Dropout)      (None, 64, 1, 16)         0         \r\n_________________________________________________________________\r\nconv3 (Conv2D)               (None, 64, 1, 16)         16400     \r\n_________________________________________________________________\r\nconv3-BN (BatchNormalization (None, 64, 1, 16)         64        \r\n_________________________________________________________________\r\nconv3-maxpool (MaxPooling2D) (None, 32, 1, 16)         0         \r\n_________________________________________________________________\r\nconv3-dropout (Dropout)      (None, 32, 1, 16)         0         \r\n_________________________________________________________________\r\nconv4 (Conv2D)               (None, 32, 1, 16)         16400     \r\n_________________________________________________________________\r\nconv4-BN (BatchNormalization (None, 32, 1, 16)         64        \r\n_________________________________________________________________\r\nconv4-maxpool (MaxPooling2D) (None, 16, 1, 16)         0         \r\n_________________________________________________________________\r\nconv4-dropout (Dropout)      (None, 16, 1, 16)         0         \r\n_________________________________________________________________\r\nconv5 (Conv2D)               (None, 16, 1, 32)         32800     \r\n_________________________________________________________________\r\nconv5-BN (BatchNormalization (None, 16, 1, 32)         128       \r\n_________________________________________________________________\r\nconv5-maxpool (MaxPooling2D) (None, 8, 1, 32)          0         \r\n_________________________________________________________________\r\nconv5-dropout (Dropout)      (None, 8, 1, 32)          0         \r\n_________________________________________________________________\r\nconv6 (Conv2D)               (None, 8, 1, 64)          131136    \r\n_________________________________________________________________\r\nconv6-BN (BatchNormalization (None, 8, 1, 64)          256       \r\n_________________________________________________________________\r\nconv6-maxpool (MaxPooling2D) (None, 4, 1, 64)          0         \r\n_________________________________________________________________\r\nconv6-dropout (Dropout)      (None, 4, 1, 64)          0         \r\n_________________________________________________________________\r\ntranspose (Permute)          (None, 1, 4, 64)          0         \r\n_________________________________________________________________\r\nflatten (Flatten)            (None, 256)               0         \r\n_________________________________________________________________\r\nclassifier (Dense)           (None, 360)               92520     \r\n=================================================================\r\nTotal params: 487,096\r\nTrainable params: 486,552\r\nNon-trainable params: 544\r\n_________________________________________________________________\r\n```\r\n\r\nI am using TF 2.3.0 and here is the code for the model conversion\r\n```\r\nconverter = tf.lite.TFLiteConverter.from_keras_model(model)\r\nconverter.experiment
…
