…
n2020-09-26 08:52:10.680577: I tensorflow/compiler/xla/service/service.cc:176]   StreamExecutor device (0): Host, Default Version\r\n2020-09-26 08:52:10.680685: I tensorflow/core/common_runtime/process_util.cc:146] Creating new thread pool with default inter op setting: 2. Tune using inter_op_parallelism_threads for best performance.\r\nModel: \"encoder\"\r\n\r\nLayer (type)                    Output Shape         Param #    Connected to                     \r\ninput_1 (InputLayer)            [(None, 28, 28, 1)]  0                                            \r\nconv2d (Conv2D)                 (None, 14, 14, 32)   320         input_1[0][0]                    \r\nconv2d_1 (Conv2D)               (None, 7, 7, 64)     18496       conv2d[0][0]                     \r\nflatten (Flatten)               (None, 3136)         0           conv2d_1[0][0]                   \r\ndense (Dense)                   (None, 16)           50192       flatten[0][0]                    \r\nz_mean (Dense)                  (None, 2)            34          dense[0][0]                      \r\nz_log_var (Dense)               (None, 2)            34          dense[0][0]                      \r\nsampling (Sampling)             (None, 2)            0           z_mean[0][0]                     \r\n                                                                 z_log_var[0][0]                  \r\n\r\nTotal params: 69,076\r\nTrainable params: 69,076\r\nNon-trainable params: 0\r\n\r\nModel: \"decoder\"\r\nLayer (type)                 Output Shape              Param #   \r\ninput_2 (InputLayer)         [(None, 2)]               0         \r\ndense_1 (Dense)              (None, 3136)              9408      \r\nreshape (Reshape)            (None, 7, 7, 64)          0         \r\nconv2d_transpose (Conv2DTran (None, 14, 14, 64)        36928     \r\nconv2d_transpose_1 (Conv2DTr (None, 28, 28, 32)        18464     \r\nconv2d_transpose_2 (Conv2DTr (None, 28, 28, 1)         289       \r\n\r\nTotal params: 65,089\r\nTrainable params: 65,089\r\nNon-trainable params: 0\r\n\r\nEpoch 1/30\r\ndnnl_verbose,info,oneDNN v1.4.0 (commit N/A)\r\ndnnl_verbose,info,cpu,runtime:OpenMP\r\ndnnl_verbose,info,cpu,isa:Intel AVX2\r\ndnnl_verbose,info,gpu,runtime:none\r\ndnnl_verbose,exec,cpu,reorder,jit:uni,undef,src_f32::blocked:cdba:f0 dst_f32::blocked:Acdb8a:f0,,,32x1x3x3,0.00488281\r\nd
…
