…
ormance critical operations:  SSE4.1 SSE4.2 AVX AVX2 FMA\r\nTo enable them in non-MKL-DNN operations, rebuild TensorFlow with the appropriate compiler flags.\r\n2020-10-01 11:34:43.752602: I tensorflow/core/common_runtime/process_util.cc:115] Creating new thread pool with default inter op setting: 6. Tune using inter_op_parallelism_threads for best performance.\r\n_________________________________________________________________\r\nLayer (type)                 Output Shape              Param #\r\n=================================================================\r\nimage_input (InputLayer)     (None, 128, 128, 3)       0\r\n_________________________________________________________________\r\nblock1_conv1 (Conv2D)        (None, 128, 128, 64)      1792\r\n_________________________________________________________________\r\nblock1_conv2 (Conv2D)        (None, 128, 128, 64)      36928\r\n_________________________________________________________________\r\nblock1_pool (MaxPooling2D)   (None, 64, 64, 64)        0\r\n_________________________________________________________________\r\nblock2_conv1 (Conv2D)        (None, 64, 64, 128)       73856\r\n_________________________________________________________________\r\nblock2_conv2 (Conv2D)        (None, 64, 64, 128)       147584\r\n_________________________________________________________________\r\nblock2_pool (MaxPooling2D)   (None, 32, 32, 128)       0\r\n_________________________________________________________________\r\nblock3_conv1 (Conv2D)        (None, 32, 32, 256)       295168\r\n_________________________________________________________________\r\nblock3_conv2 (Conv2D)        (None, 32, 32, 256)       590080\r\n_________________________________________________________________\r\nblock3_conv3 (Conv2D)        (None, 32, 32, 256)       590080\r\n_________________________________________________________________\r\nblock3_pool (MaxPooling2D)   (None, 16, 16, 256)       0\r\n_________________________________________________________________\r\nblock4_conv1 (Conv2D)        (None, 16, 16, 512)       1180160\r\n_________________________________________________________________\r\nblock4_conv2 (Conv2D)        (None, 16, 16, 512)       2359808\r\n_________________________________________________________________\r\nblock4_conv3 (Conv2D)        (None, 16, 16, 512)       2359808\r\n_________________________________________________________________\r\nblock4_pool (MaxPooling2D)   (None, 8, 8, 512)         0\r\n_________________________________________________________________\r\nblock5_conv1 (Conv2D)        (None, 8, 8, 512)         2359808\r\n_________________________________________________________________\r\nblock5_conv2 (Conv2D)        (None, 8, 8, 512)         2359808\r\n_________________________________________________________________\r\nblock5_conv3 (Conv2D)        (None, 8, 8, 512)         2359808\r\n_________________________________________________________________\r\nblock5_pool (MaxPooling2D)   (None, 4, 4, 512)         0\r\n_________________________________________________________________\r\ngap_vgg16gap (GlobalAverageP (None, 512)               0\r\n_________________________________________________________________\r\nfc1_vgg16gap (Dense)         (None, 4096)              2097152\r\n_________________________________________________________________\r\nbn1_vgg16gap (BatchNormaliza (None, 4096)              16384\r\n_________________________________________________________________\r\nrelu1_vgg16gap (Activation)  (None, 4096)              0\r\n_________________________________________________________________\r\ndo1_vgg16gap (Dropout)       (None, 4096)              0\r\n_________________________________________________________________\r\nfc2_vgg16gap (Dense)         (None, 4096)              16777216\r\n_________________________________________________________________\r\nbn2_vgg16gap (BatchNormaliza (None, 4096)              16384\r\n_________________________________________________________________\r\nrelu2_vgg16gap (Activation)  (None, 4096)              0\r\n_________________________________________________________________\r\ndo2_vgg16gap (Dropout)       (None, 4096)              0\r\n_________________________________________________________________\r\npredictions_vgg16gap (Dense) (None, 10996)             45050612\r\n=================================================================\r\nTotal params: 78,672,436\r\nTrainable params: 71,020,788\r\nNon-trainable params: 7,651,648\r\n_________________________________________________________________\r\nWARNING:tensorflow:From /anaconda3/envs/py36/lib/python3.6/site-packages/keras/optimizers.py:790: The name tf.train.Optimizer is deprecated. Please use tf.compat.v
…
