…
b\").write(tflite_quant_model)\r\n```\r\nHere is my model summary, which is a typical text classification model.\r\n```\r\n__________________________________________________________________________________________________\r\nLayer (type)                    Output Shape         Param #     Connected to\r\n==================================================================================================\r\ninput_3 (InputLayer)            [(None, 1)]          0\r\n__________________________________________________________________________________________________\r\ntext_vectorization_7 (TextVecto (None, 128)          0           input_3[0][0]\r\n__________________________________________________________________________________________________\r\ntoken_and_position_embedding_2  (None, 128, 128)     1252608     text_vectorization_7[0][0]\r\n__________________________________________________________________________________________________\r\ntransformer_block_2 (Transforme (None, 128, 128)     99584       token_and_position_embedding_2[0]\r\n__________________________________________________________________________________________________\r\nembedding_4 (Embedding)         (None, 128, 128)     1236224     text_vectorization_7[0][0]\r\n__________________________________________________________________________________________________\r\nglobal_average_pooling1d_10 (Gl (None, 128)          0           transformer_block_2[0][0]\r\n__________________________________________________________________________________________________\r\nconv1d_8 (Conv1D)               (None, 125, 128)     65664       embedding_4[0][0]\r\n__________________________________________________________________________________________________\r\nconv1d_9 (Conv1D)               (None, 126, 128)     49280       embedding_4[0][0]\r\n__________________________________________________________________________________________________\r\nconv1d_10 (Conv1D)              (None, 127, 128)     32896       embedding_4[0][0]\r\n__________________________________________________________________________________________________\r\nconv1d_11 (Conv1D)              (None, 128, 128)     16512       embedding_4[0][0]\r\n__________________________________________________________________________________________________\r\ndropout_10 (Dropout)            (None, 128)          0           global_average_pooling1d_10[0][0]\r\n__________________________________________________________________________________________________\r\nglobal_average_pooling1d_11 (Gl (None, 128)          0           conv1d_8[0][0]\r\n__________________________________________________________________________________________________\r\nglobal_max_pooling1d_8 (GlobalM (None, 128)          0           conv1d_8[0][0]\r\n__________________________________________________________________________________________________\r\nglobal_average_pooling1d_12 (Gl (None, 128)          0           conv1d_9[0][0]\r\n__________________________________________________________________________________________________\r\nglobal_max_pooling1d_9 (GlobalM (None, 128)          0           conv1d_9[0][0]\r\n__________________________________________________________________________________________________\r\nglobal_average_pooling1d_13 (Gl (None, 128)          0           conv1d_10[0][0]\r\n__________________________________________________________________________________________________\r\nglobal_max_pooling1d_10 (Global (None, 128)          0           conv1d_10[0][0]\r\n__________________________________________________________________________________________________\r\nglobal_average_pooling1d_14 (Gl (None, 128)          0           conv1d_11[0][0]\r\n__________________________________________________________________________________________________\r\nglobal_max_pooling1d_11 (Global (None, 128)          0           conv1d_11[0][0]\r\n__________________________________________________________________________________________________\r\ndense_20 (Dense)                (None, 64)           8256        dropout_10[0][0]\r\n__________________________________________________________________________________________________\r\nconcatenate_4 (Concatenate)     (None, 1024)         0           global_average_pooling1d_11[0][0]\r\n                                                                 global_max_pooling1d_8[0][0]\r\n                                                                 global_average_pooling1d_12[0][0]\r\n                                                                 global_max_pooling1d_9[0][0]\r\n                                                                 global_average_pooling1d_13[0][0]\r\n                                                                 global_max_pooling1d_10[0][0]\r\n                                                                 global_average_pooling1d_14[0][0]\r\n                                                                 global_max_pooling1d_11[0][0]\r\n__________________________________________________________________________________________________\r\ndropout_11 (Dropout)            (None, 64)           0           dense_20[0][0]\r\n__________________________________________________________________________________________________\r\nconcatenate_5 (Concatenate)     (None, 1088)         0           concatenate_4[0][0]\r\n                                                                 dropout_11[0][0]\r\n__________________________________________________________________________________________________\r\nmlp1 (Dense)                    (None, 512)          557568      concatenate_5[0][0]\r\n__________________________________________________________________________________________________\r\nmlp2 (Dense)                    (None, 1)            513         mlp1[0][0]\r\n==================================================================================================\r\nTotal params: 2,082,881\r\nTrainable params: 2,082,881\r\nNon-trainable params: 0\r\n__________________________________________________________________________________________________\r\n```\r\n\r\n\r\nHere is the failure errors:\r\n\r\n> ------------------------------------
…
