…
mpared to the parameters it has right now (~2M). Even the GPU usage barely exceeds 5%. I have GTX 1050ti 4GB. I have successfully run the above model, with varying number of total parameters, plenty of times before but only since yesterday this issue is coming up. Now the model runs fine only if I omit just the LSTM layer.\r\n\r\n```\r\nModel: \"sequential\"\r\n_________________________________________________________________\r\nLayer (type)                 Output Shape              Param #   \r\n=================================================================\r\nembedding (Embedding)        (None, 200, 128)          1920000   \r\n_________________________________________________________________\r\nbidirectional (Bidirectional (None, 200, 128)          98816     \r\n_________________________________________________________________\r\nglobal_average_pooling1d (Gl (None, 128)               0         \r\n_________________________________________________________________\r\ndropout (Dropout)            (None, 128)               0         \r\n_________________________________________________________________\r\ndense (Dense)                (None, 50)                6450      \r\n_________________________________________________________________\r\ndropout_1 (Dropout)          (None, 50)                0         \r\n_________________________________________________________________\r\ndense_1 (Dense)              (None, 1)                 51        \r\n=================================================================\r\nTotal params: 2,025,317\r\nTrainable params: 2,025,317\r\nNon-trainable params: 0\r\n```\r\n\r\nBelow is the exact error. \r\n\r\n```\r\nTrain on 143613 samples, validate on 15958 samples\r\nEpoch 1/5\r\nTraceback (most recent call last):\r\n\r\n  File \"C:\\Users\\admin\\Documents\\Machine Learning\\Projects\\Classif
…
