…
.538312: I tensorflow/core/common_runtime/gpu/gpu_device.cc:1001] 0:   N \r\n2019-01-21 16:33:24.538695: I tensorflow/core/common_runtime/gpu/gpu_device.cc:1115] Created TensorFlow device (/job:localhost/replica:0/task:0/device:GPU:0 with 9966 MB memory) -> physical GPU (device: 0, name: GeForce RTX 2080 Ti, pci bus id: 0000:02:00.0, compute capability: 7.5)\r\n_________________________________________________________________\r\nLayer (type)                 Output Shape              Param #   \r\n=================================================================\r\nconv2d_1 (Conv2D)            (None, 128, 128, 32)      320       \r\n_________________________________________________________________\r\nactivation_1 (Activation)    (None, 128, 128, 32)      0         \r\n_________________________________________________________________\r\nconv2d_2 (Conv2D)            (None, 126, 126, 32)      9248      \r\n_________________________________________________________________\r\nactivation_2 (Activation)    (None, 126, 126, 32)      0         \r\n_________________________________________________________________\r\nmax_pooling2d_1 (MaxPooling2 (None, 63, 63, 32)        0         \r\n_________________________________________________________________\r\ndropout_1 (Dropout)          (None, 63, 63, 32)        0         \r\n_________________________________________________________________\r\nconv2d_3 (Conv2D)            (None, 61, 61, 64)        18496     \r\n_________________________________________________________________\r\nactivation_3 (Activation)    (None, 61, 61, 64)        0         \r\n_________________________________________________________________\r\nmax_pooling2d_2 (MaxPooling2 (None, 30, 30, 64)        0         \r\n_________________________________________________________________\r\ndropout_2 (Dropout)          (None, 30, 30, 64)        0         \r\n_________________________________________________________________\r\nflatten_1 (Flatten)          (None, 57600)             0         \r\n_________________________________________________________________\r\ndense_1 (Dense)              (None, 256)               14745856  \r\n_________________________________________________________________\r\nactivation_4 (Activation)    (None, 256)               0         \r\n_________________________________________________________________\r\ndropout_3 (Dropout)          (None, 256)               0         \r\n_________________________________________________________________\r\ndense_2 (Dense)              (None, 34)                8738      \r\n_________________________________________________________________\r\nactivation_5 (Activation)    (None, 34)                0         \r\n=================================================================\r\nTotal params: 14,782,658\r\nTrainable params: 14,782,658\r\nNon-trainable params: 0\r\n_________________________________________________________________\r\n2019-01-21 16:33:25.223019: I tensorflow/compiler/xla/service/service.cc:149] XLA service 0x7f6f20001130 executing computations on platform CUDA. Devices:\r\n**20
…
