…
ight be a much better way in Python land that I am not aware of.", "@impjdi thanks, will see if it works !", "@impjdi i checked the whole model summary, there was no dynamic tensor present, every layer has a fixed shape\r\n\r\n```\r\nModel: \"functional_1\"\r\n__________________________________________________________________________________________________\r\nLayer (type)                    Output Shape         Param #     Connected to                     \r\n==================================================================================================\r\ninput_1 (InputLayer)            [(None, 256, 256, 3) 0                                            \r\n__________________________________________________________________________________________________\r\nconv2d (Conv2D)                 (None, 256, 256, 64) 1792        input_1[0][0]                    \r\n__________________________________________________________________________________________________\r\nbatch_normalization (BatchNorma (None, 256, 256, 64) 256         conv2d[0][0]                     \r\n__________________________________________________________________________________________________\r\nactivation (Activation)         (None, 256, 256, 64) 0           batch_normalization[0][0]        \r\n__________________________________________________________________________________________________\r\nconv2d_1 (Conv2D)               (None, 256, 256, 16) 9232        activation[0][0]                 \r\n__________________________________________________________________________________________________\r\nbatch_normalization_1 (BatchNor (None, 256, 256, 16) 64          conv2d_1[0][0]                   \r\n__________________________________________________________________________________________________\r\nactivation_1 (Activation)       (None, 256, 256, 16) 0           batch_normalization_1[0][0]      \r\n__________________________________________________________________________________________________\r\nmax_pooling2d (MaxPooling2D)    (None, 128, 128, 16) 0           activation_1[0][0]               \r\n__________________________________________________________________________________________________\r\nconv2d_2 (Conv2D)               (None, 128, 128, 16) 2320        max_pooling2d[0][0]              \r\n__________________________________________________________________________________________________\r\nbatch_normalization_2 (BatchNor (None, 128, 128, 16) 64          conv2d_2[0][0]                   \r\n__________________________________________________________________________________________________\r\nactivation_2 (Activation)       (None, 128, 128, 16) 0           batch_normalization_2[0][0]      \r\n__________________________________________________________________________________________________\r\nmax_pooling2d_1 (MaxPooling2D)  (None, 64, 64, 16)   0           activation_2[0][0]               \r\n__________________________________________________________________________________________________\r\nconv2d_3 (Conv2D)               (None, 64, 64, 16)   2320        max_pooling2d_1[0][0]            \r\n__________________________________________________________________________________________________\r\nbatch_normalization_3 (BatchNor (None, 64, 64, 16)   64          conv2d_3[0][0]                   \r\n__________________________________________________________________________________________________\r\nactivation_3 (Activation)       (None, 64, 64, 16)   0           batch_normalization_3[0][0]      \r\n__________________________________________________________________________________________________\r\nmax_pooling2d_2 (MaxPooling2D)  (None, 32, 32, 16)   0           activation_3[0][0]               \r\n__________________________________________________________________________________________________\r\nconv2d_4 (Conv2D)               (None, 32, 32, 16)   2320        max_pooling2d_2[0][0]            \r\n__________________________________________________________________________________________________\r\nbatch_normalization_4 (BatchNor (None, 32, 32, 16)   64          conv2d_4[0][0]                   \r\n__________________________________________________________________________________________________\r\nactivation_4 (Activation)       (None, 32, 32, 16)   0           batch_normalization_4[0][0]      \r\n__________________________________________________________________________________________________\r\nmax_pooling2d_3 (MaxPooling2D)  (None, 16, 16, 16)   0           activation_4[0][0]               \r\n__________________________________________________________________________________________________\r\nconv2d_5 (Conv2D)               (None, 16, 16, 16)   2320        max_pooling2d_3[0][0]            \r\n__________________________________________________________________________________________________\r\nbatch_normalization_5 (BatchNor (None, 16, 16, 16)   64          conv2d_5[0][0]                   \r\n__________________________________________________________________________________________________\r\nactivation_5 (Activation)       (None, 16, 16, 16)   0           batch_normalization_5[0][0]      \r\n__________________________________________________________________________________________________\r\nmax_pooling2d_4 (MaxPooling2D)  (None, 8, 8, 16)     0           activation_5[0][0]               \r\n__________________________________________________________________________________________________\r\nconv2d_6 (Conv2D)               (None, 8, 8, 16)     2320        max_pooling2d_4[0][0]            \r\n__________________________________________________________________________________________________\r\nbatch_normalization_6 (BatchNor (None, 8, 8, 16)     64          conv2d_6[0][0]                   \r\n__________________________________________________________________________________________________\r\nactivation_6 (Activation)       (None, 8, 8, 16)     0           batch_normalization_6[0][0]      \r\n__________________________________________________________________________________________________\r\nconv2d_7 (Conv2D)               (None, 8, 8, 16)     2320        activation_6[0][0]               \r\n__________________________________________________________________________________________________\r\nbatch_normalization_7 (BatchNor (None, 8, 8, 16)     64          conv2d_7[0][0]                   \r\n__________________________________________________________________________________________________\r\nactivation_7 (Activation)       (None, 8, 8, 16)     0           batch_normalization_7[0][0]      \r\n__________________________________________________________________________________________________\r\ntf_op_layer_concat (TensorFlowO (None, 8, 8, 32)     0           activation_7[0][0]               \r\n                                                                 activation_6[0][0]               \r\n__________________________________________________________________________________________________\r\nconv2d_8 (Conv2D)               (None, 8, 8, 16)     4624        tf_op_layer_concat[0][0]         \r\n__________________________________________________________________________________________________\r\nbatch_normalization_8 (BatchNor (None, 8, 8, 16)     64          conv2d_8[0][0]                   \r\n__________________________________________________________________________________________________\r\nactivation_8 (Activation)       (None, 8, 8, 16)     0           batch_normalization_8[0][0]      \r\n__________________________________________________________________________________________________\r\nup_sampling2d (UpSampling2D)    (None, 16, 16, 16)   0           activation_8[0][0]               \r\n__________________________________________________________________________________________________\r\ntf_op_layer_concat_1 (TensorFlo (None, 16, 16, 32)   0           up_sampling2d[0][0]              \r\n                                                                 activation_5[0][0]               \r\n__________________________________________________________________________________________________\r\nconv2d_9 (Conv2D)               (None, 16, 16, 16)   4624        tf_op_layer_concat_1[0][0]       \r\n__________________________________________________________________________________________________\r\nbatch_normalization_9 (BatchNor (None, 16, 16, 16)   64          conv2d_9[0][0]                   \r\n__________________________________________________________________________________________________\r\nactivation_9 (Activation)       (None, 16, 16, 16)   0           batch_normalization_9[0][0]      \r\n__________________________________________________________________________________________________\r\nup_sampling2d_1 (UpSampling2D)  (None, 32, 32, 16)   0           activation_9[0][0]               \r\n__________________________________________________________________________________________________\r\ntf_op_layer_concat_2 (TensorFlo (None, 32, 32, 32)   0           up_sampling2d_1[0][0]            \r\n                                                                 activation_4[0][0]               \r\n__________________________________________________________________________________________________\r\nconv2d_10 (Conv2D)              (None, 32, 32, 16)   4624        tf_op_layer_concat_2[0][0]       \r\n__________________________________________________________________________________________________\r\nbatch_normalization_10 (BatchNo (None, 32, 32, 16)   64          conv2d_10[0][0]                  \r\n__________________________________________________________________________________________________\r\nactivation_10 (Activation)      (None, 32, 32, 16)   0           batch_normalization_10[0][0]     \r\n__________________________________________________________________________________________________\r\nup_sampling2d_2 (UpSampling2D)  (None, 64, 64, 16)   0           activation_10[0][0]              \r\n__________________________________________________________________________________________________\r\ntf_op_layer_concat_3 (TensorFlo (None, 64, 64, 32)   0           up_sampling2d_2[0][0]            \r\n                                                                 activation_3[0][0]               \r\n__________________________________________________________________________________________________\r\nconv2d_11 (Conv2D)              (None, 64, 64, 16)   4624        tf_op_layer_concat_3[0][0]       \r\n__________________________________________________________________________________________________\r\nbatch_normalization_11 (BatchNo (None, 64, 64, 16)   64          conv2d_11[0][0]                  \r\n__________________________________________________________________________________________________\r\nactivation_11 (Activation)      (None, 64, 64, 16)   0           batch_normalization_11[0][0]     \r\n__________________________________________________________________________________________________\r\nup_sampling2d_3 (UpSampling2D)  (None, 128, 128, 16) 0           activation_11[0][0]              \r\n__________________________________________________________________________________________________\r\ntf_op_layer_concat_4 (TensorFlo (None, 128, 128, 32) 0           up_sampling2d_3[0][0]            \r\n                                                                 activation_2[0][0]               \r\n__________________________________________________________________________________________________\r\nconv2d_12 (Conv2D)              (None, 128, 128, 16) 4624        tf_op_layer_concat_4[0][0]       \r\n__________________________________________________________________________________________________\r\nbatch_normalization_12 (BatchNo (None, 128, 128, 16) 64          conv2d_12[0][0]                  \r\n__________________________________________________________________________________________________\r\nactivation_12 (Activation)      (None, 128, 128, 16) 0           batch_normalization_12[0][0]     \r\n__________________________________________________________________________________________________\r\nup_sampling2d_4 (UpSampling2D)  (None, 256, 256, 16) 0           activation_12[0][0]              \r\n__________________________________________________________________________________________________\r\ntf_op_layer_concat_5 (TensorFlo (None, 256, 256, 32) 0           up_sampling2d_4[0][0]            \r\n                                                                 activation_1[0][0]               \r\n__________________________________________________________________________________________________\r\nconv2d_13 (Conv2D)              (None, 256, 256, 64) 18496       tf_op_layer_concat_5[0][0]       \r\n__________________________________________________________________________________________________\r\nbatch_normalization_13 (BatchNo (None, 256, 256, 64) 256         conv2d_13[0][0]                  \r\n__________________________________________________________________________________________________\r\nactivation_13 (Activation)      (None, 256, 256, 64) 0           batch_normalization_13[0][0]     \r\n__________________________________________________________________________________________________\r\ntf_op_layer_AddV2 (TensorFlowOp (None, 256, 256, 64) 0           activation_13[0][0]              \r\n                                                                 activation[0][0]                 \r\n__________________________________________________________________________________________________\r\nmax_pooling2d_5 (MaxPooling2D)  (None, 128, 128, 64) 0           tf_op_layer_AddV2[0][0]          \r\n__________________________________________________________________________________________________\r\nconv2d_14 (Conv2D)              (None, 128, 128, 64) 36928       max_pooling2d_5[0][0]            \r\n__________________________________________________________________________________________________\r\nbatch_normalization_14 (BatchNo (None, 128, 128, 64) 256         conv2d_14[0][0]                  \r\n__________________________________________________________________________________________________\r\nactivation_14 (Activation)      (None, 128, 128, 64) 0           batch_normalization_14[0][0]     \r\n__________________________________________________________________________________________________\r\nconv2d_15 (Conv2D)              (None, 128, 128, 16) 9232        activation_14[0][0]              \r\n__________________________________________________________________________________________________\r\nbatch_normalization_15 (BatchNo (None, 128, 128, 16) 64          conv2d_15[0][0]                  \r\n__________________________________________________________________________________________________\r\nactivation_15 (Activation)      (None, 128, 128, 16) 0           batch_normalization_15[0][0]     \r\n__________________________________________________________________________________________________\r\nmax_pooling2d_6 (MaxPooling2D)  (None, 64, 64, 16)   0           activation_15[0][0]              \r\n__________________________________________________________________________________________________\r\nconv2d_16 (Conv2D)              (None, 64, 64, 16)   2320        max_pooling2d_6[0][0]            \r\n__________________________________________________________________________________________________\r\nbatch_normalization_16 (BatchNo (None, 64, 64, 16)   64          conv2d_16[0][0]                  \r\n__________________________________________________________________________________________________\r\nactivation_16 (Activation)      (None, 64, 64, 16)   0           batch_normalization_16[0][0]     \r\n__________________________________________________________________________________________________\r\nmax_pooling2d_7 (MaxPooling2D)  (None, 32, 32, 16)   0           activation_16[0][0]              \r\n__________________________________________________________________________________________________\r\nconv2d_17 (Conv2D)              (None, 32, 32, 16)   2320        max_pooling2d_7[0][0]            \r\n__________________________________________________________________________________________________\r\nbatch_normalization_17 (BatchNo (None, 32, 32, 16)   64          conv2d_17[0][0]                  \r\n__________________________________________________________________________________________________\r\nactivation_17 (Activation)      (None, 32, 32, 16)   0           batch_normalization_17[0][0]     \r\n__________________________________________________________________________________________________\r\nmax_pooling2d_8 (MaxPooling2D)  (None, 16, 16, 16)   0           activation_17[0][0]              \r\n__________________________________________________________________________________________________\r\nconv2d_18 (Conv2D)              (None, 16, 16, 16)   2320        max_pooling2d_8[0][0]            \r\n__________________________________________________________________________________________________\r\nbatch_normalization_18 (BatchNo (None, 16, 16, 16)   64          conv2d_18[0][0]                  \r\n__________________________________________________________________________________________________\r\nactivation_18 (Activation)      (None, 16, 16, 16)   0           batch_normalization_18[0][0]     \r\n__________________________________________________________________________________________________\r\nmax_pooling2d_9 (MaxPooling2D)  (None, 8, 8, 16)     0           activation_18[0][0]              \r\n__________________________________________________________________________________________________\r\nconv2d_20 (Conv2D)              (None, 8, 8, 16)     2320        max_pooling2d_9[0][0]            \r\n__________________________________________________________________________________________________\r\nconv2d_19 (Conv2D)              (None, 8, 8, 16)     2320        max_pooling2d_9[0][0]            \r\n__________________________________________________________________________________________________\r\nbatch_normalization_20 (BatchNo (None, 8, 8, 16)     64          conv2d_20[0][0]                  \r\n__________________________________________________________________________________________________\r\nbatch_normalization_19 (BatchNo (None, 8, 8, 16)     64          conv2d_19[0][0]                  \r\n__________________________________________________________________________________________________\r\nactivation_20 (Activation)      (None, 8, 8, 16)     0           batch_normalization_20[0][0]     \r\n__________________________________________________________________________________________________\r\nactivation_19 (Activation)      (None, 8, 8, 16)     0           batch_normalization_19[0][0]     \r\n__________________________________________________________________________________________________\r\ntf_op_layer_concat_6 (TensorFlo (None, 8, 8, 32)     0           activation_20[0][0]              \r\n                                                                 activation_19[0][0]              \r\n__________________________________________________________________________________________________\r\nconv2d_21 (Conv2D)              (None, 8, 8, 16)     4624        tf_op_layer_concat_6[0][0]       \r\n__________________________________________________________________________________________________\r\nbatch_normalization_21 (BatchNo (None, 8, 8, 16)     64          conv2d_21[0][0]                  \r\n__________________________________________________________________________________________________\r\nactivation_21 (Activation)      (None, 8, 8, 16)     0           batch_normalization_21[0][0]     \r\n__________________________________________________________________________________________________\r\nup_sampling2d_5 (UpSampling2D)  (None, 16, 16, 16)   0           activation_21[0][0]              \r\n__________________________________________________________________________________________________\r\ntf_op_layer_concat_7 (TensorFlo (None, 16, 16, 32)   0           up_sampling2d_5[0][0]            \r\n                                                                 activation_18[0][0]              \r\n__________________________________________________________________________________________________\r\nconv2d_22 (Conv2D)              (None, 16, 16, 16)   4624        tf_op_layer_concat_7[0][0]       \r\n__________________________________________________________________________________________________\r\nbatch_normalization_22 (BatchNo (None, 16, 16, 16)   64          conv2d_22[0][0]                  \r\n__________________________________________________________________________________________________\r\nactivation_22 (Activation)      (None, 16, 16, 16)   0           batch_normalization_22[0][0]     \r\n__________________________________________________________________________________________________\r\nup_sampling2d_6 (UpSampling2D)  (None, 32, 32, 16)   0           activation_22[0][0]              \r\n__________________________________________________________________________________________________\r\ntf_op_layer_concat_8 (TensorFlo (None, 32, 32, 32)   0           up_sampling2d_6[0][0]            \r\n                                                                 activation_17[0][0]              \r\n__________________________________________________________________________________________________\r\nconv2d_23 (Conv2D)              (None, 32, 32, 16)   4624        tf_op_layer_concat_8[0][0]       \r\n__________________________________________________________________________________________________\r\nbatch_normalization_23 (BatchNo (None, 32, 32, 16)   64          conv2d_23[0][0]                  \r\n__________________________________________________________________________________________________\r\nactivation_23 (Activation)      (None, 32, 32, 16)   0           batch_normalization_23[0][0]     \r\n__________________________________________________________________________________________________\r\nup_sampling2d_7 (UpSampling2D)  (None, 64, 64, 16)   0           activation_23[0][0]              \r\n__________________________________________________________________________________________________\r\ntf_op_layer_concat_9 (TensorFlo (None, 64, 64, 32)   0           up_sampling2d_7[0][0]            \r\n                                                                 activation_16[0][0]              \r\n__________________________________________________________________________________________________\r\nconv2d_24 (Conv2D)              (None, 64, 64, 16)   4624        tf_op_layer_concat_9[0][0]       \r\n__________________________________________________________________________________________________\r\nbatch_normalization_24 (BatchNo (None, 64, 64, 16)   64          conv2d_24[0][0]                  \r\n__________________________________________________________________________________________________\r\nactivation_24 (Activation)      (None, 64, 64, 16)   0           batch_normalization_24[0][0]     \r\n__________________________________________________________________________________________________\r\nup_sampling2d_8 (UpSampling2D)  (None, 128, 128, 16) 0           activation_24[0][0]              \r\n__________________________________________________________________________________________________\r\ntf_op_layer_concat_10 (TensorFl (None, 128, 128, 32) 0           up_sampling2d_8[0][0]            \r\n                                                                 activation_15[0][0]              \r\n__________________________________________________________________________________________________\r\nconv2d_25 (Conv2D)              (None, 128, 128, 64) 18496       tf_op_layer_concat_10[0][0]      \r\n__________________________________________________________________________________________________\r\nbatch_normalization_25 (BatchNo (None, 128, 128, 64) 256         conv2d_25[0][0]                  \r\n__________________________________________________________________________________________________\r\nactivation_25 (Activation)      (None, 128, 128, 64) 0           batch_normalization_25[0][0]     \r\n__________________________________________________________________________________________________\r\ntf_op_layer_AddV2_1 (TensorFlow (None, 128, 128, 64) 0           activation_25[0][0]              \r\n                                                                 activation_14[0][0]              \r\n__________________________________________________________________________________________________\r\nmax_pooling2d_10 (MaxPooling2D) (None, 64, 64, 64)   0           tf_op_layer_AddV2_1[0][0]        \r\n__________________________________________________________________________________________________\r\nconv2d_26 (Conv2D)              (None, 64, 64, 64)   36928       max_pooling2d_10[0][0]           \r\n__________________________________________________________________________________________________\r\nbatch_normalization_26 (BatchNo (None, 64, 64, 64)   256         conv2d_26[0][0]                  \r\n__________________________________________________________________________________________________\r\nactivation_26 (Activation)      (None, 64, 64, 64)   0           batch_normalization_26[0][0]     \r\n__________________________________________________________________________________________________\r\nconv2d_27 (Conv2D)              (None, 64, 64, 16)   9232        activation_26[0][0]              \r\n__________________________________________________________________________________________________\r\nbatch_normalization_27 (BatchNo (None, 64, 64, 16)   64          conv2d_27[0][0]                  \r\n__________________________________________________________________________________________________\r\nactivation_27 (Activation)      (None, 64, 64, 16)   0           batch_normalization_27[0][0]     \r\n__________________________________________________________________________________________________\r\nmax_pooling2d_11 (MaxPooling2D) (None, 32, 32, 16)   0           activation_27[0][0]              \r\n__________________________________________________________________________________________________\r\nconv2d_28 (Conv2D)              (None, 32, 32, 16)   2320        max_pooling2d_11[0][0]           \r\n__________________________________________________________________________________________________\r\nbatch_normalization_28 (BatchNo (None, 32, 32, 16)   64          conv2d_28[0][0]                  \r\n__________________________________________________________________________________________________\r\nactivation_28 (Activation)      (None, 32, 32, 16)   0           batch_normalization_28[0][0]     \r\n__________________________________________________________________________________________________\r\nmax_pooling2d_12 (MaxPooling2D) (None, 16, 16, 16)   0           activation_28[0][0]              \r\n__________________________________________________________________________________________________\r\nconv2d_29 (Conv2D)              (None, 16, 16, 16)   2320        max_pooling2d_12[0][0]           \r\n__________________________________________________________________________________________________\r\nbatch_normalization_29 (BatchNo (None, 16, 16, 16)   64          conv2d_29[0][0]                  \r\n__________________________________________________________________________________________________\r\nactivation_29 (Activation)      (None, 16, 16, 16)   0           batch_normalization_29[0][0]     \r\n__________________________________________________________________________________________________\r\nmax_pooling2d_13 (MaxPooling2D) (None, 8, 8, 16)     0           activation_29[0][0]              \r\n__________________________________________________________________________________________________\r\nconv2d_31 (Conv2D)              (None, 8, 8, 16)     2320        max_pooling2d_13[0][0]           \r\n__________________________________________________________________________________________________\r\nconv2d_30 (Conv2D)              (None, 8, 8, 16)     2320        max_pooling2d_13[0][0]           \r\n__________________________________________________________________________________________________\r\nbatch_normalization_31 (BatchNo (None, 8, 8, 16)     64          conv2d_31[0][0]                  \r\n__________________________________________________________________________________________________\r\nbatch_normalization_30 (BatchNo (None, 8, 8, 16)     64          conv2d_30[0][0]                  \r\n__________________________________________________________________________________________________\r\nactivation_31 (Activation)      (None, 8, 8, 16)     0           batch_normalization_31[0][0]     \r\n__________________________________________________________________________________________________\r\nactivation_30 (Activation)      (None, 8, 8, 16)     0           batch_normalization_30[0][0]     \r\n__________________________________________________________________________________________________\r\ntf_op_layer_concat_11 (TensorFl (None, 8, 8, 32)     0           activation_31[0][0]              \r\n                                                                 activation_30[0][0]              \r\n__________________________________________________________________________________________________\r\nconv2d_32 (Conv2D)              (None, 8, 8, 16)     4624        tf_op_layer_concat_11[0][0]      \r\n__________________________________________________________________________________________________\r\nbatch_normalization_32 (BatchNo (None, 8, 8, 16)     64          conv2d_32[0][0]                  \r\n__________________________________________________________________________________________________\r\nactivation_32 (Activation)      (None, 8, 8, 16)     0           batch_normalization_32[0][0]     \r\n__________________________________________________________________________________________________\r\nup_sampling2d_9 (UpSampling2D)  (None, 16, 16, 16)   0           activation_32[0][0]              \r\n__________________________________________________________________________________________________\r\ntf_op_layer_concat_12 (TensorFl (None, 16, 16, 32)   0           up_sampling2d_9[0][0]            \r\n                                                                 activation_29[0][0]              \r\n__________________________________________________________________________________________________\r\nconv2d_33 (Conv2D)              (None, 16, 16, 16)   4624        tf_op_layer_concat_12[0][0]      \r\n__________________________________________________________________________________________________\r\nbatch_normalization_33 (BatchNo (None, 16, 16, 16)   64          conv2d_33[0][0]                  \r\n__________________________________________________________________________________________________\r\nactivation_33 (Activation)      (None, 16, 16, 16)   0           batch_normalization_33[0][0]     \r\n__________________________________________________________________________________________________\r\nup_sampling2d_10 (UpSampling2D) (None, 32, 32, 16)   0           activation_33[0][0]              \r\n__________________________________________________________________________________________________\r\ntf_op_layer_concat_13 (TensorFl (None, 32, 32, 32)   0           up_sampling2d_10[0][0]           \r\n                                                                 activation_28[0][0]              \r\n__________________________________________________________________________________________________\r\nconv2d_34 (Conv2D)              (None, 32, 32, 16)   4624        tf_op_layer_concat_13[0][0]      \r\n__________________________________________________________________________________________________\r\nbatch_normalization_34 (BatchNo (None, 32, 32, 16)   64          conv2d_34[0][0]                  \r\n__________________________________________________________________________________________________\r\nactivation_34 (Activation)      (None, 32, 32, 16)   0           batch_normalization_34[0][0]     \r\n__________________________________________________________________________________________________\r\nup_sampling2d_11 (UpSampling2D) (None, 64, 64, 16)   0           activation_34[0][0]              \r\n__________________________________________________________________________________________________\r\ntf_op_layer_concat_14 (TensorFl (None, 64, 64, 32)   0           up_sampling2d_11[0][0]           \r\n                                                                 activation_27[0][0]              \r\n__________________________________________________________________________________________________\r\nconv2d_35 (Conv2D)              (None, 64, 64, 64)   18496       tf_op_layer_concat_14[0][0]      \r\n__________________________________________________________________________________________________\r\nbatch_normalization_35 (BatchNo (None, 64, 64, 64)   256         conv2d_35[0][0]                  \r\n__________________________________________________________________________________________________\r\nactivation_35 (Activation)      (None, 64, 64, 64)   0           batch_normalization_35[0][0]     \r\n__________________________________________________________________________________________________\r\ntf_op_layer_AddV2_2 (TensorFlow (None, 64, 64, 64)   0           activation_35[0][0]              \r\n                                                                 activation_26[0][0]              \r\n__________________________________________________________________________________________________\r\nmax_pooling2d_14 (MaxPooling2D) (None, 32, 32, 64)   0           tf_op_layer_AddV2_2[0][0]        \r\n__________________________________________________________________________________________________\r\nconv2d_36 (Conv2D)              (None, 32, 32, 64)   36928       max_pooling2d_14[0][0]           \r\n__________________________________________________________________________________________________\r\nbatch_normalization_36 (BatchNo (None, 32, 32, 64)   256         conv2d_36[0][0]                  \r\n__________________________________________________________________________________________________\r\nactivation_36 (Activation)      (None, 32, 32, 64)   0           batch_normalization_36[0][0]     \r\n__________________________________________________________________________________________________\r\nconv2d_37 (Conv2D)              (None, 32, 32, 16)   9232        activation_36[0][0]              \r\n__________________________________________________________________________________________________\r\nbatch_normalization_37 (BatchNo (None, 32, 32, 16)   64          conv2d_37[0][0]                  \r\n__________________________________________________________________________________________________\r\nactivation_37 (Activation)      (None, 32, 32, 16)   0           batch_normalization_37[0][0]     \r\n__________________________________________________________________________________________________\r\nmax_pooling2d_15 (MaxPooling2D) (None, 16, 16, 16)   0           activation_37[0][0]              \r\n__________________________________________________________________________________________________\r\nconv2d_38 (Conv2D)              (None, 16, 16, 16)   2320        max_pooling2d_15[0][0]           \r\n__________________________________________________________________________________________________\r\nbatch_normalization_38 (BatchNo (None, 16, 16, 16)   64          conv2d_38[0][0]                  \r\n__________________________________________________________________________________________________\r\nactivation_38 (Activation)      (None, 16, 16, 16)   0           batch_normalization_38[0][0]     \r\n__________________________________________________________________________________________________\r\nmax_pooling2d_16 (MaxPooling2D) (None, 8, 8, 16)     0           activation_38[0][0]              \r\n__________________________________________________________________________________________________\r\nconv2d_40 (Conv2D)              (None, 8, 8, 16)     2320        max_pooling2d_16[0][0]           \r\n__________________________________________________________________________________________________\r\nconv2d_39 (Conv2D)              (None, 8, 8, 16)     2320        max_pooling2d_16[0][0]           \r\n__________________________________________________________________________________________________\r\nbatch_normalization_40 (BatchNo (None, 8, 8, 16)     64          conv2d_40[0][0]                  \r\n__________________________________________________________________________________________________\r\nbatch_normalization_39 (BatchNo (None, 8, 8, 16)     64          conv2d_39[0][0]                  \r\n__________________________________________________________________________________________________\r\nactivation_40 (Activation)      (None, 8, 8, 16)     0           batch_normalization_40[0][0]     \r\n__________________________________________________________________________________________________\r\nactivation_39 (Activation)      (None, 8, 8, 16)     0           batch_normalization_39[0][0]     \r\n__________________________________________________________________________________________________\r\ntf_op_layer_concat_15 (TensorFl (None, 8, 8, 32)     0           activation_40[0][0]              \r\n                                                                 activation_39[0][0]              \r\n__________________________________________________________________________________________________\r\nconv2d_41 (Conv2D)              (None, 8, 8, 16)     4624        tf_op_layer_concat_15[0][0]      \r\n__________________________________________________________________________________________________\r\nbatch_normalization_41 (BatchNo (None, 8, 8, 16)     64          conv2d_41[0][0]                  \r\n__________________________________________________________________________________________________\r\nactivation_41 (Activation)      (None, 8, 8, 16)     0           batch_normalization_41[0][0]     \r\n__________________________________________________________________________________________________\r\nup_sampling2d_12 (UpSampling2D) (None, 16, 16, 16)   0           activation_41[0][0]              \r\n__________________________________________________________________________________________________\r\ntf_op_layer_concat_16 (TensorFl (None, 16, 16, 32)   0           up_sampling2d_12[0][0]           \r\n                                                                 activation_38[0][0]              \r\n__________________________________________________________________________________________________\r\nconv2d_42 (Conv2D)              (None, 16, 16, 16)   4624        tf_op_layer_concat_16[0][0]      \r\n__________________________________________________________________________________________________\r\nbatch_normalization_42 (BatchNo (None, 16, 16, 16)   64          conv2d_42[0][0]                  \r\n__________________________________________________________________________________________________\r\nactivation_42 (Activation)      (None, 16, 16, 16)   0           batch_normalization_42[0][0]     \r\n__________________________________________________________________________________________________\r\nup_sampling2d_13 (UpSampling2D) (None, 32, 32, 16)   0           activation_42[0][0]              \r\n__________________________________________________________________________________________________\r\ntf_op_layer_concat_17 (TensorFl (None, 32, 32, 32)   0           up_sampling2d_13[0][0]           \r\n                                                                 activation_37[0][0]              \r\n__________________________________________________________________________________________________\r\nconv2d_43 (Conv2D)              (None, 32, 32, 64)   18496       tf_op_layer_concat_17[0][0]      \r\n__________________________________________________________________________________________________\r\nbatch_normalization_43 (BatchNo (None, 32, 32, 64)   256         conv2d_43[0][0]                  \r\n__________________________________________________________________________________________________\r\nactivation_43 (Activation)      (None, 32, 32, 64)   0           batch_normalization_43[0][0]     \r\n__________________________________________________________________________________________________\r\ntf_op_layer_AddV2_3 (TensorFlow (None, 32, 32, 64)   0           activation_43[0][0]              \r\n                                                                 activation_36[0][0]              \r\n__________________________________________________________________________________________________\r\nmax_pooling2d_17 (MaxPooling2D) (None, 16, 16, 64)   0           tf_op_layer_AddV2_3[0][0]        \r\n__________________________________________________________________________________________________\r\nconv2d_44 (Conv2D)              (None, 16, 16, 64)   36928       max_pooling2d_17[0][0]           \r\n__________________________________________________________________________________________________\r\nbatch_normalization_44 (BatchNo (None, 16, 16, 64)   256         conv2d_44[0][0]                  \r\n__________________________________________________________________________________________________\r\nactivation_44 (Activation)      (None, 16, 16, 64)   0           batch_normalization_44[0][0]     \r\n__________________________________________________________________________________________________\r\nconv2d_45 (Conv2D)              (None, 16, 16, 16)   9232        activation_44[0][0]              \r\n__________________________________________________________________________________________________\r\nbatch_normalization_45 (BatchNo (None, 16, 16, 16)   64          conv2d_45[0][0]                  \r\n__________________________________________________________________________________________________\r\nactivation_45 (Activation)      (None, 16, 16, 16)   0           batch_normalization_45[0][0]     \r\n__________________________________________________________________________________________________\r\nmax_pooling2d_18 (MaxPooling2D) (None, 8, 8, 16)     0           activation_45[0][0]              \r\n__________________________________________________________________________________________________\r\nconv2d_46 (Conv2D)              (None, 8, 8, 16)     2320        max_pooling2d_18[0][0]           \r\n__________________________________________________________________________________________________\r\nbatch_normalization_46 (BatchNo (None, 8, 8, 16)     64          conv2d_46[0][0]                  \r\n__________________________________________________________________________________________________\r\nactivation_46 (Activation)      (None, 8, 8, 16)     0           batch_normalization_46[0][0]     \r\n__________________________________________________________________________________________________\r\nmax_pooling2d_19 (MaxPooling2D) (None, 4, 4, 16)     0           activation_46[0][0]              \r\n__________________________________________________________________________________________________\r\nconv2d_48 (Conv2D)              (None, 4, 4, 16)     2320        max_pooling2d_19[0][0]           \r\n__________________________________________________________________________________________________\r\nconv2d_47 (Conv2D)              (None, 4, 4, 16)     2320        max_pooling2d_19[0][0]           \r\n__________________________________________________________________________________________________\r\nbatch_normalization_48 (BatchNo (None, 4, 4, 16)     64          conv2d_48[0][0]                  \r\n__________________________________________________________________________________________________\r\nbatch_normalization_47 (BatchNo (None, 4, 4, 16)     64          conv2d_47[0][0]                  \r\n__________________________________________________________________________________________________\r\nactivation_48 (Activation)      (None, 4, 4, 16)     0           batch_normalization_48[0][0]     \r\n__________________________________________________________________________________________________\r\nactivation_47 (Activation)      (None, 4, 4, 16)     0           batch_normalization_47[0][0]     \r\n__________________________________________________________________________________________________\r\ntf_op_layer_concat_18 (TensorFl (None, 4, 4, 32)     0           activation_48[0][0]              \r\n                                                                 activation_47[0][0]              \r\n__________________________________________________________________________________________________\r\nconv2d_49 (Conv2D)              (None, 4, 4, 16)     4624        tf_op_layer_concat_18[0][0]      \r\n__________________________________________________________________________________________________\r\nbatch_normalization_49 (BatchNo (None, 4, 4, 16)     64          conv2d_49[0][0]                  \r\n__________________________________________________________________________________________________\r\nactivation_49 (Activation)      (None, 4, 4, 16)     0           batch_normalization_49[0][0]     \r\n__________________________________________________________________________________________________\r\nup_sampling2d_14 (UpSampling2D) (None, 8, 8, 16)     0           activation_49[0][0]              \r\n__________________________________________________________________________________________________\r\ntf_op_layer_concat_19 (TensorFl (None, 8, 8, 32)     0           up_sampling2d_14[0][0]           \r\n                                                                 activation_46[0][0]              \r\n__________________________________________________________________________________________________\r\nconv2d_50 (Conv2D)              (None, 8, 8, 16)     4624        tf_op_layer_concat_19[0][0]      \r\n__________________________________________________________________________________________________\r\nbatch_normalization_50 (BatchNo (None, 8, 8, 16)     64          conv2d_50[0][0]                  \r\n__________________________________________________________________________________________________\r\nactivation_50 (Activation)      (None, 8, 8, 16)     0           batch_normalization_50[0][0]     \r\n__________________________________________________________________________________________________\r\nup_sampling2d_15 (UpSampling2D) (None, 16, 16, 16)   0           activation_50[0][0]              \r\n__________________________________________________________________________________________________\r\ntf_op_layer_concat_20 (TensorFl (None, 16, 16, 32)   0           up_sampling2d_15[0][0]           \r\n                                                                 activation_45[0][0]              \r\n__________________________________________________________________________________________________\r\nconv2d_51 (Conv2D)              (None, 16, 16, 64)   18496       tf_op_layer_concat_20[0][0]      \r\n__________________________________________________________________________________________________\r\nbatch_normalization_51 (BatchNo (None, 16, 16, 64)   256         conv2d_51[0][0]                  \r\n__________________________________________________________________________________________________\r\nactivation_51 (Activation)      (None, 16, 16, 64)   0           batch_normalization_51[0][0]     \r\n__________________________________________________________________________________________________\r\ntf_op_layer_AddV2_4 (TensorFlow (None, 16, 16, 64)   0           activation_51[0][0]              \r\n                                                                 activation_44[0][0]              \r\n__________________________________________________________________________________________________\r\nmax_pooling2d_20 (MaxPooling2D) (None, 8, 8, 64)     0           tf_op_layer_AddV2_4[0][0]        \r\n__________________________________________________________________________________________________\r\nconv2d_52 (Conv2D)              (None, 8, 8, 64)     36928       max_pooling2d_20[0][0]           \r\n__________________________________________________________________________________________________\r\nbatch_normalization_52 (BatchNo (None, 8, 8, 64)     256         conv2d_52[0][0]                  \r\n__________________________________________________________________________________________________\r\nactivation_52 (Activation)      (None, 8, 8, 64)     0           batch_normalization_52[0][0]     \r\n__________________________________________________________________________________________________\r\nconv2d_53 (Conv2D)              (None, 8, 8, 16)     9232        activation_52[0][0]              \r\n__________________________________________________________________________________________________\r\nbatch_normalization_53 (BatchNo (None, 8, 8, 16)     64          conv2d_53[0][0]                  \r\n__________________________________________________________________________________________________\r\nactivation_53 (Activation)      (None, 8, 8, 16)     0           batch_normalization_53[0][0]     \r\n__________________________________________________________________________________________________\r\nconv2d_54 (Conv2D)              (None, 8, 8, 16)     2320        activation_53[0][0]              \r\n__________________________________________________________________________________________________\r\nbatch_normalization_54 (BatchNo (None, 8, 8, 16)     64          conv2d_54[0][0]                  \r\n__________________________________________________________________________________________________\r\nactivation_54 (Activation)      (None, 8, 8, 16)     0           batch_normalization_54[0][0]     \r\n__________________________________________________________________________________________________\r\nconv2d_55 (Conv2D)              (None, 8, 8, 16)     2320        activation_54[0][0]              \r\n__________________________________________________________________________________________________\r\nbatch_normalization_55 (BatchNo (None, 8, 8, 16)     64          conv2d_55[0][0]                  \r\n__________________________________________________________________________________________________\r\nactivation_55 (Activation)      (None, 8, 8, 16)     0           batch_normalization_55[0][0]     \r\n__________________________________________________________________________________________________\r\nconv2d_56 (Conv2D)              (None, 8, 8, 16)     2320        activation_55[0][0]              \r\n__________________________________________________________________________________________________\r\nbatch_normalization_56 (BatchNo (None, 8, 8, 16)     64          conv2d_56[0][0]                  \r\n__________________________________________________________________________________________________\r\nactivation_56 (Activation)      (None, 8, 8, 16)     0           batch_normalization_56[0][0]     \r\n__________________________________________________________________________________________________\r\ntf_op_layer_concat_21 (TensorFl (None, 8, 8, 32)     0           activation_56[0][0]              \r\n                                                                 activation_55[0][0]              \r\n__________________________________________________________________________________________________\r\nconv2d_57 (Conv2D)              (None, 8, 8, 16)     4624        tf_op_layer_concat_21[0][0]      \r\n__________________________________________________________________________________________________\r\nbatch_normalization_57 (BatchNo (None, 8, 8, 16)     64          conv2d_57[0][0]                  \r\n__________________________________________________________________________________________________\r\nactivation_57 (Activation)      (None, 8, 8, 16)     0           batch_normalization_57[0][0]     \r\n__________________________________________________________________________________________________\r\ntf_op_layer_concat_22 (TensorFl (None, 8, 8, 32)     0           activation_57[0][0]              \r\n                                                                 activation_54[0][0]              \r\n__________________________________________________________________________________________________\r\nconv2d_58 (Conv2D)              (None, 8, 8, 16)     4624        tf_op_layer_concat_22[0][0]      \r\n__________________________________________________________________________________________________\r\nbatch_normalization_58 (BatchNo (None, 8, 8, 16)     64          conv2d_58[0][0]                  \r\n__________________________________________________________________________________________________\r\nactivation_58 (Activation)      (None, 8, 8, 16)     0           batch_normalization_58[0][0]     \r\n__________________________________________________________________________________________________\r\ntf_op_layer_concat_23 (TensorFl (None, 8, 8, 32)     0           activation_58[0][0]              \r\n                                                                 activation_53[0][0]              \r\n__________________________________________________________________________________________________\r\nconv2d_59 (Conv2D)              (None, 8, 8, 64)     18496       tf_op_layer_concat_23[0][0]      \r\n__________________________________________________________________________________________________\r\nbatch_normalization_59 (BatchNo (None, 8, 8, 64)     256         conv2d_59[0][0]                  \r\n__________________________________________________________________________________________________\r\nactivation_59 (Activation)      (None, 8, 8, 64)     0           batch_normalization_59[0][0]     \r\n__________________________________________________________________________________________________\r\ntf_op_layer_AddV2_5 (TensorFlow (None, 8, 8, 64)     0           activation_59[0][0]              \r\n                                                                 activation_52[0][0]              \r\n__________________________________________________________________________________________________\r\nup_sampling2d_16 (UpSampling2D) (None, 16, 16, 64)   0           tf_op_layer_AddV2_5[0][0]        \r\n__________________________________________________________________________________________________\r\ntf_op_layer_concat_24 (TensorFl (None, 16, 16, 128)  0           up_sampling2d_16[0][0]           \r\n                                                                 tf_op_layer_AddV2_4[0][0]        \r\n__________________________________________________________________________________________________\r\nconv2d_60 (Conv2D)              (None, 16, 16, 64)   73792       tf_op_layer_concat_24[0][0]      \r\n__________________________________________________________________________________________________\r\nbatch_normalization_60 (BatchNo (None, 16, 16, 64)   256         conv2d_60[0][0]                  \r\n__________________________________________________________________________________________________\r\nactivation_60 (Activation)      (None, 16, 16, 64)   0           batch_normalization_60[0][0]     \r\n__________________________________________________________________________________________________\r\nconv2d_61 (Conv2D)              (None, 16, 16, 16)   9232        activation_60[0][0]              \r\n__________________________________________________________________________________________________\r\nbatch_normalization_61 (BatchNo (None, 16, 16, 16)   64          conv2d_61[0][0]                  \r\n__________________________________________________________________________________________________\r\nactivation_61 (Activation)      (None, 16, 16, 16)   0           batch_normalization_61[0][0]     \r\n__________________________________________________________________________________________________\r\nconv2d_62 (Conv2D)              (None, 16, 16, 16)   2320        activation_61[0][0]              \r\n__________________________________________________________________________________________________\r\nbatch_normalization_62 (BatchNo (None, 16, 16, 16)   64          conv2d_62[0][0]                  \r\n__________________________________________________________________________________________________\r\nactivation_62 (Activation)      (None, 16, 16, 16)   0           batch_normalization_62[0][0]     \r\n__________________________________________________________________________________________________\r\nconv2d_63 (Conv2D)              (None, 16, 16, 16)   2320        activation_62[0][0]              \r\n__________________________________________________________________________________________________\r\nbatch_normalization_63 (BatchNo (None, 16, 16, 16)   64          conv2d_63[0][0]                  \r\n__________________________________________________________________________________________________\r\nactivation_63 (Activation)      (None, 16, 16, 16)   0           batch_normalization_63[0][0]     \r\n__________________________________________________________________________________________________\r\nconv2d_64 (Conv2D)              (None, 16, 16, 16)   2320        activation_63[0][0]              \r\n__________________________________________________________________________________________________\r\nbatch_normalization_64 (BatchNo (None, 16, 16, 16)   64          conv2d_64[0][0]                  \r\n__________________________________________________________________________________________________\r\nactivation_64 (Activation)      (None, 16, 16, 16)   0           batch_normalization_64[0][0]     \r\n__________________________________________________________________________________________________\r\ntf_op_layer_concat_25 (TensorFl (None, 16, 16, 32)   0           activation_64[0][0]              \r\n                                                                 activation_63[0][0]              \r\n__________________________________________________________________________________________________\r\nconv2d_65 (Conv2D)              (None, 16, 16, 16)   4624        tf_op_layer_concat_25[0][0]      \r\n__________________________________________________________________________________________________\r\nbatch_normalization_65 (BatchNo (None, 16, 16, 16)   64          conv2d_65[0][0]                  \r\n__________________________________________________________________________________________________\r\nactivation_65 (Activation)      (None, 16, 16, 16)   0           batch_normalization_65[0][0]     \r\n__________________________________________________________________________________________________\r\ntf_op_layer_concat_26 (TensorFl (None, 16, 16, 32)   0           activation_65[0][0]              \r\n                                                                 activation_62[0][0]              \r\n__________________________________________________________________________________________________\r\nconv2d_66 (Conv2D)              (None, 16, 16, 16)   4624        tf_op_layer_concat_26[0][0]      \r\n__________________________________________________________________________________________________\r\nbatch_normalization_66 (BatchNo (None, 16, 16, 16)   64          conv2d_66[0][0]                  \r\n__________________________________________________________________________________________________\r\nactivation_66 (Activation)      (None, 16, 16, 16)   0           batch_normalization_66[0][0]     \r\n__________________________________________________________________________________________________\r\ntf_op_layer_concat_27 (TensorFl (None, 16, 16, 32)   0           activation_66[0][0]              \r\n                                                                 activation_61[0][0]              \r\n__________________________________________________________________________________________________\r\nconv2d_67 (Conv2D)              (None, 16, 16, 64)   18496       tf_op_layer_concat_27[0][0]      \r\n__________________________________________________________________________________________________\r\nbatch_normalization_67 (BatchNo (None, 16, 16, 64)   256         conv2d_67[0][0]                  \r\n__________________________________________________________________________________________________\r\nactivation_67 (Activation)      (None, 16, 16, 64)   0           batch_normalization_67[0][0]     \r\n__________________________________________________________________________________________________\r\ntf_op_layer_AddV2_6 (TensorFlow (None, 16, 16, 64)   0           activation_67[0][0]              \r\n                                                                 activation_60[0][0]              \r\n__________________________________________________________________________________________________\r\nup_sampling2d_17 (UpSampling2D) (None, 32, 32, 64)   0           tf_op_layer_AddV2_6[0][0]        \r\n__________________________________________________________________________________________________\r\ntf_op_layer_concat_28 (TensorFl (None, 32, 32, 128)  0           up_sampling2d_17[0][0]           \r\n                                                                 tf_op_layer_AddV2_3[0][0]        \r\n__________________________________________________________________________________________________\r\nconv2d_68 (Conv2D)              (None, 32, 32, 64)   73792       tf_op_layer_concat_28[0][0]      \r\n__________________________________________________________________________________________________\r\nbatch_normalization_68 (BatchNo (None, 32, 32, 64)   256         conv2d_68[0][0]                  \r\n__________________________________________________________________________________________________\r\nactivation_68 (Activation)      (None, 32, 32, 64)   0           batch_normalization_68[0][0]     \r\n__________________________________________________________________________________________________\r\nconv2d_69 (Conv2D)              (None, 32, 32, 16)   9232        activation_68[0][0]              \r\n__________________________________________________________________________________________________\r\nbatch_normalization_69 (BatchNo (None, 32, 32, 16)   64          conv2d_69[0][0]                  \r\n__________________________________________________________________________________________________\r\nactivation_69 (Activation)      (None, 32, 32, 16)   0           batch_normalization_69[0][0]     \r\n__________________________________________________________________________________________________\r\nmax_pooling2d_21 (MaxPooling2D) (None, 16, 16, 16)   0           activation_69[0][0]              \r\n__________________________________________________________________________________________________\r\nconv2d_70 (Conv2D)              (None, 16, 16, 16)   2320        max_pooling2d_21[0][0]           \r\n__________________________________________________________________________________________________\r\nbatch_normalization_70 (BatchNo (None, 16, 16, 16)   64          conv2d_70[0][0]                  \r\n__________________________________________________________________________________________________\r\nactivation_70 (Activation)      (None, 16, 16, 16)   0           batch_normalization_70[0][0]     \r\n__________________________________________________________________________________________________\r\nmax_pooling2d_22 (MaxPooling2D) (None, 8, 8, 16)     0           activation_70[0][0]              \r\n__________________________________________________________________________________________________\r\nconv2d_72 (Conv2D)              (None, 8, 8, 16)     2320        max_pooling2d_22[0][0]           \r\n__________________________________________________________________________________________________\r\nconv2d_71 (Conv2D)              (None, 8, 8, 16)     2320        max_pooling2d_22[0][0]           \r\n__________________________________________________________________________________________________\r\nbatch_normalization_72 (BatchNo (None, 8, 8, 16)     64          conv2d_72[0][0]                  \r\n__________________________________________________________________________________________________\r\nbatch_normalization_71 (BatchNo (None, 8, 8, 16)     64          conv2d_71[0][0]                  \r\n__________________________________________________________________________________________________\r\nactivation_72 (Activation)      (None, 8, 8, 16)     0           batch_normalization_72[0][0]     \r\n__________________________________________________________________________________________________\r\nactivation_71 (Activation)      (None, 8, 8, 16)     0           batch_normalization_71[0][0]     \r\n__________________________________________________________________________________________________\r\ntf_op_layer_concat_29 (TensorFl (None, 8, 8, 32)     0           activation_72[0][0]              \r\n                                                                 activation_71[0][0]              \r\n__________________________________________________________________________________________________\r\nconv2d_73 (Conv2D)              (None, 8, 8, 16)     4624        tf_op_layer_concat_29[0][0]      \r\n__________________________________________________________________________________________________\r\nbatch_normalization_73 (BatchNo (None, 8, 8, 16)     64          conv2d_73[0][0]                  \r\n__________________________________________________________________________________________________\r\nactivation_73 (Activation)      (None, 8, 8, 16)     0           batch_normalization_73[0][0]     \r\n__________________________________________________________________________________________________\r\nup_sampling2d_18 (UpSampling2D) (None, 16, 16, 16)   0           activation_73[0][0]              \r\n__________________________________________________________________________________________________\r\ntf_op_layer_concat_30 (TensorFl (None, 16, 16, 32)   0           up_sampling2d_18[0][0]           \r\n                                                                 activation_70[0][0]              \r\n__________________________________________________________________________________________________\r\nconv2d_74 (Conv2D)              (None, 16, 16, 16)   4624        tf_op_layer_concat_30[0][0]      \r\n__________________________________________________________________________________________________\r\nbatch_normalization_74 (BatchNo (None, 16, 16, 16)   64          conv2d_74[0][0]                  \r\n__________________________________________________________________________________________________\r\nactivation_74 (Activation)      (None, 16, 16, 16)   0           batch_normalization_74[0][0]     \r\n__________________________________________________________________________________________________\r\nup_sampling2d_19 (UpSampling2D) (None, 32, 32, 16)   0           activation_74[0][0]              \r\n__________________________________________________________________________________________________\r\ntf_op_layer_concat_31 (TensorFl (None, 32, 32, 32)   0           up_sampling2d_19[0][0]           \r\n                                                                 activation_69[0][0]              \r\n__________________________________________________________________________________________________\r\nconv2d_75 (Conv2D)              (None, 32, 32, 64)   18496       tf_op_layer_concat_31[0][0]      \r\n__________________________________________________________________________________________________\r\nbatch_normalization_75 (BatchNo (None, 32, 32, 64)   256         conv2d_75[0][0]                  \r\n__________________________________________________________________________________________________\r\nactivation_75 (Activation)      (None, 32, 32, 64)   0           batch_normalization_75[0][0]     \r\n__________________________________________________________________________________________________\r\ntf_op_layer_AddV2_7 (TensorFlow (None, 32, 32, 64)   0           activation_75[0][0]              \r\n                                                                 activation_68[0][0]              \r\n__________________________________________________________________________________________________\r\nup_sampling2d_20 (UpSampling2D) (None, 64, 64, 64)   0           tf_op_layer_AddV2_7[0][0]        \r\n__________________________________________________________________________________________________\r\ntf_op_layer_concat_32 (TensorFl (None, 64, 64, 128)  0           up_sampling2d_20[0][0]           \r\n                                                                 tf_op_layer_AddV2_2[0][0]        \r\n__________________________________________________________________________________________________\r\nconv2d_76 (Conv2D)              (None, 64, 64, 64)   73792       tf_op_layer_concat_32[0][0]      \r\n__________________________________________________________________________________________________\r\nbatch_normalization_76 (BatchNo (None, 64, 64, 64)   256         conv2d_76[0][0]                  \r\n__________________________________________________________________________________________________\r\nactivation_76 (Activation)      (None, 64, 64, 64)   0           batch_normalization_76[0][0]     \r\n__________________________________________________________________________________________________\r\nconv2d_77 (Conv2D)              (None, 64, 64, 16)   9232        activation_76[0][0]              \r\n__________________________________________________________________________________________________\r\nbatch_normalization_77 (BatchNo (None, 64, 64, 16)   64          conv2d_77[0][0]                  \r\n__________________________________________________________________________________________________\r\nactivation_77 (Activation)      (None, 64, 64, 16)   0           batch_normalization_77[0][0]     \r\n__________________________________________________________________________________________________\r\nmax_pooling2d_23 (MaxPooling2D) (None, 32, 32, 16)   0           activation_77[0][0]              \r\n__________________________________________________________________________________________________\r\nconv2d_78 (Conv2D)              (None, 32, 32, 16)   2320        max_pooling2d_23[0][0]           \r\n__________________________________________________________________________________________________\r\nbatch_normalization_78 (BatchNo (None, 32, 32, 16)   64          conv2d_78[0][0]                  \r\n__________________________________________________________________________________________________\r\nactivation_78 (Activation)      (None, 32, 32, 16)   0           batch_normalization_78[0][0]     \r\n__________________________________________________________________________________________________\r\nmax_pooling2d_24 (MaxPooling2D) (None, 16, 16, 16)   0           activation_78[0][0]              \r\n__________________________________________________________________________________________________\r\nconv2d_79 (Conv2D)              (None, 16, 16, 16)   2320        max_pooling2d_24[0][0]           \r\n__________________________________________________________________________________________________\r\nbatch_normalization_79 (BatchNo (None, 16, 16, 16)   64          conv2d_79[0][0]                  \r\n__________________________________________________________________________________________________\r\nactivation_79 (Activation)      (None, 16, 16, 16)   0           batch_normalization_79[0][0]     \r\n__________________________________________________________________________________________________\r\nmax_pooling2d_25 (MaxPooling2D) (None, 8, 8, 16)     0           activation_79[0][0]              \r\n__________________________________________________________________________________________________\r\nconv2d_81 (Conv2D)              (None, 8, 8, 16)     2320        max_pooling2d_25[0][0]           \r\n__________________________________________________________________________________________________\r\nconv2d_80 (Conv2D)              (None, 8, 8, 16)     2320        max_pooling2d_25[0][0]           \r\n__________________________________________________________________________________________________\r\nbatch_normalization_81 (BatchNo (None, 8, 8, 16)     64          conv2d_81[0][0]                  \r\n__________________________________________________________________________________________________\r\nbatch_normalization_80 (BatchNo (None, 8, 8, 16)     64          conv2d_80[0][0]                  \r\n__________________________________________________________________________________________________\r\nactivation_81 (Activation)      (None, 8, 8, 16)     0           batch_normalization_81[0][0]     \r\n__________________________________________________________________________________________________\r\nactivation_80 (Activation)      (None, 8, 8, 16)     0           batch_normalization_80[0][0]     \r\n__________________________________________________________________________________________________\r\ntf_op_layer_concat_33 (TensorFl (None, 8, 8, 32)     0           activation_81[0][0]              \r\n                                                                 activation_80[0][0]              \r\n__________________________________________________________________________________________________\r\nconv2d_82 (Conv2D)              (None, 8, 8, 16)     4624        tf_op_layer_concat_33[0][0]      \r\n__________________________________________________________________________________________________\r\nbatch_normalization_82 (BatchNo (None, 8, 8, 16)     64          conv2d_82[0][0]                  \r\n__________________________________________________________________________________________________\r\nactivation_82 (Activation)      (None, 8, 8, 16)     0           batch_normalization_82[0][0]     \r\n__________________________________________________________________________________________________\r\nup_sampling2d_21 (UpSampling2D) (None, 16, 16, 16)   0           activation_82[0][0]              \r\n__________________________________________________________________________________________________\r\ntf_op_layer_concat_34 (TensorFl (None, 16, 16, 32)   0           up_sampling2d_21[0][0]           \r\n                                                                 activation_79[0][0]              \r\n__________________________________________________________________________________________________\r\nconv2d_83 (Conv2D)              (None, 16, 16, 16)   4624        tf_op_layer_concat_34[0][0]      \r\n__________________________________________________________________________________________________\r\nbatch_normalization_83 (BatchNo (None, 16, 16, 16)   64          conv2d_83[0][0]                  \r\n__________________________________________________________________________________________________\r\nactivation_83 (Activation)      (None, 16, 16, 16)   0           batch_normalization_83[0][0]     \r\n__________________________________________________________________________________________________\r\nup_sampling2d_22 (UpSampling2D) (None, 32, 32, 16)   0           activation_83[0][0]              \r\n__________________________________________________________________________________________________\r\ntf_op_layer_concat_35 (TensorFl (None, 32, 32, 32)   0           up_sampling2d_22[0][0]           \r\n                                                                 activation_78[0][0]              \r\n__________________________________________________________________________________________________\r\nconv2d_84 (Conv2D)              (None, 32, 32, 16)   4624        tf_op_layer_concat_35[0][0]      \r\n__________________________________________________________________________________________________\r\nbatch_normalization_84 (BatchNo (None, 32, 32, 16)   64          conv2d_84[0][0]                  \r\n__________________________________________________________________________________________________\r\nactivation_84 (Activation)      (None, 32, 32, 16)   0           batch_normalization_84[0][0]     \r\n__________________________________________________________________________________________________\r\nup_sampling2d_23 (UpSampling2D) (None, 64, 64, 16)   0           activation_84[0][0]              \r\n__________________________________________________________________________________________________\r\ntf_op_layer_concat_36 (TensorFl (None, 64, 64, 32)   0           up_sampling2d_23[0][0]           \r\n                                                                 activation_77[0][0]              \r\n__________________________________________________________________________________________________\r\nconv2d_85 (Conv2D)              (None, 64, 64, 64)   18496       tf_op_layer_concat_36[0][0]      \r\n__________________________________________________________________________________________________\r\nbatch_normalization_85 (BatchNo (None, 64, 64, 64)   256         conv2d_85[0][0]                  \r\n__________________________________________________________________________________________________\r\nactivation_85 (Activation)      (None, 64, 64, 64)   0           batch_normalization_85[0][0]     \r\n__________________________________________________________________________________________________\r\ntf_op_layer_AddV2_8 (TensorFlow (None, 64, 64, 64)   0           activation_85[0][0]              \r\n                                                                 activation_76[0][0]              \r\n__________________________________________________________________________________________________\r\nup_sampling2d_24 (UpSampling2D) (None, 128, 128, 64) 0           tf_op_layer_AddV2_8[0][0]        \r\n__________________________________________________________________________________________________\r\ntf_op_layer_concat_37 (TensorFl (None, 128, 128, 128 0           up_sampling2d_24[0][0]           \r\n                                                                 tf_op_layer_AddV2_1[0][0]        \r\n__________________________________________________________________________________________________\r\nconv2d_86 (Conv2D)              (None, 128, 128, 64) 73792       tf_op_layer_concat_37[0][0]      \r\n__________________________________________________________________________________________________\r\nbatch_normalization_86 (BatchNo (None, 128, 128, 64) 256         conv2d_86[0][0]                  \r\n__________________________________________________________________________________________________\r\nactivation_86 (Activation)      (None, 128, 128, 64) 0           batch_normalization_86[0][0]     \r\n__________________________________________________________________________________________________\r\nconv2d_87 (Conv2D)              (None, 128, 128, 16) 9232        activation_86[0][0]              \r\n__________________________________________________________________________________________________\r\nbatch_normalization_87 (BatchNo (None, 128, 128, 16) 64          conv2d_87[0][0]                  \r\n__________________________________________________________________________________________________\r\nactivation_87 (Activation)      (None, 128, 128, 16) 0           batch_normalization_87[0][0]     \r\n__________________________________________________________________________________________________\r\nmax_pooling2d_26 (MaxPooling2D) (None, 64, 64, 16)   0           activation_87[0][0]              \r\n__________________________________________________________________________________________________\r\nconv2d_88 (Conv2D)              (None, 64, 64, 16)   2320        max_pooling2d_26[0][0]           \r\n__________________________________________________________________________________________________\r\nbatch_normalization_88 (BatchNo (None, 64, 64, 16)   64          conv2d_88[0][0]                  \r\n__________________________________________________________________________________________________\r\nactivation_88 (Activation)      (None, 64, 64, 16)   0           batch_normalization_88[0][0]     \r\n__________________________________________________________________________________________________\r\nmax_pooling2d_27 (MaxPooling2D) (None, 32, 32, 16)   0           activation_88[0][0]              \r\n__________________________________________________________________________________________________\r\nconv2d_89 (Conv2D)              (None, 32, 32, 16)   2320        max_pooling2d_27[0][0]           \r\n__________________________________________________________________________________________________\r\nbatch_normalization_89 (BatchNo (None, 32, 32, 16)   64          conv2d_89[0][0]                  \r\n__________________________________________________________________________________________________\r\nactivation_89 (Activation)      (None, 32, 32, 16)   0           batch_normalization_89[0][0]     \r\n__________________________________________________________________________________________________\r\nmax_pooling2d_28 (MaxPooling2D) (None, 16, 16, 16)   0           activation_89[0][0]              \r\n__________________________________________________________________________________________________\r\nconv2d_90 (Conv2D)              (None, 16, 16, 16)   2320        max_pooling2d_28[0][0]           \r\n__________________________________________________________________________________________________\r\nbatch_normalization_90 (BatchNo (None, 16, 16, 16)   64          conv2d_90[0][0]                  \r\n__________________________________________________________________________________________________\r\nactivation_90 (Activation)      (None, 16, 16, 16)   0           batch_normalization_90[0][0]     \r\n__________________________________________________________________________________________________\r\nmax_pooling2d_29 (MaxPooling2D) (None, 8, 8, 16)     0           activation_90[0][0]              \r\n__________________________________________________________________________________________________\r\nconv2d_92 (Conv2D)              (None, 8, 8, 16)     2320        max_pooling2d_29[0][0]           \r\n__________________________________________________________________________________________________\r\nconv2d_91 (Conv2D)              (None, 8, 8, 16)     2320        max_pooling2d_29[0][0]           \r\n__________________________________________________________________________________________________\r\nbatch_normalization_92 (BatchNo (None, 8, 8, 16)     64          conv2d_92[0][0]                  \r\n__________________________________________________________________________________________________\r\nbatch_normalization_91 (BatchNo (None, 8, 8, 16)     64          conv2d_91[0][0]                  \r\n__________________________________________________________________________________________________\r\nactivation_92 (Activation)      (None, 8, 8, 16)     0           batch_normalization_92[0][0]     \r\n__________________________________________________________________________________________________\r\nactivation_91 (Activation)      (None, 8, 8, 16)     0           batch_normalization_91[0][0]     \r\n__________________________________________________________________________________________________\r\ntf_op_layer_concat_38 (TensorFl (None, 8, 8, 32)     0           activation_92[0][0]              \r\n                                                                 activation_91[0][0]              \r\n__________________________________________________________________________________________________\r\nconv2d_93 (Conv2D)              (None, 8, 8, 16)     4624        tf_op_layer_concat_38[0][0]      \r\n__________________________________________________________________________________________________\r\nbatch_normalization_93 (BatchNo (None, 8, 8, 16)     64          conv2d_93[0][0]                  \r\n__________________________________________________________________________________________________\r\nactivation_93 (Activation)      (None, 8, 8, 16)     0           batch_normalization_93[0][0]     \r\n__________________________________________________________________________________________________\r\nup_sampling2d_25 (UpSampling2D) (None, 16, 16, 16)   0           activation_93[0][0]              \r\n__________________________________________________________________________________________________\r\ntf_op_layer_concat_39 (TensorFl (None, 16, 16, 32)   0           up_sampling2d_25[0][0]           \r\n                                                                 activation_90[0][0]              \r\n__________________________________________________________________________________________________\r\nconv2d_94 (Conv2D)              (None, 16, 16, 16)   4624        tf_op_layer_concat_39[0][0]      \r\n__________________________________________________________________________________________________\r\nbatch_normalization_94 (BatchNo (None, 16, 16, 16)   64          conv2d_94[0][0]                  \r\n__________________________________________________________________________________________________\r\nactivation_94 (Activation)      (None, 16, 16, 16)   0           batch_normalization_94[0][0]     \r\n__________________________________________________________________________________________________\r\nup_sampling2d_26 (UpSampling2D) (None, 32, 32, 16)   0           activation_94[0][0]              \r\n__________________________________________________________________________________________________\r\ntf_op_layer_concat_40 (TensorFl (None, 32, 32, 32)   0           up_sampling2d_26[0][0]           \r\n                                                                 activation_89[0][0]              \r\n__________________________________________________________________________________________________\r\nconv2d_95 (Conv2D)              (None, 32, 32, 16)   4624        tf_op_layer_concat_40[0][0]      \r\n__________________________________________________________________________________________________\r\nbatch_normalization_95 (BatchNo (None, 32, 32, 16)   64          conv2d_95[0][0]                  \r\n__________________________________________________________________________________________________\r\nactivation_95 (Activation)      (None, 32, 32, 16)   0           batch_normalization_95[0][0]     \r\n__________________________________________________________________________________________________\r\nup_sampling2d_27 (UpSampling2D) (None, 64, 64, 16)   0           activation_95[0][0]              \r\n__________________________________________________________________________________________________\r\ntf_op_layer_concat_41 (TensorFl (None, 64, 64, 32)   0           up_sampling2d_27[0][0]           \r\n                                                                 activation_88[0][0]              \r\n__________________________________________________________________________________________________\r\nconv2d_96 (Conv2D)              (None, 64, 64, 16)   4624        tf_op_layer_concat_41[0][0]      \r\n__________________________________________________________________________________________________\r\nbatch_normalization_96 (BatchNo (None, 64, 64, 16)   64          conv2d_96[0][0]                  \r\n__________________________________________________________________________________________________\r\nactivation_96 (Activation)      (None, 64, 64, 16)   0           batch_normalization_96[0][0]     \r\n__________________________________________________________________________________________________\r\nup_sampling2d_28 (UpSampling2D) (None, 128, 128, 16) 0           activation_96[0][0]              \r\n__________________________________________________________________________________________________\r\ntf_op_layer_concat_42 (TensorFl (None, 128, 128, 32) 0           up_sampling2d_28[0][0]           \r\n                                                                 activation_87[0][0]              \r\n__________________________________________________________________________________________________\r\nconv2d_97 (Conv2D)              (None, 128, 128, 64) 18496       tf_op_layer_concat_42[0][0]      \r\n__________________________________________________________________________________________________\r\nbatch_normalization_97 (BatchNo (None, 128, 128, 64) 256         conv2d_97[0][0]                  \r\n__________________________________________________________________________________________________\r\nactivation_97 (Activation)      (None, 128, 128, 64) 0           batch_normalization_97[0][0]     \r\n__________________________________________________________________________________________________\r\ntf_op_layer_AddV2_9 (TensorFlow (None, 128, 128, 64) 0           activation_97[0][0]              \r\n                                                                 activation_86[0][0]              \r\n__________________________________________________________________________________________________\r\nup_sampling2d_29 (UpSampling2D) (None, 256, 256, 64) 0           tf_op_layer_AddV2_9[0][0]        \r\n__________________________________________________________________________________________________\r\ntf_op_layer_concat_43 (TensorFl (None, 256, 256, 128 0           up_sampling2d_29[0][0]           \r\n                                                                 tf_op_layer_AddV2[0][0]          \r\n__________________________________________________________________________________________________\r\nconv2d_98 (Conv2D)              (None, 256, 256, 64) 73792       tf_op_layer_concat_43[0][0]      \r\n__________________________________________________________________________________________________\r\nbatch_normalization_98 (BatchNo (None, 256, 256, 64) 256         conv2d_98[0][0]                  \r\n__________________________________________________________________________________________________\r\nactivation_98 (Activation)      (None, 256, 256, 64) 0           batch_normalization_98[0][0]     \r\n__________________________________________________________________________________________________\r\nconv2d_99 (Conv2D)              (None, 256, 256, 16) 9232        activation_98[0][0]              \r\n__________________________________________________________________________________________________\r\nbatch_normalization_99 (BatchNo (None, 256, 256, 16) 64          conv2d_99[0][0]                  \r\n__________________________________________________________________________________________________\r\nactivation_99 (Activation)      (None, 256, 256, 16) 0           batch_normalization_99[0][0]     \r\n__________________________________________________________________________________________________\r\nmax_pooling2d_30 (MaxPooling2D) (None, 128, 128, 16) 0           activation_99[0][0]              \r\n__________________________________________________________________________________________________\r\nconv2d_100 (Conv2D)             (None, 128, 128, 16) 2320        max_pooling2d_30[0][0]           \r\n__________________________________________________________________________________________________\r\nbatch_normalization_100 (BatchN (None, 128, 128, 16) 64          conv2d_100[0][0]                 \r\n__________________________________________________________________________________________________\r\nactivation_100 (Activation)     (None, 128, 128, 16) 0           batch_normalization_100[0][0]    \r\n__________________________________________________________________________________________________\r\nmax_pooling2d_31 (MaxPooling2D) (None, 64, 64, 16)   0           activation_100[0][0]             \r\n__________________________________________________________________________________________________\r\nconv2d_101 (Conv2D)             (None, 64, 64, 16)   2320        max_pooling2d_31[0][0]           \r\n__________________________________________________________________________________________________\r\nbatch_normalization_101 (BatchN (None, 64, 64, 16)   64          conv2d_101[0][0]                 \r\n__________________________________________________________________________________________________\r\nactivation_101 (Activation)     (None, 64, 64, 16)   0           batch_normalization_101[0][0]    \r\n__________________________________________________________________________________________________\r\nmax_pooling2d_32 (MaxPooling2D) (None, 32, 32, 16)   0           activation_101[0][0]             \r\n__________________________________________________________________________________________________\r\nconv2d_102 (Conv2D)             (None, 32, 32, 16)   2320        max_pooling2d_32[0][0]           \r\n__________________________________________________________________________________________________\r\nbatch_normalization_102 (BatchN (None, 32, 32, 16)   64          conv2d_102[0][0]                 \r\n__________________________________________________________________________________________________\r\nactivation_102 (Activation)     (None, 32, 32, 16)   0           batch_normalization_102[0][0]    \r\n__________________________________________________________________________________________________\r\nmax_pooling2d_33 (MaxPooling2D) (None, 16, 16, 16)   0           activation_102[0][0]             \r\n__________________________________________________________________________________________________\r\nconv2d_103 (Conv2D)             (None, 16, 16, 16)   2320        max_pooling2d_33[0][0]           \r\n__________________________________________________________________________________________________\r\nbatch_normalization_103 (BatchN (None, 16, 16, 16)   64          conv2d_103[0][0]                 \r\n__________________________________________________________________________________________________\r\nactivation_103 (Activation)     (None, 16, 16, 16)   0           batch_normalization_103[0][0]    \r\n__________________________________________________________________________________________________\r\nmax_pooling2d_34 (MaxPooling2D) (None, 8, 8, 16)     0           activation_103[0][0]             \r\n__________________________________________________________________________________________________\r\nconv2d_104 (Conv2D)             (None, 8, 8, 16)     2320        max_pooling2d_34[0][0]           \r\n__________________________________________________________________________________________________\r\nbatch_normalization_104 (BatchN (None, 8, 8, 16)     64          conv2d_104[0][0]                 \r\n__________________________________________________________________________________________________\r\nactivation_104 (Activation)     (None, 8, 8, 16)     0           batch_normalization_104[0][0]    \r\n__________________________________________________________________________________________________\r\nconv2d_105 (Conv2D)             (None, 8, 8, 16)     2320        activation_104[0][0]             \r\n__________________________________________________________________________________________________\r\nbatch_normalization_105 (BatchN (None, 8, 8, 16)     64          conv2d_105[0][0]                 \r\n__________________________________________________________________________________________________\r\nactivation_105 (Activation)     (None, 8, 8, 16)     0           batch_normalization_105[0][0]    \r\n__________________________________________________________________________________________________\r\ntf_op_layer_concat_44 (TensorFl (None, 8, 8, 32)     0           activation_105[0][0]             \r\n                                                                 activation_104[0][0]             \r\n__________________________________________________________________________________________________\r\nconv2d_106 (Conv2D)             (None, 8, 8, 16)     4624        tf_op_layer_concat_44[0][0]      \r\n__________________________________________________________________________________________________\r\nbatch_normalization_106 (BatchN (None, 8, 8, 16)     64          conv2d_106[0][0]                 \r\n__________________________________________________________________________________________________\r\nactivation_106 (Activation)     (None, 8, 8, 16)     0           batch_normalization_106[0][0]    \r\n__________________________________________________________________________________________________\r\nup_sampling2d_30 (UpSampling2D) (None, 16, 16, 16)   0           activation_106[0][0]             \r\n__________________________________________________________________________________________________\r\ntf_op_layer_concat_45 (TensorFl (None, 16, 16, 32)   0           up_sampling2d_30[0][0]           \r\n                                                                 activation_103[0][0]             \r\n__________________________________________________________________________________________________\r\nconv2d_107 (Conv2D)             (None, 16, 16, 16)   4624        tf_op_layer_concat_45[0][0]      \r\n__________________________________________________________________________________________________\r\nbatch_normalization_107 (BatchN (None, 16, 16, 16)   64          conv2d_107[0][0]                 \r\n__________________________________________________________________________________________________\r\nactivation_107 (Activation)     (None, 16, 16, 16)   0           batch_normalization_107[0][0]    \r\n__________________________________________________________________________________________________\r\nup_sampling2d_31 (UpSampling2D) (None, 32, 32, 16)   0           activation_107[0][0]             \r\n__________________________________________________________________________________________________\r\ntf_op_layer_concat_46 (TensorFl (None, 32, 32, 32)   0           up_sampling2d_31[0][0]           \r\n                                                                 activation_102[0][0]             \r\n__________________________________________________________________________________________________\r\nconv2d_108 (Conv2D)             (None, 32, 32, 16)   4624        tf_op_layer_concat_46[0][0]      \r\n__________________________________________________________________________________________________\r\nbatch_normalization_108 (BatchN (None, 32, 32, 16)   64          conv2d_108[0][0]                 \r\n__________________________________________________________________________________________________\r\nactivation_108 (Activation)     (None, 32, 32, 16)   0           batch_normalization_108[0][0]    \r\n__________________________________________________________________________________________________\r\nup_sampling2d_32 (UpSampling2D) (None, 64, 64, 16)   0           activation_108[0][0]             \r\n__________________________________________________________________________________________________\r\ntf_op_layer_concat_47 (TensorFl (None, 64, 64, 32)   0           up_sampling2d_32[0][0]           \r\n                                                                 activation_101[0][0]             \r\n__________________________________________________________________________________________________\r\nconv2d_109 (Conv2D)             (None, 64, 64, 16)   4624        tf_op_layer_concat_47[0][0]      \r\n__________________________________________________________________________________________________\r\nbatch_normalization_109 (BatchN (None, 64, 64, 16)   64          conv2d_109[0][0]                 \r\n__________________________________________________________________________________________________\r\nactivation_109 (Activation)     (None, 64, 64, 16)   0           batch_normalization_109[0][0]    \r\n__________________________________________________________________________________________________\r\nup_sampling2d_33 (UpSampling2D) (None, 128, 128, 16) 0           activation_109[0][0]             \r\n__________________________________________________________________________________________________\r\ntf_op_layer_concat_48 (TensorFl (None, 128, 128, 32) 0           up_sampling2d_33[0][0]           \r\n                                                                 activation_100[0][0]             \r\n__________________________________________________________________________________________________\r\nconv2d_110 (Conv2D)             (None, 128, 128, 16) 4624        tf_op_layer_concat_48[0][0]      \r\n__________________________________________________________________________________________________\r\nbatch_normalization_110 (BatchN (None, 128, 128, 16) 64          conv2d_110[0][0]                 \r\n__________________________________________________________________________________________________\r\nactivation_110 (Activation)     (None, 128, 128, 16) 0           batch_normalization_110[0][0]    \r\n__________________________________________________________________________________________________\r\nup_sampling2d_34 (UpSampling2D) (None, 256, 256, 16) 0           activation_110[0][0]             \r\n__________________________________________________________________________________________________\r\ntf_op_layer_concat_49 (TensorFl (None, 256, 256, 32) 0           up_sampling2d_34[0][0]           \r\n                                                                 activation_99[0][0]              \r\n__________________________________________________________________________________________________\r\nconv2d_111 (Conv2D)             (None, 256, 256, 64) 18496       tf_op_layer_concat_49[0][0]      \r\n__________________________________________________________________________________________________\r\nbatch_normalization_111 (BatchN (None, 256, 256, 64) 256         conv2d_111[0][0]                 \r\n__________________________________________________________________________________________________\r\nactivation_111 (Activation)     (None, 256, 256, 64) 0           batch_normalization_111[0][0]    \r\n__________________________________________________________________________________________________\r\ntf_op_layer_AddV2_10 (TensorFlo (None, 256, 256, 64) 0           activation_111[0][0]             \r\n                                                                 activation_98[0][0]              \r\n__________________________________________________________________________________________________\r\nzero_padding2d_1 (ZeroPadding2D (None, 130, 130, 64) 0           tf_op_layer_AddV2_9[0][0]        \r\n__________________________________________________________________________________________________\r\nzero_padding2d_2 (ZeroPadding2D (None, 66, 66, 64)   0           tf_op_layer_AddV2_8[0][0]        \r\n__________________________________________________________________________________________________\r\nzero_padding2d_3 (ZeroPadding2D (None, 34, 34, 64)   0           tf_op_layer_AddV2_7[0][0]        \r\n__________________________________________________________________________________________________\r\nzero_padding2d_4 (ZeroPadding2D (None, 18, 18, 64)   0           tf_op_layer_AddV2_6[0][0]        \r\n__________________________________________________________________________________________________\r\nzero_padding2d_5 (ZeroPadding2D (None, 10, 10, 64)   0           tf_op_layer_AddV2_5[0][0]        \r\n__________________________________________________________________________________________________\r\nzero_padding2d (ZeroPadding2D)  (None, 258, 258, 64) 0           tf_op_layer_AddV2_10[0][0]       \r\n__________________________________________________________________________________________________\r\nconv2d_113 (Conv2D)             (None, 128, 128, 1)  577         zero_padding2d_1[0][0]           \r\n__________________________________________________________________________________________________\r\nconv2d_114 (Conv2D)             (None, 64, 64, 1)    577         zero_padding2d_2[0][0]           \r\n__________________________________________________________________________________________________\r\nconv2d_115 (Conv2D)             (None, 32, 32, 1)    577         zero_padding2d_3[0][0]           \r\n__________________________________________________________________________________________________\r\nconv2d_116 (Conv2D)             (None, 16, 16, 1)    577         zero_padding2d_4[0][0]           \r\n__________________________________________________________________________________________________\r\nconv2d_117 (Conv2D)             (None, 8, 8, 1)      577         zero_padding2d_5[0][0]           \r\n__________________________________________________________________________________________________\r\nconv2d_112 (Conv2D)             (None, 256, 256, 1)  577         zero_padding2d[0][0]             \r\n__________________________________________________________________________________________________\r\nup_sampling2d_35 (UpSampling2D) (None, 256, 256, 1)  0           conv2d_113[0][0]                 \r\n__________________________________________________________________________________________________\r\nup_sampling2d_36 (UpSampling2D) (None, 256, 256, 1)  0           conv2d_114[0][0]                 \r\n__________________________________________________________________________________________________\r\nup_sampling2d_37 (UpSampling2D) (None, 256, 256, 1)  0           conv2d_115[0][0]                 \r\n__________________________________________________________________________________________________\r\nup_sampling2d_38 (UpSampling2D) (None, 256, 256, 1)  0           conv2d_116[0][0]                 \r\n__________________________________________________________________________________________________\r\nup_sampling2d_39 (UpSampling2D) (None, 256, 256, 1)  0           conv2d_117[0][0]                 \r\n__________________________________________________________________________________________________\r\nactivation_112 (Activation)     (None, 256, 256, 1)  0           conv2d_112[0][0]                 \r\n__________________________________________________________________________________________________\r\nactivation_113 (Activation)     (None, 256, 256, 1)  0           up_sampling2d_35[0][0]           \r\n__________________________________________________________________________________________________\r\nactivation_114 (Activation)     (None, 256, 256, 1)  0           up_sampling2d_36[0][0]           \r\n__________________________________________________________________________________________________\r\nactivation_115 (Activation)     (None, 256, 256, 1)  0           up_sampling2d_37[0][0]           \r\n__________________________________________________________________________________________________\r\nactivation_116 (Activation)     (None, 256, 256, 1)  0           up_sampling2d_38[0][0]           \r\n__________________________________________________________________________________________________\r\nactivation_117 (Activation)     (None, 256, 256, 1)  0           up_sampling2d_39[0][0]           \r\n__________________________________________________________________________________________________\r\ntf_op_layer_concat_50 (TensorFl (None, 256, 256, 6)  0           activation_112[0][0]             \r\n                                                                 activation_113[0][0]             \r\n                                                                 activation_114[0][0]             \r\n                                                                 activation_115[0][0]             \r\n                                                                 activation_116[0][0]             \r\n                                                                 activation_117[0][0]             \r\n__________________________________________________________________________________________________\r\nconv2d_118 (Conv2D)             (None, 256, 256, 1)  7           tf_op_layer_concat_50[0][0]      \r\n__________________________________________________________________________________________________\r\nactivation_118 (Activation)     (None, 256, 256, 1)  0           conv2d_118[0][0]                 \r\n__________________________________________________________________________________________________\r\ntf_op_layer_stack (TensorFlowOp (7, None, 256, 256,  0           activation_118[0][0]             \r\n                                                                 activation_112[0][0]             \r\n                                              
…
