…
tf_new/lib/python3.6/site-packages/tensorflow/python/ops/init_ops.py:1257: calling VarianceScaling.__init__ (from tensorflow.python.ops.init_ops) with dtype is deprecated and will be removed in a future version.\r\nInstructions for updating:\r\nCall initializer instance with the dtype argument instead of passing it to the constructor\r\nModel: \"sequential\"\r\n_________________________________________________________________\r\nLayer (type)                 Output Shape              Param #   \r\n=================================================================\r\nconv2d (Conv2D)              (None, 12, 12, 12)        312       \r\n_________________________________________________________________\r\ndropout (Dropout)            (None, 12, 12, 12)        0         \r\n_________________________________________________________________\r\nconv2d_1 (Conv2D)            (None, 5, 5, 18)          1962      \r\n_________________________________________________________________\r\ndropout_1 (Dropout)          (None, 5, 5, 18)          0         \r\n_________________________________________________________________\r\nconv2d_2 (Conv2D)            (None, 4, 4, 24)          1752      \r\n_________________________________________________________________\r\nflatten (Flatten)            (None, 384)               0         _________________________________________________________________\r\ndense (Dense)                (None, 150)               57750     \r\n_________________________________________________________________\r\ndense_1 (Dense)              (None, 47)                7097      \r\n=================================================================\r\nTotal params: 68,873\r\nTrainable params: 68,873\r\nNon-trainable params: 0\r\n_________________________________________________________________\r\n[None, 12, 12, 12]\r\n[None, 12, 12, 12]\r\n[None, 5, 5, 18]\r\n[None, 5, 5, 18]\r\n[None, 4, 4, 24]\r\n[None, 384]\r\n[None, 150]\r\n[None, 47]\r\n(112800, 28, 28, 1)\r\n20
…
