…
n    logits = tf.layers.dense(prelogits, 10, activation=tf.nn.softmax)\r\n    \r\n    return logits\r\n\r\npred = tf.contrib.keras.layers.Lambda(simple_model)(features)\r\n```\r\n\r\nBoth of them then made with `model = kmodels.Model(inputs=features, outputs=pred)`\r\n\r\nNevertheless, when I use `model.summary()` , Kesar model give me correct output:\r\n```\r\n_________________________________________________________________\r\nLayer (type)                 Output Shape              Param #   \r\n=================================================================\r\ninput_1 (InputLayer)         (None, 28, 28, 1)         0         \r\n_________________________________________________________________\r\nconv2d_1 (Conv2D)            (None, 13, 13, 64)        640       \r\n_________________________________________________________________\r\nmax_pooling2d_1 (MaxPooling2 (None, 6, 6, 64)          0         \r\n_________________________________________________________________\r\nconv2d_2 (Conv2D)            (None, 2, 2, 32)          18464     \r\n_________________________________________________________________\r\nflatten_1 (Flatten)          (None, 128)               0         \r\n_________________________________________________________________\r\ndense_1 (Dense)              (None, 128)               16512     \r\n_________________________________________________________________\r\ndense_2 (Dense)              (None, 10)                1290      \r\n=================================================================\r\nTotal params: 36,906\r\nTrainable params: 36,906\r\nNon-trainable params: 0\r\n_________________________________________________________________\r\n```\r\n**but** TF one, give only:\r\n```\r\n_________________________________________________________________\r\nLayer (type)                 Output Shape              Param #   \r\n=================================================================\r\ninput_1 (InputLayer)         (None, 28, 28, 1)         0         \r\n_________________________________________________________________\r\nlambda_1 (Lambda)            (None, 10)                0         \r\n=================================================================\r\nTotal params: 0\r\nTrainable params: 0\r\nNon-trainable params: 0\r\n_________________________________________________________________\r\n```\r\n\r\nIs it correct, that TF-Keras cannot see TF variables and optimize them? So we still have separated Tensorflow an Keras frameworks?\r\nWhy cannot I use TF as Keras backen
…
