…
r context, the target is the coral dev board (edge-tpu on linux platform).\r\n\r\n**Any other info / logs**\r\nmodel summary that I tried to convert.\r\n```\r\nLayer (type)                    Output Shape         Param #     Connected to                     \r\n==================================================================================================\r\ninputs (InputLayer)             [(None, 250, 1)]     0                                            \r\n__________________________________________________________________________________________________\r\nbidirectional (Bidirectional)   (None, 250, 100)     20800       inputs[0][0]                     \r\n__________________________________________________________________________________________________\r\nflatten (Flatten)               (None, 25000)        0           bidirectional[0][0]              \r\n__________________________________________________________________________________________________\r\nflatten_1 (Flatten)             (None, 250)          0           inputs[0][0]                     \r\n__________________________________________________________________________________________________\r\nconcatenate (Concatenate)       (None, 25250)        0           flatten[0][0]                    \r\n                                                                 flatten_1[0][0]                  \r\n__________________________________________________________________________________________________\r\ndense (Dense)                   (None, 2048)         51714048    concatenate[0][0]                \r\n__________________________________________________________________________________________________\r\ndense_1 (Dense)                 (None, 1024)         2098176     dense[0][0]                      \r\n__________________________________________________________________________________________________\r\ndense_2 (Dense)                 (None, 512)          524800      dense_1[0][0]                    \r\n__________________________________________________________________________________________________\r\ndense_7 (Dense)                 (None, 2048)         51714048    concatenate[0][0]                \r\n__________________________________________________________________________________________________\r\ndense_3 (Dense)                 (None, 256)          131328      dense_2[0][0]                    \r\n__________________________________________________________________________________________________\r\ndense_8 (Dense)                 (None, 1024)         2098176     dense_7[0][0]                    \r\n__________________________________________________________________________________________________\r\ndense_4 (Dense)                 (None, 128)          32896       dense_3[0][0]                    \r\n__________________________________________________________________________________________________\r\ndense_9 (Dense)                 (None, 512)          524800      dense_8[0][0]                    \r\n__________________________________________________________________________________________________\r\ndense_5 (Dense)                 (None, 50)           6450        dense_4[0][0]                    \r\n__________________________________________________________________________________________________\r\ndense_10 (Dense)                (None, 256)          131328      dense_9[0][0]                    \r\n__________________________________________________________________________________________________\r\nreshape (Reshape)               (None, 50, 1)        0           dense_5[0][0]                    \r\n__________________________________________________________________________________________________\r\ndense_11 (Dense)                (None, 128)          32896       dense_10[0][0]                   \r\n__________________________________________________________________________________________________\r\ntime_distributed (TimeDistribut (None, 50, 1)        2           reshape[0][0]                    \r\n__________________________________________________________________________________________________\r\ndense_12 (Dense)                (None, 50)           6450        dense_11[0][0]                   \r\n__________________________________________________________________________________________________\r\nom (Reshape)                    (None, 50, 1)        0           time_distributed[0][0]           \r\n__________________________________________________________________________________________________\r\nreshape_1 (Reshape)             (None, 50, 1)        0           dense_12[0][0]                   \r\n__________________________________________________________________________________________________\r\nconcatenate_1 (Concatenate)     (None, 50, 2)        0           om[0][0]                         \r\n                                                                 reshape_1[0][0]                  \r\n__________________________________________________________________________________________________\r\nflatten_2 (Flatten)             (None, 100)          0           concatenate_1[0][0]              \r\n__________________________________________________________________________________________________\r\ndense_13 (Dense)                (None, 100)          10100       flatten_2[0][0]                  \r\n__________________________________________________________________________________________________\r\ndense_14 (Dense)                (None, 100)          10100       dense_13[0][0]                   \r\n__________________________________________________________________________________________________\r\ndense_15 (Dense)                (None, 50)           5050        dense_14[0][0]                   \r\n__________________________________________________________________________________________________\r\ndense_16 (Dense)                (None, 50)           2550        dense_15[0][0]                   \r\n__________________________________________________________________________________________________\r\nreshape_2 (Reshape)             (None, 50, 1)        0           dense_16[0][0]                   \r\n__________________________________________________________________________________________________\r\ntime_distributed_1 (TimeDistrib (None, 50, 1)        2           reshape_2[0][0]                  \r\n__________________________________________________________________________________________________\r\nof (Reshape)                    (None, 50, 1)        0           time_distributed_1[0][0]         \r\n==================================================================================================\r\nTotal params: 109,064,000\r\nTrainable params: 109,064,000\r\nNon-trainable params: 0\r\n```\r\n\r\n", "comments": ["Hi,\r\nI have the same issue trying to qunatize the DeepSpeech2 model:\r\n```\r\n_________________________________________________________________\r\nLayer (type)                 Output Shape              Param #   \r\n=================================================================\r\nX (InputLayer)               [(None, 199, 160)]        0         \r\n_________________________________________________________________\r\nlambda (Lambda)              (None, 199, 160, 1)       0         \r\n_________________________________________________________________\r\nconv_1 (Conv2D)              (None, 100, 80, 32)       14432     \r\n_________________________________________________________________\r\nconv_1_bn (BatchNormalizatio (None, 100, 80, 32)       128       \r\n_________________________________________________________________\r\nconv_1_relu (ReLU)           (None, 100, 80, 32)       0         \r\n_________________________________________________________________\r\nconv_2 (Conv2D)              (None, 100, 40, 32)       236544    \r\n_________________________________________________________________\r\nconv_2_bn (BatchNormalizatio (None, 100, 40, 32)       128       \r\n_________________________________________________________________\r\nconv_2_relu (ReLU)           (None, 100, 40, 32)       0         \r\n_________________________________________________________________\r\nreshape (Reshape)            (None, None, 1280)        0         \r\n_________________________________________________________________\r\nbidirectional_1 (Bidirection (None, None, 1600)        9993600   \r\n_________________________________________________________________\r\ndropout (Dropout)            (None, None, 
…
stms are fused, we can try the above with dynamic ranged quantization.\r\n\r\nthanks", "Dear Renjie-liu, \r\n\r\nThank you for that, in order to limit extra information I reduced the network (it still exhibits the same error when trying to quantize with the B option). \r\n\r\nSummary\r\n```\r\nLayer (type)                 Output Shape              Param #   \r\n=================================================================\r\ninputs (InputLayer)          [(None, 250, 1)]          0         \r\n_________________________________________________________________\r\nbidirectional_3 (Bidirection (None, 250, 100)          20800     \r\n_________________________________________________________________\r\nflatten_5 (Flatten)          (None, 25000)             0         \r\n_________________________________________________________________\r\ndense_9 (Dense)              (None, 50)                1250050   \r\n_________________________________________________________________\r\nreshape_3 (Reshape)          (None, 50, 1)             0         \r\n_________________________________________________________________\r\ntime_distributed_3 (TimeDist (None, 50, 1)             2         \r\n_________________________________________________________________\r\nom (Reshape)                 (None, 50, 1)             0         \r\n=================================================================\r\nTotal params: 1,270,852\r\nTrainable params: 1,270,852\r\nNon-trainable params: 0\r\n```\r\nthen as in the colab, I do a conversion without any option:\r\n```python\r\nconverter = tf.lite.TFLiteConverter.from_keras_model(m[\"k_model\"])\r\n%time m[\"k_model_float_tflite\"] = converter.convert()\r\n```\r\n\r\nI then s
…
