…
BatchNormalization())\r\nmodel.add(layers.Activation('relu'))\r\nmodel.add(layers.MaxPooling2D((2, 2)))\r\n\r\nmodel.add(layers.UpSampling2D((2, 2), interpolation='nearest'))\r\nmodel.add(layers.Flatten())\r\nmodel.add(layers.Dense(1, activation='sigmoid'))\r\n\r\nmodel.summary()\r\n\r\n```\r\nModel's summary looks like this: \r\n```\r\nModel: \"sequential\"\r\n_________________________________________________________________\r\nLayer (type)                 Output Shape              Param #   \r\n=================================================================\r\nconv2d (Conv2D)              (None, 224, 224, 32)      896       \r\n_________________________________________________________________\r\nconv2d_1 (Conv2D)            (None, 224, 224, 32)      9248      \r\n_________________________________________________________________\r\nactivation (Activation)      (None, 224, 224, 32)      0         \r\n_________________________________________________________________\r\nmax_pooling2d (MaxPooling2D) (None, 112, 112, 32)      0         \r\n_________________________________________________________________\r\nup_sampling2d (UpSampling2D) (None, 224, 224, 32)      0         \r\n_________________________________________________________________\r\nflatten (Flatten)            (None, 1605632)           0         \r\n_________________________________________________________________\r\ndense (Dense)                (None, 1)                 1605633   \r\n=================================================================\r\nTotal params: 1,615,777\r\nTrainable params: 1,615,777\r\nNon-trainable params: 0\r\n__________________________\r\n```\r\n\r\nTrained this model and saved it as sample_model.h5. \r\nLoaded this model again in a separate code using:\r\n```\r\n\r\nmodel_dir = '/home/nymble'\r\nnymble_model = models.load_model(os.path.join(mo
…
