…
Activation(tf.nn.relu6)(x)\r\n    return x\r\n\r\nif __name__ =='__main__':\r\n  inputs = tf.keras.Input(shape=[224, 224, 3], batch_size=1, name='inputs')\r\n  hidden = conv_block(inputs, 32, 3, 2, scope='block_1')\r\n  outputs = conv_block(hidden, 64, 3, 2, scope='block_2')\r\n\r\n  model = tf.keras.Model(inputs, outputs)\r\n  model.summary()\r\n```\r\n\r\n```\r\n_________________________________________________________________\r\nLayer (type)                 Output Shape              Param #\r\n=================================================================\r\ninputs (InputLayer)          (1, 224, 224, 3)          0\r\n_________________________________________________________________\r\nconv2d (Conv2D)              (1, 111, 111, 32)         896\r\n_________________________________________________________________\r\nbatch_normalization (BatchNo (1, 111, 111, 32)         128\r\n_________________________________________________________________\r\nactivation (Activation)      (1, 111, 111, 32)         0\r\n_________________________________________________________________\r\nconv2d_1 (Conv2D)            (1, 55, 55, 64)           18496\r\n_________________________________________________________________\r\nbatch_normalization_1 (Batch (1, 55, 55, 64)           256\r\n_________________________________________________________________\r\nactivation_1 (Activation)    (1, 55, 55, 64)           0\r\n=================================================================\r\nTotal params: 19,776\r\nTrainable params: 19,584\r\nNon-trainable params: 192\r\n_________________________________________________________________\r\n```\r\n\r\n\r\n2. or, custom name:\r\n\r\n```python\r\nimport tensorflow as tf\r\n\r\ndef conv_block(inputs, filters, kernel_size, strides, scope):\r\n  '''Create a simple Conv 
…
