…
w_custom_ops = True\r\n    converter.experimental_new_converter = True\r\n\r\n    # Convert the model\r\n    tflite_model = converter.convert()\r\n\r\n    # Create the tflite model file\r\n    tflite_model_name = \"android/app/src/main/assets/converted_model.tflite\"\r\n    open(tflite_model_name, \"wb\").write(tflite_model)\r\n\r\n\r\n**Model Summary:**\r\n\r\nModel: \"long_short_term_memory\"\r\n\r\n|Layer (type)|Output Shape|Param #| Connected to|\r\n\r\n|input (InputLayer) |             [(None, 1, 16000)]|   0    |                                        \r\nmelbands (Melspectrogram)       (None, 128, 100, 1)  296064      input[0][0]                      \r\nbatch_norm (Normalization2D)    (None, 128, 100, 1)  0           melbands[0][0]                   \r\npermute (Permute)               (None, 100, 128, 1)  0           batch_norm[0][0]                 \r\nreshape (TimeDistributed)       (None, 100, 128)     0           permute[0][0]                    \r\nd_dense_tanh (TimeDistributed) (None, 100, 64)      8256        reshape[0][0]                    \r\nbidirectional_lstm (Bidirection (None, 100, 64)      24832       td_dense_tanh[0][0]              \r\nskip_connection (Concatenate)   (None, 100, 128)     0           td_dense_tanh[0][0]              \r\n                                                                 bidirectional_lstm[0][0]         \r\ndense_1_relu (Dense)            (None, 100, 64)      8256        skip_connection[0][0]            \r\nmax_pool_1d (MaxPooling1D)      (None, 50, 64)       0           dense_1_relu[0][0]               \r\ndense_2_relu (Dense)            (None, 50, 32)       2080        max_pool_1d[0][0]                \r\nflatten (Flatten)               (None, 1600)         0           dense_2_relu[0][0]               \r\ndropout (Dropout)               (None, 1600)         0           flatten[0][0]                    \r\ndense_3_relu (Dense)            (None, 32)           51232       dropout[0][0]                    \r\nsoftmax (Dense)                 (None, 2)            66          dense_3_relu[0][0]               \r\n\r\nTotal params: 390,786\r\nTrainable params: 390,786\r\nNon-trainable params: 0\r\n\r\n**Complete Python & Android Code can be found here:**\r\n[TensorFlow Lite Audio Classification](https://github.com/umair13adil/Audio-Classification)", "comments": ["@umair13adil \r\nI ran the code shared by you there is syntax error, can you please share simple in
…
