…
ce.cc:168] XLA service 0x24c79859760 initialized for platform Host (this does not guarantee that XLA will be used). Devices:\r\n2020-07-07 16:14:52.972028: I tensorflow/compiler/xla/service/service.cc:176]   StreamExecutor device (0): Host, Default Version\r\nModel: \"model_1\"\r\n__________________________________________________________________________________________________\r\nLayer (type)                    Output Shape         Param #     Connected to\r\n==================================================================================================\r\ninput_1 (InputLayer)            [(None, 256, 256, 1) 0\r\n__________________________________________________________________________________________________\r\nconv2d (Conv2D)                 (None, 256, 256, 16) 160         input_1[0][0]\r\n__________________________________________________________________________________________________\r\nconv2d_1 (Conv2D)               (None, 256, 256, 16) 2320        conv2d[0][0]\r\n__________________________________________________________________________________________________\r\nmax_pooling2d (MaxPooling2D)    (None, 128, 128, 16) 0           conv2d_1[0][0]\r\n__________________________________________________________________________________________________\r\nconv2d_2 (Conv2D)               (None, 128, 128, 32) 4640        max_pooling2d[0][0]\r\n__________________________________________________________________________________________________\r\nconv2d_3 (Conv2D)               (None, 128, 128, 32) 9248        conv2d_2[0][0]\r\n__________________________________________________________________________________________________\r\nmax_pooling2d_1 (MaxPooling2D)  (None, 64, 64, 32)   0           conv2d_3[0][0]\r\n__________________________________________________________________________________________________\r\nconv2d_4 (Conv2D)               (None, 64, 64, 64)   18496       max_pooling2d_1[0][0]\r\n__________________________________________________________________________________________________\r\nconv2d_5 (Conv2D)               (None, 64, 64, 64)   36928       conv2d_4[0][0]\r\n__________________________________________________________________________________________________\r\nmax_pooling2d_2 (MaxPooling2D)  (None, 32, 32, 64)   0           conv2d_5[0][0]\r\n__________________________________________________________________________________________________\r\nconv2d_6 (Conv2D)               (None, 32, 32, 128)  73856       max_pooling2d_2[0][0]\r\n__________________________________________________________________________________________________\r\nconv2d_7 (Conv2D)               (None, 32, 32, 128)  147584      conv2d_6[0][0]\r\n__________________________________________________________________________________________________\r\ndropout (Dropout)               (None, 32, 32, 128)  0           conv2d_7[0][0]\r\n__________________________________________________________________________________________________\r\nmax_pooling2d_3 (MaxPooling2D)  (None, 16, 16, 128)  0           dropout[0][0]\r\n__________________________________________________________________________________________________\r\nconv2d_8 (Conv2D)               (None, 16, 16, 256)  295168      max_pooling2d_3[0][0]\r\n__________________________________________________________________________________________________\r\ncode_ (Conv2D)                  (None, 16, 16, 256)  590080      conv2d_8[0][0]\r\n__________________________________________________________________________________________________\r\ndropout_1 (Dropout)             (None, 16, 16, 256)  0           code_[0][0]\r\n__________________________________________________________________________________________________\r\nup_sampling2d (UpSampling2D)    (None, 32, 32, 256)  0           dropout_1[0][0]\r\n__________________________________________________________________________________________________\r\nconv2d_9 (Conv2D)               (None, 32, 32, 128)  131200      up_sampling2d[0][0]\r\n__________________________________________________________________________________________________\r\nconcatenate (Concatenate)       (None, 32, 32, 256)  0           dropout[0][0]\r\n                                                                 conv2d_9[0][0]\r\n__________________________________________________________________________________________________\r\nconv2d_10 (Conv2D)              (None, 32, 32, 128)  295040      concatenate[0][0]\r\n__________________________________________________________________________________________________\r\nconv2d_11 (Conv2D)              (None, 32, 32, 128)  147584      conv2d_10[0][0]\r\n__________________________________________________________________________________________________\r\nup_sampling2d_1 (UpSampling2D)  (None, 64, 64, 128)  0           conv2d_11[0][0]\r\n__________________________________________________________________________________________________\r\nconv2d_12 (Conv2D)              (None, 64, 64, 48)   24624       up_sampling2d_1[0][0]\r\n__________________________________________________________________________________________________\r\nconcatenate_1 (Concatenate)     (None, 64, 64, 112)  0           conv2d_5[0][0]\r\n                                                                 conv2d_12[0][0]\r\n__________________________________________________________________________________________________\r\nconv2d_13 (Conv2D)              (None, 64, 64, 48)   48432       concatenate_1[0][0]\r\n__________________________________________________________________________________________________\r\nconv2d_14 (Conv2D)              (None, 64, 64, 48)   20784       conv2d_13[0][0]\r\n__________________________________________________________________________________________________\r\nup_sampling2d_2 (UpSampling2D)  (None, 128, 128, 48) 0           conv2d_14[0][0]\r\n__________________________________________________________________________________________________\r\nconv2d_15 (Conv2D)              (None, 128, 128, 32) 6176        up_sampling2d_2[0][0]\r\n__________________________________________________________________________________________________\r\nconcatenate_2 (Concatenate)     (None, 128, 128, 64) 0           conv2d_3[0][0]\r\n                                                                 conv2d_15[0][0]\r\n__________________________________________________________________________________________________\r\nconv2d_16 (Conv2D)              (None, 128, 128, 32) 18464       concatenate_2[0][0]\r\n__________________________________________________________________________________________________\r\nconv2d_17 (Conv2D)              (None, 128, 128, 32) 9248        conv2d_16[0][0]\r\n__________________________________________________________________________________________________\r\nup_sampling2d_3 (UpSampling2D)  (None, 256, 256, 32) 0           conv2d_17[0][0]\r\n__________________________________________________________________________________________________\r\nconv2d_18 (Conv2D)              (None, 256, 256, 16) 2064        up_sampling2d_3[0][0]\r\n__________________________________________________________________________________________________\r\nconcatenate_3 (Concatenate)     (None, 256, 256, 32) 0           conv2d_1[0][0]\r\n                                                                 conv2d_18[0][0]\r\n__________________________________________________________________________________________________\r\nconv2d_19 (Conv2D)              (None, 256, 256, 16) 4624        concatenate_3[0][0]\r\n__________________________________________________________________________________________________\r\nconv2d_20 (Conv2D)              (None, 256, 256, 16) 2320        conv2d_19[0][0]\r\n__________________________________________________________________________________________________\r\nconv2d_21 (Conv2D)              (None, 256, 256, 2)  290         conv2d_20[0][0]\r\n__________________________________________________________________________________________________\r\nconv2d_22 (Conv2D)              (None, 256, 256, 1)  3           conv2d_21[0][0]\r\n__________________________________________________________________________________________________\r\nreconstruction_ (Lambda)        (None, 256, 256, 1)  0           conv2d_22[0][0]\r\n==================================================================================================\r\nTotal params: 1,889,333\r\nTrainable params: 1,889,333\r\nNon-trainable params: 0\r\n__________________________________________________________________________________________________\r\n=== Fitting Model ===\r\n Batch size:                  16\r\n Steps per training 
…
