…
%2F%2Fgithub.com%2Ftensorflow%2Ftensorflow%2Fpull%2F33164) for more info**.\n\n<!-- ok -->", "@ddobbelaere Can you please resolve conflicts? Thanks!", "This PR has been superseded by another one that also fixes the docstring."]}, {"number": 33163, "title": "'Can save best model only with val_loss available, skipping.' during tf.keras.callbacks.ModelCheckpoint", "body": "My model is built like:\r\n```\r\nModel:  \"sequential\"\r\nLayer (type)                 Output Shape              Param #   \r\n=================================================================\r\ndense (Dense)                (None, 1379)              3801903   \r\n_________________________________________________________________\r\ndropout (Dropout)            (None, 1379)              0         \r\n_________________________________________________________________\r\ndense_1 (Dense)              (None, 1379)              1903020   \r\n_________________________________________________________________\r\ndropout_1 (Dropout)          (None, 1379)              0         \r\n_________________________________________________________________\r\ndense_2 (Dense)              (None, 1379)              1903020   \r\n_________________________________________________________________\r\ndropout_2 (Dropout)          (None, 1379)              0         \r\n_________________________________________________________________\r\ndense_3 (Dense)              (None, 1379)              1903020   \r\n_________________________________________________________________\r\ndropout_3 (Dropout)          (None, 1379)              0         \r\n_________________________________________________________________\r\ndense_4 (Dense)              (None, 1)                 1380      \r\n=================================================================\r\nTotal params: 9,512,343\r\nTrainable params: 9,512,343\r\nNon-trainable params: 0\r\n```\r\nHere the model is fitted with a callback.\r\n```\r\ncheckpoint = tf.keras.callbacks.ModelCheckpoint(filepath=filepath, mode='max', monitor='val_acc', verbose=2, save_best_only=True)\r\ncallbacks_list = [checkpoint]\r\nmodel.fit(t
…
