…
 Created TensorFlow device (/job:localhost/replica:0/task:0/device:GPU:0 with 6696 MB memory) -> physical GPU (device: 0, name: GeForce GTX 1070 Ti, pci bus id: 0000:01:00.0, compute capability: 6.1)\r\n2020-10-18 17:47:56.175262: I tensorflow/compiler/jit/xla_gpu_device.cc:99] Not creating XLA devices, tf_xla_enable_xla_devices not set\r\nModel: \"sequential\"\r\n_________________________________________________________________\r\nLayer (type)                 Output Shape              Param #\r\n=================================================================\r\nembedding (Embedding)        (None, 131, 64)           18151104\r\n_________________________________________________________________\r\nlstm (LSTM)                  (None, 131, 64)           33024\r\n_________________________________________________________________\r\nlstm_1 (LSTM)                (None, 64)                33024\r\n_________________________________________________________________\r\ndense (Dense)                (None, 5000)              325000\r\n_________________________________________________________________\r\ndense_1 (Dense)              (None, 5000)              25005000\r\n_________________________________________________________________\r\ndense_2 (Dense)              (None, 1)                 5001\r\n_________________________________________________________________\r\nactivation (Activation)      (None, 1)                 0\r\n=================================================================\r\nTotal params: 43,552,153\r\nTrainable params: 43,552,153\r\nNon-trainable params: 0\r\n_________________________________________________________________\r\nNone\r\n2020-10-18 17:47:56.892579: I tensorflow/compiler/mlir/mlir_graph_optimization_pass.cc:116] None of the MLIR optimization passes are enabled (registered 1)\r\nEpoc
…
