…
 3670 files belonging to 5 classes.\r\nUsing 734 files for validation.\r\n['daisy', 'dandelion', 'roses', 'sunflowers', 'tulips']\r\n2021-08-13 14:29:05.999112: I tensorflow/compiler/mlir/mlir_graph_optimization_pass.cc:176] None of the MLIR Optimization Passes are enabled (registered 2)\r\n(16, 180, 180, 3)\r\n(16,)\r\n0.0 0.9627812\r\nModel: \"sequential\"\r\n_________________________________________________________________\r\nLayer (type)                 Output Shape              Param #   \r\n=================================================================\r\nrescaling_1 (Rescaling)      (None, 180, 180, 3)       0         \r\n_________________________________________________________________\r\nconv2d (Conv2D)              (None, 180, 180, 16)      448       \r\n_________________________________________________________________\r\nmax_pooling2d (MaxPooling2D) (None, 90, 90, 16)        0         \r\n_________________________________________________________________\r\nconv2d_1 (Conv2D)            (None, 90, 90, 32)        4640      \r\n_________________________________________________________________\r\nmax_pooling2d_1 (MaxPooling2 (None, 45, 45, 32)        0         \r\n_________________________________________________________________\r\nconv2d_2 (Conv2D)            (None, 45, 45, 64)        18496     \r\n_________________________________________________________________\r\nmax_pooling2d_2 (MaxPooling2 (None, 22, 22, 64)        0         \r\n_________________________________________________________________\r\nflatten (Flatten)            (None, 30976)             0         \r\n_________________________________________________________________\r\ndense (Dense)                (None, 128)               3965056   \r\n_________________________________________________________________\r\ndense_1 (Dense)              (None, 5)                 645       \r\n=================================================================\r\nTotal params: 3,989,285\r\nTrainable params: 3,989,285\r\nNon-trainable params: 0\r\n_________________________________________________________________\r\nEpoch 1/10\r\n2021-08-13 14:29:08.463012: I tensorflow/stream_executor/platform/default/dso_loader.cc:53] Successfully opened dynamic library cudnn64_8.dll\r\n\r\nPro
…
