…
el_size = ( 3, 3 ), padding = \"same\", name = \"decoder_conv2D_2\" ),\r\n        Flatten( name = \"decoder_flatten\" ),\r\n        tfpl.IndependentBernoulli( event_shape = INPUT_IMAGE_SHAPE, name = \"decoder_outdist\" )\r\n        \r\n    ], name = \"decoder\" )\r\n```\r\nHere are the model summaries for the encoder and decoder:\r\n```\r\nModel: \"encoder\"\r\n_________________________________________________________________\r\nLayer (type)                 Output Shape              Param #   \r\n=================================================================\r\nencoder_conv2d_0 (Conv2D)    (None, 18, 18, 32)        1568      \r\n_________________________________________________________________\r\nencoder_batchnorm_0 (BatchNo (None, 18, 18, 32)        128       \r\n_________________________________________________________________\r\nencoder_conv2d_1 (Conv2D)    (None, 9, 9, 64)          32832     \r\n_________________________________________________________________\r\nencoder_batchnorm_1 (BatchNo (None, 9, 9, 64)          256       \r\n_________________________________________________________________\r\nencoder_flatten (Flatten)    (None, 5184)              0         \r\n_________________________________________________________________\r\nencoder_dense (Dense)        (None, 5)                 25925     \r\n_________________________________________________________________\r\nencoder_outdist (Multivariat multiple                  0         \r\n=================================================================\r\nTotal params: 60,709\r\nTrainable params: 60,517\r\nNon-trainable params: 192\r\n_________________________________________________________________\r\n\r\n None\r\nModel: \"decoder\"\r\n_________________________________________________________________\r\nLayer (type)                 Output Shape              Param #   \r\n=================================================================\r\ndecoder_dense (Dense)        (None, 5184)              15552     \r\n_________________________________________________________________\r\ndecoder.reshape (Reshape)    (None, 9, 9, 64)          0         \r\n_________________________________________________________________\r\ndecoder_upsampl_0 (UpSamplin (None, 18, 18, 64)        0         \r\n_________________________________________________________________\r\ndecoder_conv2D_0 (Conv2D)    (None, 18, 18, 128)       73856     \r\n_________________________________________________________________\r\ndecoder_upsampl_1 (UpSamplin (None, 36, 36, 128)       0         \r\n_________________________________________________________________\r\ndecoder_conv2D_1 (Conv2D)    (None, 36, 36, 128)       147584    \r\n_________________________________________________________________\r\ndecoder_conv2D_2 (Conv2D)    (None, 36, 36, 3)         3459      \r\n_________________________________________________________________\r\ndecoder_flatten (Flatten)    (None, 3888)              0         \r\n_________________________________________________________________\r\ndecoder_outdist (Independent multiple                  0         \r\n=================================================================\r\nTotal params: 240,451\r\nTrainable params: 240,451\r\nNon-trainable params: 0\r\n```\r\nHere is the probabilistic loss function:\r\n```\r\n@tf.function\r\ndef reconstruction_loss(b
…
