…
 model. Got way worse accuracy so I am thinking I need to switch to tf.data.Dataset.\r\n\r\nSo I did:\r\n`\r\ntrain_dataset = tf.data.Dataset.from_tensor_slices((X_train_deleted_nans, y_train_no_nans))\r\ntrain_dataset = train_dataset.shuffle(SHUFFLE_CONST).batch(BATCH_SIZE)\r\n`\r\n\r\n`model.summary()` gave me:\r\n\r\n```\r\nBatchDataset shapes: ((None, 2756), (None,)), types: (tf.float64, tf.int64)\r\nModel: sequential\r\n\r\nLayer (type)                 Output Shape              Param #   \r\n=================================================================\r\ndense (Dense)                (None, 1379)              3801903   \r\n_________________________________________________________________\r\ndropout (Dropout)            (None, 1379)              0         \r\n_________________________________________________________________\r\ndense_1 (Dense)              (None, 1379)              1903020   \r\n_________________________________________________________________\r\ndropout_1 (Dropout)          (None, 1379)              0         \r\n_________________________________________________________________\r\ndense_2 (Dense)              (None, 1379)              1903020   \r\n_________________________________________________________________\r\ndropout_2 (Dropout)          (None, 1379)              0         \r\n_________________________________________________________________\r\ndense_3 (Dense)              (None, 1379)              1903020   \r\n_________________________________________________________________\r\ndropout_3 (Dropout)          (None, 1379)              0         \r\n_________________________________________________________________\r\ndense_4 (Dense)              (None, 1)                 1380      \r\n=================================================================\r\nTotal params: 9,512,343\r\nTrainable params: 9,512,343\r\nNon-trainable params: 0\r\n\r\n```\r\n```\r\nmodel.compile(optimizer=adam, loss=bce, metrics=['accuracy'])\r\nmodel.fit(train_dataset, epochs=1000, verbose=0)\r\n```\r\nOnce the training starts I get this warning error:\r\n\r\n```\r\n2019-10-04 23:47:56.691434: W
…
