…
le": "Cannot load model checkpoints: Two checkpoint references resolved to different objects", "body": "I am trying to load model checkpoints saved during training. My model has custom layers and the full implementation can be found [here](https://github.com/AdityaKane2001/regnety/issues/15). \r\n\r\nMy model looks as follows:\r\n```\r\nModel: \"sequential\"\r\n_________________________________________________________________\r\nLayer (type)                 Output Shape              Param #   \r\n=================================================================\r\nPreStem (PreStem)            (None, 224, 224, 3)       0         \r\n_________________________________________________________________\r\nStem (Stem)                  (None, 111, 111, 32)      992       \r\n_________________________________________________________________\r\nStage_0 (Stage)              (None, 56, 56, 24)        4542      \r\n_________________________________________________________________\r\nStage_1 (Stage)              (None, 28, 28, 56)        12390     \r\n_________________________________________________________________\r\nStage_2 (Stage)              (None, 14, 14, 152)       277400    \r\n_________________________________________________________________\r\nStage_3 (Stage)              (None, 7, 7, 368)         2567444   \r\n_________________________________________________________________\r\nHead (Head)                  (None, 1000)              369000    \r\n=================================================================\r\nTotal params: 3,231,768\r\nTrainable params: 3,210,920\r\nNon-trainable params: 20,848\r\n_________________________________________________________________\r\n```\r\n\r\nWhen I try to load the model checkpoint after initializing the model architecture, I get the following warning message with an error as described below. 
…
