…
, outputs = final_predictions)\r\n    model.compile(optimizer='adam', loss='binary_crossentropy', metrics= METRICS\r\n    model.summary()\r\n    return model\r\n```\r\nand here is the summary:-\r\n```\r\nModel: \"model_4\"\r\n_________________________________________________________________\r\nLayer (type)                 Output Shape              Param #   \r\n=================================================================\r\nfeature (InputLayer)         [(None, 128, 128, 3)]     0         \r\n_________________________________________________________________\r\nmobilenet_1.00_128 (Model)   (None, 4, 4, 1024)        3228864   \r\n_________________________________________________________________\r\nglobal_average_pooling2d_5 ( (None, 1024)              0         \r\n_________________________________________________________________\r\ndense_16 (Dense)             (None, 2048)              2099200   \r\n_________________________________________________________________\r\nbatch_normalization_10 (Batc (None, 2048)              8192      \r\n_________________________________________________________________\r\ndropout_10 (Dropout)         (None, 2048)              0         \r\n_________________________________________________________________\r\ndense_17 (Dense)             (None, 512)               1049088   \r\n_________________________________________________________________\r\nbatch_normalization_11 (Batc (None, 512)               2048      \r\n_________________________________________________________________\r\ndropout_11 (Dropout)         (None, 512)               0         \r\n_________________________________________________________________\r\ndense_18 (Dense)             (None, 13)                6669      \r\n_________________________________________________________________\r\nembedding_1 (Embedding)      (None, 13, 100)           1300      \r\n_________________________________________________________________\r\nflatten (Flatten)            (None, 1300)              0         \r\n_________________________________________________________________\r\ndense_19 (Dense)             (None, 13)                16913     \r\n=================================================================\r\nTotal params: 6,412,274\r\nTrainable params: 6,383,966\r\nNon-trainable params: 28,308\r\n_________________________________________________________________\r\n```\r\nAdding `embedd_layer ` and `flatten layer` after the layer `prediction` resulted in this error to pop-up,\r\nwhen I run the model fit I'll get this warning 
…
