…
__________________________________\r\nModel: \"model\"\r\n__________________________________________________________________________________________________\r\nLayer (type)                    Output Shape         Param #     Connected to                     \r\n==================================================================================================\r\nimage_input (InputLayer)        [(None, 32, 320, 1)] 0                                            \r\n__________________________________________________________________________________________________\r\nblock1_conv1 (Conv2D)           (None, 32, 320, 64)  640         image_input[0][0]                \r\n__________________________________________________________________________________________________\r\nblock1_conv2 (Conv2D)           (None, 32, 320, 64)  36928       block1_conv1[0][0]               \r\n__________________________________________________________________________________________________\r\nblock1_pool (MaxPooling2D)      (None, 16, 160, 64)  0           block1_conv2[0][0]               \r\n__________________________________________________________________________________________________\r\nblock2_conv1 (Conv2D)           (None, 16, 160, 128) 73856       block1_pool[0][0]                \r\n__________________________________________________________________________________________________\r\nblock2_conv2 (Conv2D)           (None, 16, 160, 128) 147584      block2_conv1[0][0]               \r\n__________________________________________________________________________________________________\r\nblock2_pool (MaxPooling2D)      (None, 8, 80, 128)   0           block2_conv2[0][0]               \r\n__________________________________________________________________________________________________\r\nblock3_conv1 (Conv2D)           (None, 8, 80, 256)   295168      block2_pool[0][0]                \r\n__________________________________________________________________________________________________\r\nblock3_conv2 (Conv2D)           (None, 8, 80, 256)   590080      block3_conv1[0][0]               \r\n__________________________________________________________________________________________________\r\nblock3_conv3 (Conv2D)           (None, 8, 80, 256)   590080      block3_conv2[0][0]               \r\n__________________________________________________________________________________________________\r\nblock3_conv4 (Conv2D)           (None, 8, 80, 256)   590080      block3_conv3[0][0]               \r\n__________________________________________________________________________________________________\r\nblock3_pool (MaxPooling2D)      (None, 4, 40, 256)   0           block3_conv4[0][0]               \r\n__________________________________________________________________________________________________\r\nblock4_conv1 (Conv2D)           (None, 4, 40, 512)   1180160     block3_pool[0][0]                \r\n__________________________________________________________________________________________________\r\nblock4_conv2 (Conv2D)           (None, 4, 40, 512)   2359808     block4_conv1[0][0]               \r\n__________________________________________________________________________________________________\r\nblock4_conv3 (Conv2D)           (None, 4, 40, 512)   2359808     block4_conv2[0][0]               \r\n__________________________________________________________________________________________________\r\nblock4_conv4 (Conv2D)           (None, 4, 40, 512)   2359808     block4_conv3[0][0]               \r\n__________________________________________________________________________________________________\r\nblock4_pool (MaxPooling2D)      (None, 2, 20, 512)   0           block4_conv4[0][0]               \r\n__________________________________________________________________________________________________\r\nblock5_conv1 (Conv2D)           (None, 2, 20, 512)   2359808     block4_pool[0][0]                \r\n__________________________________________________________________________________________________\r\nblock5_conv2 (Conv2D)           (None, 2, 20, 512)   2359808     block5_conv1[0][0]               \r\n__________________________________________________________________________________________________\r\nblock5_conv3 (Conv2D)           (None, 2, 20, 512)   2359808     block5_conv2[0][0]               \r\n__________________________________________________________________________________________________\r\nblock5_conv4 (Conv2D)           (None, 2, 20, 512)   2359808     block5_conv3[0][0]               \r\n__________________________________________________________________________________________________\r\nblock5_pool (MaxPooling2D)      (None, 1, 10, 512)   0           block5_conv4[0][0]               \r\n__________________________________________________________________________________________________\r\npermute (Permute)               (None, 10, 1, 512)   0           block5_pool[0][0]                \r\n__________________________________________________________________________________________________\r\ntimedistrib (TimeDistributed)   (None, 10, 512)      0           permute[0][0]                    \r\n__________________________________________________________________________________________________\r\nbidirectional (Bidirectional)   (None, 10, 1024)     4198400     timedistrib[0][0]                \r\n__________________________________________________________________________________________________\r\ndense (Dense)                   (None, 10, 512)      524800      bidirectional[0][0]              \r\n__________________________________________________________________________________________________\r\nbidirectional_1 (Bidirectional) (None, 10, 1024)     4198400     dense[0][0]                      \r\n__________________________________________________________________________________________________\r\norc_out (Dense)                 (None, 10, 21713)    22255825    bidirectional_1[0][0]            \r\n__________________________________________________________________________________________________\r\nthe_labels (InputLayer)         [(None, None)]       0                                            \r\n__________________________________________________________________________________________________\r\ninput_length (InputLayer)       [(None, 1)]          0                                            \r\n__________________________________________________________________________________________________\r\nlabel_length (InputLayer)       [(None, 1)]          0                                            \r\n__________________________________________________________________________________________________\r\nctc (Lambda)                    (None, 1)            0           orc_out[0][0]                    \r\n                                                                              the_labels[0][0]                 \r\n                                                                              input_length[0][0]               \r\n                                                                              label_length[0][0]               \r\n=======
…
