…
41] Created TensorFlow device (/job:localhost/replica:0/task:0/device:GPU:0 with 9440 MB memory) -> physical GPU (device: 0, name: GeForce RTX 2080 Ti, pci bus id: 0000:01:00.0, compute capability: 7.5)\r\nModel: \"model\"\r\n_________________________________________________________________\r\nLayer (type)                 Output Shape              Param #   \r\n=================================================================\r\ninput (InputLayer)           [(None, 1024, 128, 1)]    0         \r\n_________________________________________________________________\r\nconv2d (Conv2D)              (None, 512, 64, 16)       160       \r\n_________________________________________________________________\r\np_re_lu (PReLU)              (None, 512, 64, 16)       16        \r\n_________________________________________________________________\r\nbatch_normalization (BatchNo (None, 512, 64, 16)       112       \r\n_________________________________________________________________\r\nfull_gated_conv2d (FullGated (None, 512, 64, 16)       4640      \r\n_________________________________________________________________\r\nconv2d_1 (Conv2D)            (None, 512, 64, 32)       4640      \r\n_________________________________________________________________\r\np_re_lu_1 (PReLU)            (None, 512, 64, 32)       32        \r\n_________________________________________________________________\r\nbatch_normalization_1 (Batch (None, 512, 64, 32)       224       \r\n_________________________________________________________________\r\nfull_gated_conv2d_1 (FullGat (None, 512, 64, 32)       18496     \r\n_________________________________________________________________\r\nconv2d_2 (Conv2D)            (None, 256, 16, 40)       10280     \r\n_________________________________________________________________\r\np_re_lu_2 (PReLU)            (None, 256, 16, 40)       40        \r\n_________________________________________________________________\r\nbatch_normalization_2 (Batch (None, 256, 16, 40)       280       \r\n_________________________________________________________________\r\nfull_gated_conv2d_2 (FullGat (None, 256, 16, 40)       28880     \r\n_________________________________________________________________\r\ndropout (Dropout)            (None, 256, 16, 40)       0         \r\n_________________________________________________________________\r\nconv2d_3 (Conv2D)            (None, 256, 16, 48)       17328     \r\n_________________________________________________________________\r\np_re_lu_3 (PReLU)            (None, 256, 16, 48)       48        \r\n_________________________________________________________________\r\nbatch_normalization_3 (Batch (None, 256, 16, 48)       336       \r\n_________________________________________________________________\r\nfull_gated_conv2d_3 (FullGat (None, 256, 16, 48)       41568     \r\n_________________________________________________________________\r\ndropout_1 (Dropout)          (None, 256, 16, 48)       0         \r\n_________________________________________________________________\r\nconv2d_4 (Conv2D)            (None, 128, 4, 56)        21560     \r\n_________________________________________________________________\r\np_re_lu_4 (PReLU)            (None, 128, 4, 56)        56        \r\n_________________________________________________________________\r\nbatch_normalization_4 (Batch (None, 128, 4, 56)        392       \r\n_________________________________________________________________\r\nfull_gated_conv2d_4 (FullGat (None, 128, 4, 56)        56560     \r\n_________________________________________________________________\r\ndropout_2 (Dropout)          (None, 128, 4, 56)        0         \r\n_________________________________________________________________\r\nconv2d_5 (Conv2D)            (None, 128, 4, 64)        32320     \r\n_________________________________________________________________\r\np_re_lu_5 (PReLU)            (None, 128, 4, 64)        64        \r\n_________________________________________________________________\r\nbatch_normalization_5 (Batch (None, 128, 4, 64)        448       \r\n_________________________________________________________________\r\nmax_pooling2d (MaxPooling2D) (None, 128, 2, 64)        0         \r\n_________________________________________________________________\r\nreshape (Reshape)            (None, 128, 128)          0         \r\n_________________________________________________________________\r\nbidirectional (Bidirectional (None, 128, 256)          198144    \r\n_________________________________________________________________\r\ntime_distributed (TimeDistri (None, 128, 128)          32896     \r\n_________________________________________________________________\r\nbidirectional_1 (Bidirection (None, 128, 256)          198144    \r\n_________________________________________________________________\r\ntime_distributed_1 (TimeDist (None, 128, 98)           25186     \r\n=================================================================\r\nTotal params: 692,850\r\nTrainable params: 691,570\r\nNon-trainable params: 1,280\r\n_________________________________________________________________\r\nTrain for 545 steps, validate for 85 steps\r\nEpoch 1/1000\r\n2019-12-26 22:15:43.691246: I tensorflow/stream_executor/platform/default/dso_loader.cc:44] Successfully o
…
