…
ler flags.\r\n2020-08-31 17:33:39.860848: I tensorflow/compiler/xla/service/service.cc:168] XLA service 0x7fd061d24690 initialized for platform Host (this does not guarantee that XLA will be used). Devices:\r\n2020-08-31 17:33:39.860873: I tensorflow/compiler/xla/service/service.cc:176]   StreamExecutor device (0): Host, Default Version\r\nModel: \"sequential\"\r\n_________________________________________________________________\r\nLayer (type)                 Output Shape              Param #\r\n=================================================================\r\nconv2d (Conv2D)              (None, 88, 158, 32)       896\r\n_________________________________________________________________\r\nmax_pooling2d (MaxPooling2D) (None, 44, 79, 32)        0\r\n_________________________________________________________________\r\nconv2d_1 (Conv2D)            (None, 42, 77, 64)        18496\r\n_________________________________________________________________\r\nmax_pooling2d_1 (MaxPooling2 (None, 21, 38, 64)        0\r\n_________________________________________________________________\r\nflatten (Flatten)            (None, 51072)             0\r\n_________________________________________________________________\r\ndropout (Dropout)            (None, 51072)             0\r\n_________________________________________________________________\r\ndense (Dense)                (None, 12)                612876\r\n=================================================================\r\nTotal params: 632,268\r\nTrainable params: 632,268\r\nNon-trainable params: 0\r\n_________________________________________________________________\r\nEpoch 1/10\r\nTraceback (most recent call last):\r\n  File \"train.py\", line 24, in <module>\r\n    history = model.fit(train_ds, validation_data=test_ds, epochs=10, callbacks=
…
