…
ic library cusparse64_10.dll\r\n2020-09-24 21:35:15.815903: I tensorflow/stream_executor/platform/default/dso_loader.cc:48] Successfully opened dynamic library cudnn64_7.dll\r\n2020-09-24 21:35:15.816520: I tensorflow/core/common_runtime/gpu/gpu_device.cc:1858] Adding visible gpu devices: 0\r\nFound 10000 images belonging to 10 classes.\r\nModel: \"sequential\"\r\n_________________________________________________________________\r\nLayer (type)                 Output Shape              Param  \r\n=================================================================\r\nconv2d (Conv2D)              (None, 254, 254, 32)      896       \r\n_________________________________________________________________\r\nconv2d_1 (Conv2D)            (None, 252, 252, 32)      9248      \r\n_________________________________________________________________\r\nmax_pooling2d (MaxPooling2D) (None, 84, 84, 32)        0         \r\n_________________________________________________________________\r\nconv2d_2 (Conv2D)            (None, 82, 82, 64)        18496     \r\n_________________________________________________________________\r\nconv2d_3 (Conv2D)            (None, 80, 80, 64)        36928     \r\n_________________________________________________________________\r\nmax_pooling2d_1 (MaxPooling2 (None, 26, 26, 64)        0         \r\n_________________________________________________________________\r\nconv2d_4 (Conv2D)            (None, 24, 24, 128)       73856     \r\n_________________________________________________________________\r\nconv2d_5 (Conv2D)            (None, 22, 22, 128)       147584    \r\n_________________________________________________________________\r\nconv2d_6 (Conv2D)            (None, 20, 20, 128)       147584    \r\n_________________________________________________________________\r\nmax_pooling2d_2 (MaxPooling2 (None, 6, 6, 128)         0         \r\n_________________________________________________________________\r\naverage_pooling2d (AveragePo (None, 1, 1, 128)         0         \r\n_________________________________________________________________\r\nflatten (Flatten)            (None, 128)               0         \r\n_________________________________________________________________\r\ndense (Dense)                (None, 64)                8256      \r\n_________________________________________________________________\r\ndropout (Dropout)            (None, 64)                0         \r\n_________________________________________________________________\r\ndense_1 (Dense)              (None, 10)                650       \r\n\r\nTotal params: 443,498\r\nTrainable params: 443,498\r\nNon-trainable params: 0\r\n_________________________________________________________________\r\n\r\n2020-09-24 21:35:09.493907: I tensorflow/stream_executor/platform/default/dso_loader.cc:48] Successfully opened dynamic library cudart64_101.dll\r\n2020-09-24 21:35:14.913210: I tensorflow/stream_executor/platform/default/dso_loade
…
pened dynamic library cusolver64_10.dll\r\n> 2020-09-24 21:35:15.815307: I tensorflow/stream_executor/platform/default/dso_loader.cc:48] Successfully opened dynamic library cusparse64_10.dll\r\n> 2020-09-24 21:35:15.815903: I tensorflow/stream_executor/platform/default/dso_loader.cc:48] Successfully opened dynamic library cudnn64_7.dll\r\n> 2020-09-24 21:35:15.816520: I tensorflow/core/common_runtime/gpu/gpu_device.cc:1858] Adding visible gpu devices: 0\r\n> Found 10000 images belonging to 10 classes.\r\n> Model: \"sequential\"\r\n> \r\n> # Layer (type) Output Shape Param\r\n> conv2d (Conv2D) (None, 254, 254, 32) 896\r\n> \r\n> conv2d_1 (Conv2D) (None, 252, 252, 32) 9248\r\n> \r\n> max_pooling2d (MaxPooling2D) (None, 84, 84, 32) 0\r\n> \r\n> conv2d_2 (Conv2D) (None, 82, 82, 64) 18496\r\n> \r\n> conv2d_3 (Conv2D) (None, 80, 80, 64) 36928\r\n> \r\n> max_pooling2d_1 (MaxPooling2 (None, 26, 26, 64) 0\r\n> \r\n> conv2d_4 (Conv2D) (None, 24, 24, 128) 73856\r\n> \r\n> conv2d_5 (Conv2D) (None, 22, 22, 128) 147584\r\n> \r\n> conv2d_6 (Conv2D) (None, 20, 20, 128) 147584\r\n> \r\n> max_pooling2d_2 (MaxPooling2 (None, 6, 6, 128) 0\r\n> \r\n> average_pooling2d (AveragePo (None, 1, 1, 128) 0\r\n> \r\n> flatten (Flatten) (None, 128) 0\r\n> \r\n> dense (Dense) (None, 64) 8256\r\n> \r\n> dropout (Dropout) (None, 64) 0\r\n> \r\n> dense_1 (Dense) (None, 10) 650\r\n> \r\n> Total params: 443,498\r\n> Trainable params: 443,498\r\n> Non-trainable params: 0\r\n> \r\n> 2020-09-24 21:35:09.493907: I tensorflow/stream_executor/platform/default/dso_loader.cc:48] Successfully opened dynamic library cudart64_101.dll\r\n> 2020-09-24 21:35:14.913210: I tensorflow/stream_executor/platform/default/dso_loader.cc:48] Successfully opened dynamic library nvcuda.dll\r\n> 2
…
