…
r\n    model.add(tf.keras.layers.TimeDistributed(tf.keras.layers.Dense(units=1, name = 'dense_1', activation = 'relu')))\r\n    #model.add(Dense(units=1, name = 'dense_2'))\r\n\r\n    optimizer = tf.keras.optimizers.RMSprop() #lr=0.0001, rho=0.9, epsilon=1e-08, decay=0.9)\r\n    model.compile(loss = \"mse\", optimizer = optimizer)\r\n    return model\r\n\r\n\r\n_________________________________________________________________\r\nLayer (type)                 Output Shape              Param #   \r\n=================================================================\r\nbatch_norm_0 (BatchNormaliza (None, 8, 4, 1, 1)        4         \r\n_________________________________________________________________\r\nconv_lstm_1 (ConvLSTM2D)     (None, 8, 4, 1, 64)       166656    \r\n_________________________________________________________________\r\ndropout_1 (Dropout)          (None, 8, 4, 1, 64)       0         \r\n_________________________________________________________________\r\nbatch_norm_1 (BatchNormaliza (None, 8, 4, 1, 64)       256       \r\n_________________________________________________________________\r\nconv_lstm_2 (ConvLSTM2D)     (None, 4, 1, 64)          164096    \r\n_________________________________________________________________\r\ndropout_2 (Dropout)          (None, 4, 1, 64)          0         \r\n_________________________________________________________________\r\nbatch_norm_2 (BatchNormaliza (None, 4, 1, 64)          256       \r\n_________________________________________________________________\r\nflatten_2 (Flatten)          (None, 256)               0         \r\n_________________________________________________________________\r\nrepeat_vector_2 (RepeatVecto (None, 3, 256)            0         \r\n_________________________________________________________________\r\nreshape_2 (Reshape)          (None, 3, 4, 1, 64)       0         \r\n_________________________________________________________________\r\nconv_lstm_3 (ConvLSTM2D)     (None, 3, 4, 1, 64)       327936    \r\n_________________________________________________________________\r\ndropout_3 (Dropout)          (None, 3, 4, 1, 64)       0         \r\n_________________________________________________________________\r\nbatch_norm_3 (BatchNormaliza (None, 3, 4, 1, 64)       256       \r\n_________________________________________________________________\r\nconv_lstm_4 (ConvLSTM2D)     (None, 3, 4, 1, 64)       164096    \r\n_________________________________________________________________\r\ntime_distributed_2 (TimeDist (None, 3, 4, 1, 1)        65        \r\n=================================================================\r\n```\r\nAbout train data and test data shape.\r\nThis shape means each 8 time steps have one time series feature of length 4.\r\nPredict is next 3 time step.\r\n```python\r\n- X_train shape : (198, 8, 4, 1, 1)    X_test shape : (150, 8, 4, 1, 1)\r\n- Y_train shape : (198, 3, 4, 1, 1)    Y_test shape : (150, 3, 4, 1, 1)
…
s.layers.TimeDistributed(tf.keras.layers.Dense(units=1, name = 'dense_1', activation = 'relu')))\r\n    #model.add(Dense(units=1, name = 'dense_2'))\r\n\r\n    optimizer = tf.keras.optimizers.RMSprop() #lr=0.0001, rho=0.9, epsilon=1e-08, decay=0.9)\r\n    model.compile(loss = \"mse\", optimizer = optimizer)\r\n    return model\r\n\r\nModel: \"sequential_23\"\r\n_________________________________________________________________\r\nLayer (type)                 Output Shape              Param #   \r\n=================================================================\r\nbatch_norm_0 (BatchNormaliza (None, 8, 2, 4, 1)        4         \r\n_________________________________________________________________\r\nconv_lstm_1 (ConvLSTM2D)     (None, 8, 2, 4, 64)       333056    \r\n_________________________________________________________________\r\ndropout_1 (Dropout)          (None, 8, 2, 4, 64)       0         \r\n_________________________________________________________________\r\nbatch_norm_1 (BatchNormaliza (None, 8, 2, 4, 64)       256       \r\n_________________________________________________________________\r\nconv_lstm_2 (ConvLSTM2D)     (None, 2, 4, 64)          327936    \r\n_________________________________________________________________\r\ndropout_2 (Dropout)          (None, 2, 4, 64)          0         \r\n_________________________________________________________________\r\nbatch_norm_2 (BatchNormaliza (None, 2, 4, 64)          256       \r\n_________________________________________________________________\r\nflatten_22 (Flatten)         (None, 512)               0         \r\n_________________________________________________________________\r\nrepeat_vector_22 (RepeatVect (None, 3, 512)            0         \r\n_________________________________________________________________\r\nreshape_22 (Reshape)         (None, 3, 4, 1, 64)       0         \r\n_________________________________________________________________\r\nconv_lstm_3 (ConvLSTM2D)     (None, 3, 4, 1, 64)       655616    \r\n_________________________________________________________________\r\ndropout_3 (Dropout)          (None, 3, 4, 1, 64)       0         \r\n_________________________________________________________________\r\nbatch_norm_3 (BatchNormaliza (None, 3, 4, 1, 64)       256       \r\n_________________________________________________________________\r\nconv_lstm_4 (ConvLSTM2D)     (None, 3, 4, 1, 64)       327936    \r\n_________________________________________________________________\r\ntime_distributed_22 (TimeDis (None, 3, 4, 1, 1)        65        \r\n=================================================================\r\n```\r\nI could't understand why below error occurred when i tried model fit.\r\n```python\r\nmodel = build_multi_model(8, 3, 4)\r\nhistory = model.fit(multi_X_train, Y_train,\r\n                    batch_size = batch_size, epochs = epoch,\r\n                    shuffle = False, validation_data = (multi_X_test, Y_test)
…
\r\n            validation_split=validation_split)\r\n\r\n# Generate generalization metrics\r\nscore = model.evaluate(input_test, label_test, verbose=0)\r\nprint(f'Test loss: {score[0]} / Test accuracy: {score[1]}')\r\n\r\n\r\n**Other info / logs** Include any logs or source code that would be helpful to\r\nThe output is like this \r\nModel: \"sequential_3\"\r\n_________________________________________________________________\r\nLayer (type)                 Output Shape              Param #   \r\n=================================================================\r\nconv2d_9 (Conv2D)            (None, 26, 26, 32)        320       \r\n_________________________________________________________________\r\nconv2d_10 (Conv2D)           (None, 24, 24, 64)        18496     \r\n_________________________________________________________________\r\nconv2d_11 (Conv2D)           (None, 22, 22, 128)       73856     \r\n_________________________________________________________________\r\nflatten_3 (Flatten)          (None, 61952)             0         \r\n_________________________________________________________________\r\ndense_6 (Dense)              (None, 128)               7929984   \r\n_________________________________________________________________\r\ndense_7 (Dense)              (None, 10)                1290      \r\n=================================================================\r\nTotal params: 8,023,946\r\nTrainable params: 8,023,946\r\nNon-trainable params: 0\r\n_________________________________________________________________\r\nEpoch 1/25\r\n960/960 [==============================] - 3s 3ms/step - loss: 6.4279 - accuracy: 0.1099 - val_loss: 2.3022 - val_accuracy: 0.1060\r\nEpoch 2/25\r\n960/9
…
