…
 files belonging to 5 classes.\r\nUsing 6751 files for training.\r\nUsing 750 files for validation.\r\nModel: \"model\"\r\n__________________________________________________________________________________________________\r\nLayer (type)                    Output Shape         Param #     Connected to\r\n==================================================================================================\r\ninput (InputLayer)              [(None, 8000, 1)]    0\r\n__________________________________________________________________________________________________\r\nconv1d_1 (Conv1D)               (None, 8000, 16)     64          input[0][0]\r\n__________________________________________________________________________________________________\r\nactivation (Activation)         (None, 8000, 16)     0           conv1d_1[0][0]\r\n__________________________________________________________________________________________________\r\nconv1d_2 (Conv1D)               (None, 8000, 16)     784         activation[0][0]\r\n__________________________________________________________________________________________________\r\nconv1d (Conv1D)                 (None, 8000, 16)     32          input[0][0]\r\n__________________________________________________________________________________________________\r\nadd (Add)                       (None, 8000, 16)     0           conv1d_2[0][0]\r\n                                                                 conv1d[0][0]\r\n__________________________________________________________________________________________________\r\nactivation_1 (Activation)       (None, 8000, 16)     0           add[0][0]\r\n__________________________________________________________________________________________________\r\nmax_pooling1d (MaxPooling1D)    (None, 4000, 16)     0           activation_1[0][0]\r\n__________________________________________________________________________________________________\r\nconv1d_4 (Conv1D)               (None, 4000, 32)     1568        max_pooling1d[0][0]\r\n__________________________________________________________________________________________________\r\nactivation_2 (Activation)       (None, 4000, 32)     0           conv1d_4[0][0]\r\n__________________________________________________________________________________________________\r\nconv1d_5 (Conv1D)               (None, 4000, 32)     3104        activation_2[0][0]\r\n__________________________________________________________________________________________________\r\nconv1d_3 (Conv1D)               (None, 4000, 32)     544         max_pooling1d[0][0]\r\n__________________________________________________________________________________________________\r\nadd_1 (Add)                     (None, 4000, 32)     0           conv1d_5[0][0]\r\n                                                                 conv1d_3[0][0]\r\n__________________________________________________________________________________________________\r\nactivation_3 (Activation)       (None, 4000, 32)     0           add_1[0][0]\r\n__________________________________________________________________________________________________\r\nmax_pooling1d_1 (MaxPooling1D)  (None, 2000, 32)     0           activation_3[0][0]\r\n__________________________________________________________________________________________________\r\nconv1d_7 (Conv1D)               (None, 2000, 64)     6208        max_pooling1d_1[0][0]\r\n__________________________________________________________________________________________________\r\nactivation_4 (Activation)       (None, 2000, 64)     0           conv1d_7[0][0]\r\n__________________________________________________________________________________________________\r\nconv1d_8 (Conv1D)               (None, 2000, 64)     12352       activation_4[0][0]\r\n__________________________________________________________________________________________________\r\nactivation_5 (Activation)       (None, 2000, 64)     0           conv1d_8[0][0]\r\n__________________________________________________________________________________________________\r\nconv1d_9 (Conv1D)               (None, 2000, 64)     12352       activation_5[0][0]\r\n__________________________________________________________________________________________________\r\nconv1d_6 (Conv1D)               (None, 2000, 64)     2112        max_pooling1d_1[0][0]\r\n__________________________________________________________________________________________________\r\nadd_2 (Add)                     (None, 2000, 64)     0           conv1d_9[0][0]\r\n                                                                 conv1d_6[0][0]\r\n__________________________________________________________________________________________________\r\nactivation_6 (Activation)       (None, 2000, 64)     0           add_2[0][0]\r\n__________________________________________________________________________________________________\r\nmax_pooling1d_2 (MaxPooling1D)  (None, 1000, 64)     0           activation_6[0][0]\r\n__________________________________________________________________________________________________\r\nconv1d_11 (Conv1D)              (None, 1000, 128)    24704       max_pooling1d_2[0][0]\r\n__________________________________________________________________________________________________\r\nactivation_7 (Activation)       (None, 1000, 128)    0           conv1d_11[0][0]\r\n__________________________________________________________________________________________________\r\nconv1d_12 (Conv1D)              (None, 1000, 128)    49280       activation_7[0][0]\r\n__________________________________________________________________________________________________\r\nactivation_8 (Activation)       (None, 1000, 128)    0           conv1d_12[0][0]\r\n__________________________________________________________________________________________________\r\nconv1d_13 (Conv1D)              (None, 1000, 128)    49280       activation_8[0][0]\r\n__________________________________________________________________________________________________\r\nconv1d_10 (Conv1D)              (None, 1000, 128)    8320        max_pooling1d_2[0][0]\r\n__________________________________________________________________________________________________\r\nadd_3 (Add)                     (None, 1000, 128)    0           conv1d_13[0][0]\r\n                                                                 conv1d_10[0][0]\r\n__________________________________________________________________________________________________\r\nactivation_9 (Activation)       (None, 1000, 128)    0           add_3[0][0]\r\n__________________________________________________________________________________________________\r\nmax_pooling1d_3 (MaxPooling1D)  (None, 500, 128)     0           activation_9[0][0]\r\n__________________________________________________________________________________________________\r\nconv1d_15 (Conv1D)              (None, 500, 128)     49280       max_pooling1d_3[0][0]\r\n__________________________________________________________________________________________________\r\nactivation_10 (Activation)      (None, 500, 128)     0           conv1d_15[0][0]\r\n__________________________________________________________________________________________________\r\nconv1d_16 (Conv1D)              (None, 500, 128)     49280       activation_10[0][0]\r\n__________________________________________________________________________________________________\r\nactivation_11 (Activation)      (None, 500, 128)     0           conv1d_16[0][0]\r\n__________________________________________________________________________________________________\r\nconv1d_17 (Conv1D)              (None, 500, 128)     49280       activation_11[0][0]\r\n__________________________________________________________________________________________________\r\nconv1d_14 (Conv1D)              (None, 500, 128)     16512       max_pooling1d_3[0][0]\r\n__________________________________________________________________________________________________\r\nadd_4 (Add)                     (None, 500, 128)     0           conv1d_17[0][0]\r\n                                                                 conv1d_14[0][0]\r\n__________________________________________________________________________________________________\r\nactivation_12 (Activation)      (None, 500, 128)     0           add_4[0][0]\r\n__________________________________________________________________________________________________\r\nmax_pooling1d_4 (MaxPooling1D)  (None, 250, 128)     0           activation_12[0][0]\r\n__________________________________________________________________________________________________\r\naverage_pooling1d (AveragePooli (None, 83, 128)      0           max_pooling1d_4[0][0]\r\n__________________________________________________________________________________________________\r\nflatten (Flatten)               (None, 10624)        0           average_pooling1d[0][0]\r\n__________________________________________________________________________________________________\r\ndense (Dense)                   (None, 256)          2720000     flatten[0][0]\r\n__________________________________________________________________________________________________\r\ndense_1 (Dense)                 (None, 128)          32896       dense[0][0]\r\n__________________________________________________________________________________________________\r\noutput (Dense)                  (None, 5)            645         dense_1[0][0]\r\n==================================================================================================\r\nTotal params: 3,088,597\r\nTrainable params: 3,088,597\r\nNon-trainable params: 0\r\n__________________________________________________________________________________________________\r\n2021-03-14 21:26:50.279589: I tensorflow/compiler/mlir/mlir_graph_optimization_pass.c
…
