…
00/100 - 6s - loss: 0.7517 - accuracy: 0.7424\r\naccuracy = 74.24 %\r\n\r\nTest cycle : 3\r\n\r\nAccuracy check on GPU\r\n100/100 - 8s - loss: 0.7521 - accuracy: 0.7463\r\naccuracy = 74.63 %\r\nAccuracy check on CPU\r\n100/100 - 13s - loss: 0.7522 - accuracy: 0.7462\r\naccuracy = 74.62 %\r\nAccuracy check on CPU with FP16 ACCUMULATE\r\n100/100 - 6s - loss: 0.7522 - accuracy: 0.7460\r\naccuracy = 74.60 %\r\n\r\nModel summary:\r\n\r\nLayer (type)                 Output Shape              Param #\r\n=================================================================\r\nconv2d (Conv2D)              (None, 55, 55, 96)        34944\r\n_________________________________________________________________\r\nbatch_normalization (BatchNo (None, 55, 55, 96)        384\r\n_________________________________________________________________\r\nmax_pooling2d (MaxPooling2D) (None, 27, 27, 96)        0\r\n_________________________________________________________________\r\nconv2d_1 (Conv2D)            (None, 27, 27, 256)       614656\r\n_________________________________________________________________\r\nbatch_normalization_1 (Batch (None, 27, 27, 256)       1024\r\n_________________________________________________________________\r\nmax_pooling2d_1 (MaxPooling2 (None, 13, 13, 256)       0\r\n_________________________________________________________________\r\nconv2d_2 (Conv2D)            (None, 13, 13, 384)       885120\r\n_________________________________________________________________\r\nbatch_normalization_2 (Batch (None, 13, 13, 384)       1536\r\n_________________________________________________________________\r\nconv2d_3 (Conv2D)            (None, 13, 13, 384)       1327488\r\n_________________________________________________________________\r\nbatch_normalization_3 (Batch (None, 13, 13, 384)       1536\r\n_________________________________________________________________\r\nconv2d_4 (Conv2D)            (None, 13, 13, 256)       884992\r\n_________________________________________________________________\r\nbatch_normalization_4 (Batch (None, 13, 13, 256)       1024\r\n_________________________________________________________________\r\nmax_pooling2d_2 (MaxPooling2 (None, 6, 6, 256)         0\r\n_________________________________________________________________\r\nflatten (Flatten)            (None, 9216)              0\r\n_________________________________________________________________\r\ndense (Dense)                (None, 4096)              37752832\r\n_________________________________________________________________\r\ndropout (Dropout)            (None, 4096)              0\r\n_________________________________________________________________\r\ndense_1 (Dense)              (None, 4096)              16781312\r\n_________________________________________________________________\r\ndropout_1 (Dropout)          (None, 4096)              0\r\n_________________________________________________________________\r\ndense_2 (Dense)              (None, 10)                40970\r\n=================================================================\r\nTotal params: 58,327,818\r\nTrainable params: 58,325,066\r\nNon-trainable params: 2,752\r\n\r\nTest sequence:\r\n\r\n# Training on GPU\r\nexport CUDA_VISIBLE_DEVICES=0\r\nexport TF_CONV2D_USE_FP16_ACCUMULATE=0\r\nrun training\r\n\r\n# Accuracy check on GPU\r\nexport CUDA_VISIBLE_DEVICES=0\r\nexport TF_CONV2D_USE_FP16_ACCUMULA
…
