…
ame.ljust(15), \"validation:\", '| loss:', score[0], '| accuracy:', score[1])\r\n\r\nprint(\"time:\", int(time.time() - timer_start), \"s\")\r\n```\r\n\r\nOutput\r\n```python3\r\n./src/keras/examples/main.py \r\nconfig {'verbose': False, 'epochs': 12, 'batch_size': 128, 'input_shape': (28, 28, 1), 'output_shape': 10}\r\nSequentialCNN\r\nModel: \"sequential\"\r\n_________________________________________________________________\r\nLayer (type)                 Output Shape              Param #   \r\n=================================================================\r\nconv2d (Conv2D)              (None, 26, 26, 32)        320       \r\n_________________________________________________________________\r\nconv2d_1 (Conv2D)            (None, 24, 24, 64)        18496     \r\n_________________________________________________________________\r\nmax_pooling2d (MaxPooling2D) (None, 12, 12, 64)        0         \r\n_________________________________________________________________\r\ndropout (Dropout)            (None, 12, 12, 64)        0         \r\n_________________________________________________________________\r\nflatten (Flatten)            (None, 9216)              0         \r\n_________________________________________________________________\r\ndense (Dense)                (None, 128)               1179776   \r\n_________________________________________________________________\r\ndropout_1 (Dropout)          (None, 128)               0         \r\n_________________________________________________________________\r\ndense_1 (Dense)              (None, 10)                1290      \r\n=================================================================\r\nTotal params: 1,199,882\r\nTrainable params: 1,199,882\r\nNon-trainable params: 0\r\n_________________________________________________________________\r\nFunctionalCNN\r\nModel: \"FunctionalCNN\"\r\n_________________________________________________________________\r\nLayer (type)                 Output Shape              Param #   \r\n=================================================================\r\ninput_1 (InputLayer)         [(None, 28, 28, 1)]       0         \r\n_________________________________________________________________\r\nconv2d_2 (Conv2D)            (None, 26, 26, 32)        320       \r\n_________________________________________________________________\r\nconv2d_3 (Conv2D)            (None, 24, 24, 64)        18496     \r\n_________________________________________________________________\r\nmax_pooling2d_1 (MaxPooling2 (None, 12, 12, 64)        0         \r\n_________________________________________________________________\r\ndropout_2 (Dropout)          (None, 12, 12, 64)        0         \r\n_________________________________________________________________\r\nflatten_1 (Flatten)          (None, 9216)              0         \r\n_________________________________________________________________\r\ndense_2 (Dense)              (None, 128)               1179776   \r\n_________________________________________________________________\r\ndropout_3 (Dropout)          (None, 128)               0         \r\n_________________________________________________________________\r\ndense_3 (Dense)              (None, 10)                1290      \r\n=================================================================\r\nTotal params: 1,199,882\r\nTrainable params: 1,199,882\r\nNon-trainable params: 0\r\n_________________________________________________________________\r\nClassCNN\r\nModel: \"class_cnn\"\r\n_________________________________________________________________\r\nLayer (type)                 Output Shape              Param #
…
