…
w version with:\r\n\r\n```bash\r\npython -c \"import tensorflow as tf; print(tf.version.GIT_VERSION, tf.version.VERSION)\"\r\n```\r\n\r\n### Describe the problem\r\nI am trying to convert a tensorflow model into the tensorflow lite format. It prompts that it failed to duplicate values for the stateful op when the conversion goes to the bidirectional lstm layer. Here below is the network structure.\r\nModel: \"sequential\"\r\n_________________________________________________________________\r\nLayer (type)                 Output Shape              Param #   \r\n\r\nconv1d (Conv1D)              (None, 1558, 32)          5024      \r\n\r\nmax_pooling1d (MaxPooling1D) (None, 389, 32)           0       \r\n  \r\nbatch_normalization (BatchNo (None, 389, 32)           128       \r\n\r\nconv1d_1 (Conv1D)            (None, 386, 64)           8256      \r\n\r\nmax_pooling1d_1 (MaxPooling1 (None, 96, 64)            0         \r\n\r\nbatch_normalization_1 (Batch (None, 96, 64)            256       \r\n\r\nbidirectional (Bidirectional (None, 50)                18000     \r\n\r\ndense (Dense)                (None, 32)                1632      \r\n\r\ndense_1 (Dense)              (None, 25)                825       \r\n\r\nTotal params: 34,121\r\nTrainable params: 33,929\r\nNon-trainable params: 192\r\n__________________________\r\n\r\n### Source code / logs\r\nHere is the code to raised this error.\r\n`converter = tf.lite.TFLiteConverter.from_saved_model(save_model_dir)`\r\n`converter.target_spec.supported_ops = [tf.lite.OpsSet.TFLITE_BUILTINS,\r\n                                           tf.lite.Op
…
