…
/docs.google.com/forms/d/e/1FAIpQLSfaP12TRhd9xSxjXZjcZFNXPGk4kc1-qMdv3gc6bEP90vY1ew/viewform?entry.85265664=No&entry.2137816233=https://github.com/tensorflow/tensorflow/issues/39965\">No</a>\n"]}, {"number": 39963, "title": "Error when using Class_Weight in Keras for binary classification", "body": "Here is the model summary: \r\n```\r\nModel: \"sequential\"\r\n_________________________________________________________________\r\nLayer (type)                 Output Shape              Param #   \r\n=================================================================\r\nconv1d (Conv1D)              (None, 35, 32)            96        \r\n_________________________________________________________________\r\nbatch_normalization (BatchNo (None, 35, 32)            128       \r\n_________________________________________________________________\r\ndropout (Dropout)            (None, 35, 32)            0         \r\n_________________________________________________________________\r\nconv1d_1 (Conv1D)            (None, 34, 64)            4160      \r\n_________________________________________________________________\r\nbatch_normalization_1 (Batch (None, 34, 64)            256       \r\n_________________________________________________________________\r\ndropout_1 (Dropout)          (None, 34, 64)            0         \r\n_________________________________________________________________\r\nflatten (Flatten)            (None, 2176)              0         \r\n_________________________________________________________________\r\ndense (Dense)                (None, 64)                139328    \r\n_________________________________________________________________\r\ndropout_2 (Dropout)          (None, 64)                0         \r\n_________________________________________________________________\r\ndense_1 (Dense)              (None, 1)                 65        \r\n=================================================================\r\nTotal params: 144,033\r\nTrainable params: 143,841\r\nNon-trainable params: 192\r\n```\r\nHere is the error message:\r\n\r\n```\r\nInvalidArgumentError                      Traceback (most recent call last)\r\n<ipython-input-14-09a8a255f317> in <module>()\r\n----> 1 history = model.fit(X_Train,Y_Train, epochs = epochs
…
